models/autoencoder.pth (torch, 39687 bytes, 12 tensors)

encoder.0.weight f4 [64, 26]
-0.17695563 -0.03370372 -0.05270672 0.16399972 0.36213106 -0.010199358 0.109617926 -0.015367031
-0.101453766 -0.059154473 -0.1272027 0.14280199 -0.12499513 0.016306777 -0.033839453 0.027435781
-0.058111437 0.14565358 -0.04520233 0.2881549 0.09144211 -0.056678474 -0.13325682 0.015161432
0.0042719017 0.006164167 0.13418067 0.11005265 -0.2167262 -0.06411504 0.10912297 -0.4685343
-0.08943529 -0.062268175 -0.21105775 0.05520868 -0.16793267 -0.18843828 -0.08470308 -0.26725727
-0.09526988 0.055720907 -0.065176785 -0.07584341 -0.2421409 -0.2386615 -0.12018931 -0.012076065
0.022146592 -0.09179879 0.580468 0.16895337 -0.07381373 -0.1661335 -0.17774504 -0.063244276
0.082662605 -0.34857363 0.0598858 -0.15622526 -0.12224094 -0.17750083 -0.10787381 0.11057957
-0.007169668 -0.19365242 -0.042308945 0.021779679 0.14189728 0.14664407 -0.17740221 -0.18304285
-0.09557623 -0.04863381 -0.1434935 0.06494872 0.4283059 0.12268931 -0.15381813 -0.14907458
-0.06553185 0.13743065 0.051830396 0.3773336 0.06862452 -0.16076827 0.17996456 0.12579061
0.14759326 0.07988459 0.013526134 -0.37069327 -0.018266462 0.15756032 -0.17096213 -0.18994467
-0.0015707174 -0.025248075 0.112768546 -0.02913309 -0.048568312 0.08516429 -0.0104637835 0.018209415
-0.04765908 0.08866787 0.14113691 -0.12726684 -0.18550538 -0.15976192 -0.051524747 -0.037081085
-0.037907213 0.16622892 0.07511598 0.12561628 0.0349771 -0.6382337 0.29874548 0.16991282
-0.027668417 -0.05093852 -0.124584205 -0.13340797 -0.16638142 0.091564626 0.035530385 0.08209685
0.10960242 -0.2576064 0.17909326 -0.081974216 0.181797 0.09021673 -0.09404501 0.40351588
0.119460665 0.19802 0.05839684 0.103444695 -0.104612075 0.09635526 -0.015635256 0.22540857
0.066454075 -0.03391453 0.14091086 -0.14294288 0.20322034 0.20928784 0.18506275 -0.07716437
0.1540815 -0.13007705 -0.49712533 -0.14323182 -0.20990543 0.06332399 -0.20039743 -0.01911149
-0.20364821 -0.015763137 -0.06580963 -0.06063823 -0.15218891 -0.15770698 -0.10282233 0.14441638
-0.066011295 -0.036286123 -0.26864836 -0.32968616 0.11665907 0.14100453 0.06747611 0.4889235
0.092979714 -0.09680884 -0.15437523 0.00431016 0.24556501 -0.0831444 -0.23172612 -0.17073359
-0.18856566 -0.12590814 -0.1662015 -0.16790618 -0.086214885 -0.21735653 0.09938184 0.0493591
-0.1384506 -0.12887913 -0.050682783 0.22003695 0.20175512 0.23470013 0.018588519 -0.06626287
0.11279627 0.21071139 -0.24133089 0.14152116 0.0013954282 -0.16779898 -0.19496895 -0.5890066
0.06912088 -0.116734736 0.09899666 0.083738066 0.09977826 0.023281585 -0.0069276784 -0.09213996
-0.19876625 -0.1439744 -0.19578426 -0.064626135 -0.04053552 0.18011688 0.3660309 0.089680366
0.07733499 -0.005046117 -0.06904227 0.43205002 -0.13480574 -0.05185485 0.12640342 -0.002945735
0.049691062 0.46661213 0.1973433 -0.14133395 0.078278385 -0.15639935 -0.07528935 0.2694994
0.16455735 -0.004053537 -0.10858834 -0.1056326 0.04352962 0.19396046 -0.040031314 0.23331805
0.14497183 -0.7226178 -0.09646214 0.060231186 -0.96057147 0.20557082 0.029016467 -0.013348772
00000000: db33 35be e90c 0abd 00e3 57bd 8bef 273e
00000010: 3e69 b93e 351b 27bc 5d7f e03d 00c6 7bbc
00000020: fec6 cfbd f64b 72bd 6d41 02be af3a 123e
00000030: 72fd ffbd ca95 853c 3d9b 0abd 01c1 e03c
00000040: 4206 6ebd 3626 153e 1426 39bd 0a89 933e
00000050: 0046 bb3d b027 68bd 7a74 08be a867 783c
00000060: 4ffb 8b3b c8fc c93b a866 093e 4963 e13d
00000070: 79ed 5dbe bf4e 83bd dd7b df3d bae3 efbe
00000080: d929 b7bd ea0c 7fbd 861f 58be 7f22 623d
00000090: 8bf6 2bbe f7f5 40be cf78 adbd f2d5 88be
000000a0: db1c c3bd 9b3b 643d 687b 85bd ca53 9bbd
000000b0: c9f3 77be ae63 74be d025 f6bd b0da 45bc
000000c0: c56c b53c 0101 bcbd 8d99 143f 1d02 2d3e
000000d0: a72b 97bd e61e 2abe cc02 36be 3786 81bd
000000e0: 034b a93d 3e78 b2be d04a 753d 84f9 1fbe
000000f0: 7559 fabd c7c2 35be f2ec dcbd 8b77 e23d
00000100: 89ef eabb d24c 46be 254c 2dbd 4c6b b23c
00000110: 854d 113e dd29 163e eda8 35be 966f 3bbe
00000120: 78bd c3bd 3f34 47bd f6ef 12be d603 853d
00000130: e94a db3e 8844 fb3d 8082 1dbe 02a7 18be
00000140: 9035 86bd 9fba 0c3e 1c4c 543d df31 c13e
00000150: 038b 8c3d 70a0 24be a148 383e 41cf 003e
00000160: b022 173e 889a a33d b89c 5d3c 82cb bdbe
00000170: 8ca3 95bc 7e57 213e b210 2fbe db80 42be
00000180: 88e0 cdba 0dd5 cebc 32f3 e63d 85a8 eebc
00000190: 91ef 46bd 9e6a ae3d 4a70 2bbc e92b 953c
000001a0: 2b36 43bd 8097 b53d 3286 103e 3d52 02be
000001b0: 1ff5 3dbe a198 23be 9d0b 53bd 56e2 17bd
000001c0: 9844 1bbd ea37 2a3e 68d6 993d 8ea1 003e
000001d0: 2644 0f3d 4963 23bf 2bf5 983e a0fd 2d3e
000001e0: e0a8 e2bc e9a4 50bd 0126 ffbd 199c 08be
000001f0: e45f 2abe 3c86 bb3d 4f88 113d 6522 a83d
00000200: 3c77 e03d fce4 83be 3964 373e 19e2 a7bd
00000210: fe28 3a3e 8dc3 b83d ac9a c0bd a299 ce3e
00000220: cba7 f43d c1c5 4a3e 8631 6f3d d0da d33d
00000230: db3e d6bd e855 c53d 8215 80bc 81d1 663e
00000240: 1319 883d f6e9 0abd f04a 103e 9e5f 12be
00000250: fe18 503e 8d4f 563e 1781 3d3e 5a08 9ebd
00000260: 8ac7 1d3e eb32 05be 3687 febe 5dab 12be
00000270: 73f1 56be 02b0 813d fc34 4dbe b38f 9cbc
00000280: 2889 50be b221 81bc 33c7 86bd cb5f 78bd
00000290: 69d7 1bbe f07d 21be 8494 d2bd e3e1 133e
000002a0: ee30 87bd c2a0 14bd 478c 89be a0cc a8be
000002b0: f3ea ee3d 7e63 103e ea30 8a3d 2e54 fa3e
000002c0: 266c be3d b743 c6bd 8a14 1ebe 3e3c 8d3b
000002d0: 6575 7b3e 9c47 aabd 9d49 6dbe c9d4 2ebe
000002e0: 5b17 41be 10ee 00be ba30 2abe 99ef 2bbe
000002f0: 6e91 b0bd b692 5ebe b588 cb3d c52c 4a3d
00000300: fec5 0dbe e4f8 03be c098 4fbd 5e51 613e
00000310: e598 4e3e 3b55 703e f346 983c d4b4 87bd
00000320: bb01 e73d bac4 573e 721f 77be ecea 103e
00000330: cde6 b63a 7fd3 2bbe f1a5 47be 23c9 16bf
00000340: 3f8f 8d3d 9f12 efbd c3be ca3d dd7e ab3d
00000350: 8b58 cc3d 06b9 be3c 9401 e3bb e0b3 bcbd
00000360: 6189 4bbe 066e 13be ab7b 48be b55a 84bd
00000370: 9308 26bd 8f70 383e 6768 bb3e 57aa b73d
00000380: cf61 9e3d e659 a5bb 0966 8dbd a935 dd3e
00000390: 840a 0abe c065 54bd e66f 013e 3b0d 41bb
000003a0: db88 4b3d c9e7 ee3e 5d14 4a3e d9b9 10be
000003b0: 6b50 a03d 2727 20be 4d31 9abd d3fb 893e
000003c0: b981 283e 88d3 84bb 9063 debd e855 d8bd
000003d0: 1d4c 323d 929d 463e e0f7 23bd edea 6e3e
000003e0: 7f73 143e 7bfd 38bf f18d c5bd fab4 763d
000003f0: 03e8 75bf 2881 523e f1b3 ed3c cfb4 5abc

encoder.0.bias f4 [64]
0.50433666 0.049686387 0.033696033 -0.024355952 -0.20033135 -0.04100894 -0.12482713 0.07143803
-0.00883693 -1.031145 -0.8291373 0.18521966 -1.2137167 -1.4336678 -1.253416 0.08872815
0.18908101 0.06820228 -0.3621439 0.3502732 0.36686677 -0.43298665 -0.042065717 -0.10870723
-0.015017316 -0.153176 0.20889926 -0.023536894 -0.66358525 -0.07243036 -0.15616328 0.054842424
-0.002498579 0.053138934 0.007944923 0.48608136 0.44184375 -0.04596166 0.029964115 -0.1963217
-0.3491774 -0.09072687 0.0037673542 -0.12627862 0.010185853 -0.063168295 0.09986545 -0.09230153
-0.030936928 0.03295327 -0.062747315 0.4389708 0.6005677 0.16948551 -0.63823175 0.010784858
-0.74950767 0.14481051 -0.30536166 -0.97290695 -0.46129337 -0.5955779 0.42877975 0.060855575
00000000: 351c 013f f483 4b3d da04 0a3d 2286 c7bc
00000010: a923 4dbe fef8 27bd 5ea5 ffbd 1a4e 923d
00000020: c5c8 10bc 8ffc 83bf 5842 54bf 39aa 3d3e
00000030: 125b 9bbf 6d82 b7bf ef6f a0bf 1bb7 b53d
00000040: 749e 413e a3ad 8b3d ed6a b9be 0257 b33e
00000050: f6d5 bb3e 6db0 ddbe 1a4d 2cbd e5a1 debd
00000060: 300b 76bc 2bda 1cbe b0e9 553e 72d0 c0bc
00000070: b9e0 29bf 5e56 94bd 44e9 1fbe 73a2 603d
00000080: 33bf 23bb 36a8 593d 6c2b 023c a8df f83e
00000090: 5839 e23e 4b42 3cbd 4e77 f53c 8e08 49be
000000a0: 61c7 b2be 02cf b9bd b7e5 763b 2f4f 01be
000000b0: 90e2 263c 615e 81bd 4286 cc3d 9608 bdbd
000000c0: 716f fdbc 02fa 063d aa81 80bd c8c0 e03e
000000d0: cebe 193f 9c8d 2d3e 2863 23bf f9b2 303c
000000e0: bcdf 3fbf 3549 143e 5d58 9cbe 6e10 79bf
000000f0: a52e ecbe cb77 18bf 0589 db3e b243 793d

encoder.2.weight f4 [32, 64]
-0.0036170734 -0.1153851 0.015648646 0.0290933 -0.057215672 0.063907884 0.2755941 0.029539615
-0.038471084 0.048772603 0.19860317 0.04061437 -0.0027281567 0.17580216 0.10309172 0.069113016
0.13335042 0.19979565 0.05223293 -0.07833545 0.053145234 0.12558357 0.03452474 0.09073951
-0.0010133154 0.022744322 -0.033580832 -0.14665306 0.058139198 0.036708366 0.09273611 0.03130912
0.22454 0.04487904 -0.03804375 0.1550633 0.15064976 0.099824175 0.056753878 0.09636963
0.3178542 -0.010013937 -0.14616117 0.05742505 0.12148775 -0.055353835 -0.07922834 -0.0062297015
-0.0952337 0.1982504 -0.08445988 -0.021512471 0.12063396 0.06534663 0.13833112 0.016397785
0.11406869 -0.1475864 0.031530086 0.26992893 0.021076022 -0.009058511 0.26225844 0.050469954
0.15817773 0.048923057 -0.038786784 0.006195547 0.17822805 -0.080537386 0.071321525 0.0779139
0.0017842037 0.1436434 0.08587905 -0.055308033 0.11507227 0.17070271 0.0468984 0.051619474
0.03088885 0.07093117 -0.022059847 -0.015588059 0.115149274 -0.002364814 -0.009811574 -0.08613932
0.08736132 -0.08008186 -0.1288031 0.09434678 0.19114457 0.05969293 0.037304115 0.19421388
-0.00065253506 -0.018790038 0.07893728 0.031478897 0.11380781 0.0035404803 -0.07129303 0.07751802
0.35773447 -0.008409998 0.24487561 0.047972895 -0.03433805 -0.18082301 0.1928005 -0.016825296
0.1826547 -0.031229915 0.11726653 0.04617602 0.14199407 0.025218274 0.23725957 0.057969954
0.042270806 0.0007333437 0.14237057 0.26948926 0.11522064 0.19825867 -0.061435264 0.08671574
-0.069953896 0.069256134 0.09745191 -0.12527262 0.0009761961 -0.15562697 -0.07657618 0.06632408
-0.05403345 0.18702155 0.0464543 0.06883808 0.059424914 0.41056454 0.21763058 0.05731332
-0.092912845 -0.100836635 0.069361314 -0.058994558 0.015703859 0.03648804 0.071546294 -0.04612532
-0.027765151 -0.0394434 0.02284977 -0.026299033 0.11300541 -0.0040202322 0.11529429 0.102469474
0.05694182 0.023917744 -0.02509094 0.2587337 0.043364473 -0.11822353 -0.027797129 0.17126969
0.0623331 0.05696896 -0.018557603 0.032804023 0.1457005 -0.011318119 0.3953393 0.08629329
0.040763047 0.08103878 -0.0670391 0.061535195 0.19223589 -0.014545306 0.24942248 0.1789933
0.100263916 0.006377893 0.034192752 0.20440874 0.1658904 0.08980669 0.10763032 0.03813346
0.009394725 0.24177825 0.28755113 0.18770227 0.18264775 -0.089897424 0.106378764 0.07842752
-0.012844327 0.036231253 0.19867542 -0.06543455 -0.037990004 0.039042637 0.045069356 0.1948788
0.103682786 0.020756703 0.09505845 0.17815821 0.17128481 -0.000162274 -0.054477565 0.14175048
-0.007837797 0.07265251 0.005827402 0.15333635 0.0041250223 0.05338057 0.15773144 0.012148566
-0.14198734 0.04089203 0.104532294 -0.09524598 0.0049295756 -0.0737675 -0.054475166 0.3017167
0.16244271 -0.0021774606 0.12628587 0.10911441 0.1375271 0.20284083 0.026715124 0.03593996
0.0770191 0.07477009 0.031636577 -0.069635525 -0.024932016 -0.024677053 0.08051495 0.25284824
-0.03978536 0.15931128 -0.08856672 0.07789848 0.08557432 -0.01488125 0.16183949 0.006912106
00000000: 6c0c 6dbb 064f ecbd 9731 803c 1355 ee3c
00000010: fb5a 6abd 23e2 823d ab1a 8d3e 10fd f13c
00000020: db93 1dbd c8c5 473d a15e 4b3e 415b 263d
00000030: e0ca 32bb 7b05 343e c021 d33d 208b 8d3d
00000040: 038d 083e 3b97 4c3e 32f2 553d 566e a0bd
00000050: d1ae 593d fb98 003e d069 0d3d a3d5 b93d
00000060: 39d1 84ba 4d52 ba3c 0e8c 09bd 382c 16be
00000070: 5e23 6e3d 835b 163d 6eec bd3d fe3d 003d
00000080: d0ed 653e 16d3 373d c3d3 1bbd eac8 1e3e
00000090: ee43 1a3e 9e70 cc3d c176 683d 715d c53d
000000a0: c9bd a23e 7f11 24bc 46ab 15be 8736 6b3d
000000b0: 92ce f83d b4ba 62bd 7842 a2bd 8622 ccbb
000000c0: e309 c3bd 2702 4b3e 4df9 acbd ec3a b0bc
000000d0: f00e f73d 74d4 853d aca6 0d3e a654 863c
000000e0: d89c e93d e420 17be b125 013d 2034 8a3e
000000f0: 9fa7 ac3c 266a 14bc bd46 863e 95b9 4e3d
00000100: 58f9 213e 8b63 483d e4de 1ebd 0404 cb3b
00000110: 6a81 363e c9f0 a4bd 0511 923d 5391 9f3d
00000120: f1db e93a 4117 133e 5be1 af3d ad8a 62bd
00000130: 03ab eb3d b1cc 2e3e 8918 403d f16e 533d
00000140: 9d0a fd3c 5c44 913d dab6 b4bc 0f65 7fbc
00000150: 62d3 eb3d fffa 1abb b9c0 20bc d069 b0bd
00000160: 7eea b23d f501 a4bd f6e4 03be e238 c13d
00000170: 67bb 433e 9380 743d 33cc 183d 01e0 463e
00000180: e30e 2bba 91ed 99bc dea9 a13d 04f0 003d
00000190: 1214 e93d 6707 683b 1502 92bd c5c1 9e3d
000001a0: f928 b73e 17ca 09bc acc0 7a3e 3a7f 443d
000001b0: 0ea6 0cbd ab29 39be 7f6d 453e 34d5 89bc
000001c0: d509 3b3e e1d5 ffbc 6f29 f03d 1123 3d3d
000001d0: e566 113e 8e96 ce3c 2cf4 723e e771 6d3d
000001e0: 2724 2d3d dd3d 403a 97c9 113e 7ffa 893e
000001f0: cdf8 eb3d 5204 4b3e 8ba3 7bbd 0698 b13d
00000200: fd43 8fbd 29d6 8d3d de94 c73d 7747 00be
00000210: 69e7 7f3a ad5c 1fbe f9d3 9cbd ebd4 873d
00000220: 2e52 5dbd 9482 3f3e dd46 3e3d fbfa 8c3d
00000230: 8a67 733d 8435 d23e 8dda 5e3e 5fc1 6a3d
00000240: 1749 bebd 7083 cebd 4e0d 8e3d 47a4 71bd
00000250: 61a5 803c 7c74 153d dd86 923d e7ed 3cbd
00000260: be73 e3bc 678f 21bd 712f bb3c 1271 d7bc
00000270: 616f e73d 27bc 83bb 6a1f ec3d 84db d13d
00000280: d33b 693d 25ef c33c 848b cdbc be78 843e
00000290: f29e 313d 2e1f f2bd ceb6 e3bc 5261 2f3e
000002a0: fe50 7f3d 4958 693d 1d06 98bc 835d 063d
000002b0: 8332 153e a26f 39bc ea69 ca3e 89ba b03d
000002c0: 27f7 263d a9f7 a53d cc4b 89bd 540c 7c3d
000002d0: 7cd9 443e 6f4f 6ebc 9b68 7f3e 054a 373e
000002e0: 2b57 cd3d a5fd d03b b30d 0c3d 8650 513e
000002f0: 2cdf 293e 92ec b73d 496d dc3d d531 1c3d
00000300: 55ec 193c b894 773e e739 933e 0635 403e
00000310: 0308 3b3e 241c b8bd 1cdd d93d 9c9e a03d
00000320: 0371 52bc 3967 143d 9271 4b3e 8d02 86bd
00000330: 689b 1bbd 2ceb 1f3d a59a 383d 4f8e 473e
00000340: a457 d43d f609 aa3c 01ae c23d 1b6f 363e
00000350: 4965 2f3e 1828 2ab9 de23 5fbd 0a27 113e
00000360: 1a6a 00bc d7ca 943d cbf3 be3b 3404 1d3e
00000370: 322b 873b 96a5 5a3d 5a84 213e c70a 473c
00000380: 2165 11be 677e 273d 0715 d63d 5310 c3bd
00000390: 4788 a13b 6a13 97bd 5a21 5fbd 9c7a 9a3e
000003a0: 6257 263e bab3 0ebb 1551 013e 6077 df3d
000003b0: e7d3 0c3e 82b5 4f3e add9 da3c c835 133d
000003c0: 31bc 9d3d 1021 993d 5b95 013d 129d 8ebd
000003d0: 3a3e ccbc 8827 cabc 06e5 a43d 5375 813e
000003e0: f9f5 22bd 7f22 233e 7862 b5bd 3d89 9f3d
000003f0: 9741 af3d 7dd0 73bc 40b9 253e f37e e23b

encoder.2.bias f4 [32]
-0.03821175 0.13237782 0.03615906 0.12192069 0.18905029 0.07548636 0.015655229 0.106175326
0.09328734 0.16983958 0.16868788 0.1594942 0.16814594 0.11216497 0.06967108 0.115341246
0.06399609 -0.05115611 -0.03481506 0.13665757 -0.14271782 -0.022461602 -0.035946794 0.007136928
0.061168425 -0.032398257 0.19280742 0.098323375 0.18427536 0.014790153 0.09378344 0.013037733
00000000: ed83 1cbd 0d8e 073e 861b 143d 8eb1 f93d
00000010: 6696 413e 9898 9a3d 653f 803c 7372 d93d
00000020: 6f0d bf3d 6dea 2d3e 84bc 2c3e 7352 233e
00000030: 732e 2c3e bfb6 e53d b6af 8e3d 0838 ec3d
00000040: 6210 833d 1289 51bd 3d9a 0ebd f6ef 0b3e
00000050: 9f24 12be 6501 b8bc f23c 13bd e4dc e93b
00000060: be8b 7a3d 09b4 04bd 4f6f 453e c45d c93d
00000070: aeb2 3c3e 6652 723c 8811 c03d 379c 553c

encoder.4.weight f4 [16, 32]
-0.009114675 0.030719103 -0.04073261 -0.0742325 0.12463029 -0.25535482 -0.07743794 -0.1455709
-0.03834453 0.05872581 -0.061565794 -0.4926923 -0.20395999 -0.0035388132 -0.08202115 -0.08021391
0.091583416 -0.100867204 0.077319466 0.12207124 0.09661988 -0.0032145453 -0.16731775 -0.028278412
0.014094996 0.039020374 0.32371593 0.12550275 -0.18980508 -0.09065926 -0.040390614 -0.11938182
-0.07472876 0.13610376 0.14781111 -0.051968373 -0.34994876 0.13587673 0.13548775 0.3017201
-0.16931735 -0.06684386 -0.14390412 -0.11142936 0.24041976 0.1955902 -0.09761387 0.2452657
0.19047923 -0.17822231 0.15896645 -0.1663272 0.121219985 -0.15890574 -0.025561435 -0.27274808
0.009334049 0.02040413 -0.21067303 0.03755093 0.24523345 -0.09191034 -0.18568459 0.071741775
-0.13658296 -0.103884496 -0.12582807 -0.045043144 -0.16718876 0.011989436 -0.00041617686 -0.03154122
0.119491994 -0.022040512 0.09479538 0.33585444 -0.16353843 -0.0057393075 -0.111118644 -0.0363284
-0.048600215 0.11927259 -0.09115704 0.16882549 -0.04225004 0.22073698 0.00082417723 -0.043071844
-0.031770892 0.08829842 0.13016887 -0.11371715 -0.17779298 -0.059950795 0.037587788 0.19151708
-0.15320972 0.14821643 -0.073528714 0.17370053 -0.074627854 -0.08673177 -0.31469017 0.11700009
-0.030614652 0.17260376 0.1674292 -0.016534062 -0.110280454 -0.043416865 0.18164386 -9.87179e-05
-0.13700716 -0.08099102 -0.18808256 0.17679104 0.102442324 0.042749852 -0.002573827 0.15708761
0.087317765 -0.08284949 0.108934775 0.026893185 0.21390441 -0.14646898 -0.2359518 -0.15068378
0.0130699845 0.04700773 0.06337103 -0.2204774 0.16843157 0.1275679 0.3762871 -0.10897686
0.26758552 0.05653694 0.12978488 -0.3675292 0.07604485 -0.018870892 0.008396412 0.09918667
-0.18045788 -0.1515067 -0.038471367 -0.2724541 0.12526654 0.016851837 -0.14653954 0.052831672
-0.09114013 0.09261955 0.04003321 0.03178595 0.0714716 0.09104165 0.02231839 -0.123271234
0.024231397 -0.0032710126 -0.22858867 0.010589737 -0.025213864 0.38196033 0.062870756 -0.13146953
-0.12076525 -0.10582022 0.0071432213 -0.15541112 0.07186891 0.05154066 0.2567495 -0.18420342
-0.15257394 -0.08198349 0.037414294 -0.02997116 0.121338 0.09339425 -0.03987307 -0.027132839
-0.116020896 -0.08690987 0.01877278 -0.19569315 -0.16162522 0.21133867 0.12155188 -0.021916172
-0.10147313 0.12263269 0.18211521 -0.15560621 0.14489071 -0.052942954 0.01715767 -0.0497217
0.11213706 0.23657072 -0.32424745 0.015202611 -0.23695834 0.10535195 0.092216425 -0.02604485
-0.14191586 0.17006838 0.018441614 -0.060676843 0.07503472 0.06364067 0.07937938 -0.049531005
0.24963897 -0.04648893 -0.26975113 0.14262395 0.1445609 0.17906497 0.1935877 -0.07819648
0.1833631 -0.07712657 0.1602658 -0.16438662 -0.3561295 0.17379329 0.17270572 0.14620051
0.13754414 -0.16323529 -0.15771073 0.20461471 -0.13892655 0.05698373 0.04154419 0.010233273
0.004954491 -0.120801196 0.014131287 0.03348505 0.020750139 0.018338822 -0.11146095 -0.030124687
0.041667722 0.18882984 0.12574892 0.123298705 -0.29095614 -0.09413064 0.09122037 0.0069462312
00000000: b855 15bc a1a6 fb3c 3dd7 26bd 3507 98bd
00000010: 2a3e ff3d debd 82be c897 9ebd 8a10 15be
00000020: 270f 1dbd 7a8a 703d 6a2c 7cbd 2a42 fcbe
00000030: e3da 50be 6feb 67bb b4fa a7bd 3147 a4bd
00000040: 1690 bb3d 7793 cebd ab59 9e3d 7c00 fa3d
00000050: a5e0 c53d 1fab 52bb 5855 2bbe 21a8 e7bc
00000060: b3ee 663c d4d3 1f3d 18be a53e cb83 003e
00000070: 435c 42be 90ab b9bd a170 25bd 757e f4bd
00000080: 640b 99bd c95e 0b3e cc5b 173e cadc 54bd
00000090: 7c2c b3be 4523 0b3e 4dbd 0a3e 0f7b 9a3e
000000a0: 8761 2dbe 6fe5 88bd 9a5b 13be 1435 e4bd
000000b0: 9930 763e cc48 483e c8e9 c7bd ef26 7b3e
000000c0: fd0c 433e e97f 36be 1ac8 223e ad51 2abe
000000d0: 2f42 f83d 30b8 22be 3766 d1bc a3a5 8bbe
000000e0: d7ed 183c 9026 a73c acba 57be 01cf 193d
000000f0: 7a1e 7b3e 7d3b bcbd 1a24 3ebe 5aed 923d
00000100: 67dc 0bbe 65c1 d4bd 13d9 00be 297f 38bd
00000110: 8833 2bbe 576f 443c 5032 dab9 5e31 01bd
00000120: 38b8 f43d 4e8e b4bc 1524 c23d 1df5 ab3e
00000130: 9e76 27be cd10 bcbb 2c92 e3bd 17cd 14bd
00000140: 0511 47bd 3045 f43d 8bb0 babd 97e0 2c3e
00000150: 610e 2dbd e008 623e 990d 583a 1a6c 30bd
00000160: 3222 02bd cdd5 b43d fd4a 053e 8ae4 e8bd
00000170: 5d0f 36be f78e 75bd a7f5 193d 0e1d 443e
00000180: 02e3 1cbe 0cc6 173e 3996 96bd 8dde 313e
00000190: 7dd6 98bd 6da0 b1bd 121f a1be be9d ef3d
000001a0: 94cb fabc 0abf 303e 8f72 2b3e 7172 87bc
000001b0: b8da e1bd e2d5 31bd d900 3a3e c506 cfb8
000001c0: 9b4b 0cbe 9fde a5bd b798 40be b608 353e
000001d0: 48cd d13d 781a 2f3d a7ad 28bb 93db 203e
000001e0: a8d3 b23d feac a9bd 3219 df3d 194f dc3c
000001f0: c209 5b3e f7fb 15be 599d 71be d94c 1abe
00000200: 7d23 563c 2d8b 403d acc8 813d d4c4 61be
00000210: 5379 2c3e 29a1 023e b4a8 c03e 432f dfbd
00000220: f800 893e 4793 673d 54e6 043e ca2c bcbe
00000230: 67bd 9b3d 2197 9abc 1b91 093c 6122 cb3d
00000240: f3c9 38be 9324 1bbe 2794 1dbd 1b7f 8bbe
00000250: df45 003e dd0c 8a3c 760e 16be 0666 583d
00000260: ada7 babd 52af bd3d ddf9 233d fc31 023d
00000270: b45f 923d 0b74 ba3d 0ed5 b63c a175 fcbd
00000280: ec80 c63c 7c5e 56bb 2613 6abe 9480 2d3c
00000290: 4e8d cebc 4e90 c33e 62c2 803d f39f 06be
000002a0: c553 f7bd 46b8 d8bd af11 ea3b 1824 1fbe
000002b0: 0230 933d 4d1c 533d ac74 833e d29f 3cbe
000002c0: 583c 1cbe f6e6 a7bd bb3f 193d 1486 f5bc
000002d0: 0f80 f83d 7c45 bf3d f251 23bd b045 debc
000002e0: 5d9c edbd cdfd b1bd 60c9 993c c963 48be
000002f0: 1581 25be 2a69 583e 31f0 f83d 8b89 b3bc
00000300: 25d1 cfbd d926 fb3d 697c 3a3e 3c57 1fbe
00000310: 3b5e 143e b6da 58bd 3e8e 8c3c fba8 4bbd
00000320: 1da8 e53d 983f 723e c303 a6be 5f14 793c
00000330: 35a5 72be c3c2 d73d f7db bc3d 025c d5bc
00000340: 6452 11be 6826 2e3e de12 973c 4888 78bd
00000350: ceab 993d 0a56 823d a891 a23d 06e1 4abd
00000360: 5ca1 7f3e 2d6b 3ebd d21c 8abe 030c 123e
00000370: c607 143e cf5c 373e db3b 463e 7a25 a0bd
00000380: 89c3 3b3e 89f4 9dbd b81c 243e f754 28be
00000390: 9b56 b6be def6 313e c5d9 303e 96b5 153e
000003a0: 5fd8 0c3e 2727 27be ec7e 21be 8586 513e
000003b0: c342 0ebe c667 693d 3e2a 2a3d 75a9 273c
000003c0: 4859 a23b 9e66 f7bd ea86 673c 9f27 093d
000003d0: 32fc a93c 4c3b 963c a345 e4bd 0cc8 f6bc
000003e0: c6ab 2a3d 9c5c 413e 53c4 003e 0884 fc3d
000003f0: 34f8 94be 91c7 c0bd bfd1 ba3d 369d e33b

encoder.4.bias f4 [16]
0.0071703023 -0.005940359 0.08596253 -0.018665435 -0.13527952 0.20822248 -0.18972656 0.06397843
0.023738725 0.049892403 -0.19442256 -0.041662306 -0.012344335 -0.08021291 -0.1462518 -0.0035145977
00000000: dbf4 ea3b 58a7 c2bb 1f0d b03d 41e8 98bc
00000010: b786 0abe 4638 553e ae47 42be 2007 833d
00000020: b777 c23c fa5b 4c3d b516 47be 18a6 2abd
00000030: e53f 4abc ab46 a4bd 08c3 15be 2a55 66bb

decoder.0.weight f4 [32, 16]
-0.23673044 -0.2672534 0.15342553 0.013686624 -0.056894053 -0.00082165905 0.13521174 -0.03981307
0.2507939 0.13511609 -0.059813097 -0.059569757 0.17937268 0.14140241 0.00036694485 -0.0045964997
-0.31513667 -0.13496624 0.13581195 -0.17184785 -0.24719529 -0.16876915 0.014968746 0.16393188
0.0106804855 -0.028687626 0.15262027 0.019367762 -0.047369234 -0.15662524 -0.033609495 0.40703464
0.016997697 0.28102922 0.03020656 -0.091812074 -0.004036843 -0.20046443 0.06911411 -0.0003752191
-0.026844809 -0.07384916 0.016961453 0.06662528 0.32047495 -0.06950132 0.12697166 0.10349819
0.23566565 -0.01404165 -0.029852284 0.10899984 -0.018635388 0.012667448 -0.06305489 0.1607194
-0.18535765 0.07064213 0.08439606 0.015705528 -0.021572538 -0.1903023 -0.0015563631 -0.19912584
0.039509304 -0.16978906 0.0019956294 -0.032733724 0.0040960666 0.05712167 0.04898792 0.057247937
-0.0551064 0.27510738 0.27199775 0.30281174 0.14303361 -0.0836052 0.1253866 0.32193404
-0.33858478 -0.22622071 -0.10301286 -0.12451022 0.060367107 0.037942775 0.069729276 -0.16499576
0.039240193 0.17719927 -0.1620425 0.09589466 0.20367679 0.13272657 0.19248357 0.16487628
-0.15410858 -0.09978411 0.17103545 -0.14520444 -0.08050109 -0.07998591 -0.118342526 0.029889433
-0.03629067 0.41822946 -0.052875623 -0.13588427 0.26769057 -0.18296213 0.23106657 -0.116527654
-0.1075058 0.09721685 -0.012511102 -0.21868223 0.010627364 -0.069714785 -0.09963732 -0.26796642
0.0094225 0.184504 0.10083897 0.25857422 0.16937673 0.1548845 -0.1076811 0.11563961
0.13747855 0.0006074208 6.829361e-05 -0.17209326 0.09313807 0.09853603 0.03430042 0.029516838
-0.14171481 0.101442955 0.0006373446 0.13905407 0.08734832 -0.07125317 0.027032351 0.11371082
0.09587072 0.078457415 0.07659427 -0.24471442 0.045081906 -0.06269059 -0.045995124 0.026484137
0.2528716 0.2304146 -0.03245111 0.028704006 0.13608842 0.15693405 0.05475627 0.30387458
0.004231149 -0.0727176 0.01256991 0.097362906 -0.081472345 0.029152613 0.22919321 0.052827775
0.013847284 0.029412929 -0.023535617 -0.09912997 0.15504918 -0.054124445 -0.064345226 0.19726211
-0.041868504 0.019887367 -0.116018645 -0.029989855 -0.08722419 -0.022267016 -0.09980499 0.21877432
-0.037248347 0.1515441 -0.05299198 -0.12925643 0.16042359 0.16007617 0.025401222 0.028830906
-0.088634655 -0.20554523 -0.02876479 -0.13635674 0.15669964 -0.17870279 0.31456882 0.087278984
0.011676774 -0.015179657 -0.24057738 0.017537693 0.2056418 -0.08625471 -0.18681672 0.031500656
-0.15162186 -0.054850075 0.050888654 -0.035815466 -0.048261818 0.33697093 0.05000916 0.011054252
-0.021725561 0.07568908 0.21551669 0.13011366 0.010278948 0.022918036 0.11824214 0.22370282
-0.19181073 0.17895931 -0.20095602 0.15649761 -0.03820248 -0.18047272 0.17328823 -0.14416347
0.026891466 0.095584705 -0.051978335 0.044329904 0.30044603 -0.14813821 0.111835405 0.24119045
-0.26629815 0.066602625 -0.067448296 -0.10441755 0.06746647 0.06365009 -0.098495446 0.14694326
-0.0016178027 0.007291347 -0.0897623 -0.0863198 0.22707096 0.15559907 0.13568223 0.32415354
00000000: 7769 72be 70d5 88be 951b 1d3e dd3d 603c
00000010: bd09 69bd 9b64 57ba f274 0a3e 0813 23bd
00000020: 0f68 803e df5b 0a3e 94fe 74bd 6bff 73bd
00000030: 79ad 373e cbcb 103e 8162 c039 3c9e 96bb
00000040: 9859 a1be 9734 0abe 4a12 0b3e e2f8 2fbe
00000050: c320 7dbe d2d1 2cbe 793f 753c c2dd 273e
00000060: 34fd 2e3c 5002 ebbc 7d48 1c3e 24a9 9e3c
00000070: 3e06 42bd 5e62 20be 1caa 09bd d866 d03e
00000080: c13e 8b3c 10e3 8f3e bf73 f73c f807 bcbd
00000090: 7e47 84bb 8c46 4dbe b38b 8d3d 0eb9 c4b9
000000a0: a5e9 dbbc 3a3e 97bd bff2 8a3c d672 883d
000000b0: 4b15 a43e b556 8ebd dc04 023e dcf6 d33d
000000c0: 5652 713e f30e 66bc c78c f4bc 4f3b df3d
000000d0: 3ea9 98bc 218b 4f3c ec22 81bd a093 243e
000000e0: 65ce 3dbe d2ac 903d d7d7 ac3d e1a8 803c
000000f0: e4b8 b0bc 9bde 42be e1fe cbba a5e7 4bbe
00000100: 82d4 213d 2fdd 2dbe 1bc9 023b cc13 06bd
00000110: 4c38 863b 6af8 693d 8fa7 483d d07c 6a3d
00000120: 40b7 61bd e0da 8c3e 4a43 8b3e 240a 9b3e
00000130: 6777 123e 3439 abbd 5865 003e 8ad4 a43e
00000140: fc5a adbe 67a6 67be 68f8 d2bd 37ff febd
00000150: 8043 773d e269 1b3d 39ce 8e3d a6f4 28be
00000160: 53ba 203d ba73 353e 78ee 25be 6b64 c43d
00000170: a690 503e 79e9 073e 6a1a 453e 54d5 283e
00000180: a4ce 1dbe 9d5b ccbd eb23 2f3e 79b0 14be
00000190: c1dd a4bd a7cf a3bd 915d f2bd afda f43c
000001a0: 87a5 14bd 2c22 d63e 1c94 58bd 3f25 0bbe
000001b0: bd0e 893e 6d5a 3bbe b79c 6c3e 0da6 eebd
000001c0: 002c dcbd a119 c73d 5dfb 4cbc 3cee 5fbe
000001d0: 651e 2e3c a0c6 8ebd a70e ccbd e532 89be
000001e0: d460 1a3c 9eee 3c3e a984 ce3d d763 843e
000001f0: 1871 2d3e 0b9a 1e3e e987 dcbd 76d4 ec3d
00000200: 2dc7 0c3e 523b 1f3a da38 8f38 3739 30be
00000210: 2cbf be3d 42cd c93d 997e 0c3d 4ccd f13c
00000220: b01d 11be 53c1 cf3d 7913 273a 3164 0e3e
00000230: ade3 b23d 2fed 91bd f372 dd3c 38e1 e83d
00000240: de57 c43d 48ae a03d 75dd 9c3d 6b96 7abe
00000250: cea7 383d ed63 80bd 6265 3cbd 43f5 d83c
00000260: 6378 813e cef1 6b3e 75eb 04bd aa24 eb3c
00000270: c35a 0b3e 52b3 203e 1c48 603d 7395 9b3e
00000280: 73a5 8a3b f7ec 94bd 06f2 4d3c 3466 c73d
00000290: f9da a6bd 76d1 ee3c a0b1 6a3e f061 583d
000002a0: b8df 623c 62f3 f03c c4cd c0bc a704 cbbd
000002b0: 36c5 1e3e 98b1 5dbd 6ec7 83bd 14ff 493e
000002c0: 4f7e 2bbd d5ea a23c 2f9b edbd 49ad f5bc
000002d0: 99a2 b2bd 5169 b6bc 8f66 ccbd 6006 603e
000002e0: b991 18bd 602e 1b3e 1e0e 59bd cc5b 04be
000002f0: 1546 243e 02eb 233e 3916 d03c cb2e ec3c
00000300: 1686 b5bd 737a 52be 23a4 ebbc 1aa1 0bbe
00000310: df75 203e ddfd 36be 2a0f a13e 53bf b23d
00000320: f14f 3f3c 19b4 78bc eb59 76be 35ab 8f3c
00000330: c493 523e 4fa6 b0bd e24c 3fbe d506 013d
00000340: c342 1bbe 79aa 60bd 9f70 503d 3db3 12bd
00000350: 2fae 45bd 7487 ac3e 68d6 4c3d e51c 353c
00000360: cef9 b1bc e002 9b3d 68b0 5c3e 843c 053e
00000370: 0869 283c 9bbe bb3c ef28 f23d 5a12 653e
00000380: 086a 44be 1c41 373e 6ac7 4dbe e940 203e
00000390: 347a 1cbd d7cd 38be 7872 313e 979f 13be
000003a0: 7e4b dc3c eac1 c33d 3ce7 54bd 4693 353d
000003b0: 10d4 993e 8bb1 17be f609 e53d a1fa 763e
000003c0: 3b58 88be f566 883d 5522 8abd ded8 d5bd
000003d0: dc2b 8a3d fa5a 823d fbb7 c9bd 4b78 163e
000003e0: 730c d4ba 40ec ee3b 4cd5 b7bd 6fc8 b0bd
000003f0: 4a85 683e 5d55 1f3e 48f0 0a3e 74f7 a53e

decoder.0.bias f4 [32]
-0.107359454 0.14816608 0.12933289 -0.16676483 0.1566276 0.30269322 0.36657864 0.2877902
0.082219414 0.051851094 0.09597844 0.17480619 0.1803009 0.037518032 0.15472913 -0.044967853
0.11656793 0.03845823 0.3200226 0.1590384 0.10618372 0.10058845 0.009608193 0.073493816
0.31611273 0.06094851 -0.096700564 0.12933433 -0.27096137 0.4096097 0.2633516 0.32284784
00000000: 46df dbbd d9b8 173e d76f 043e 66c4 2abe
00000010: fc62 203e 9bfa 9a3e 32b0 bb3e 3d59 933e
00000020: a762 a83d d061 543d 5890 c43d 6500 333e
00000030: cda0 383e 82ac 193d 5071 1e3e 3630 38bd
00000040: 2bbb ee3d 6186 1d3d 01da a33e f6da 223e
00000050: da76 d93d 5101 ce3d af6b 1d3c ed83 963d
00000060: 87d9 a13e 25a5 793d f20a c6bd 3870 043e
00000070: 73bb 8abe 5db8 d13e 05d6 863e 504c a53e

decoder.2.weight f4 [64, 32]
0.046429902 -0.043645095 0.51955897 0.021205137 -0.35849425 -0.14536095 0.2767683 0.21420968
0.13938893 0.16938508 -0.21760514 0.107623994 0.30590624 -0.24692295 0.41236743 -0.12537427
0.11020494 -0.07222328 -0.21170738 -0.08991274 0.18442062 0.31500196 0.04832386 0.20753202
-0.2138867 0.0674014 0.12194525 -0.016566323 0.04226488 -0.01943519 -0.038506314 0.19119664
-0.101109535 -0.18479086 0.17284824 0.07768093 0.040340938 0.027829189 0.02541048 0.0384435
0.011584072 -0.1544649 0.08836873 -0.10671552 0.11036944 0.062451754 0.16028817 0.1839291
-0.16449055 -0.046576213 0.27538624 -0.17890103 0.0276131 -0.089261994 0.035179347 0.0918308
-0.0986437 -0.0246766 -0.090902954 -0.17835584 0.15008318 0.24344014 0.07773704 -0.011447628
-0.15281425 -0.16794042 0.103471816 0.06779234 -0.03617839 -0.0697343 -0.16595511 -0.0027316636
0.049133047 0.05762102 -0.16830602 0.055057354 0.12919748 -0.14484671 -0.113630265 -0.12118104
-0.0021915939 -0.06805131 -0.12895462 0.019732416 -0.057827372 -0.16029102 0.06604514 -0.045664676
-0.12858966 0.14638402 -0.08458379 -0.0844359 0.13259818 -0.14730863 0.073193796 0.126967
0.027942592 0.04165388 0.20103623 0.040906977 -0.20493752 0.33703825 0.32044625 0.13579129
0.046461876 0.26566088 0.14521088 0.25935915 0.10361072 -0.085604966 -0.1528799 0.3481957
0.080488406 -0.13494086 -0.17850699 -0.15710847 -0.20399484 0.097120084 -0.11508453 0.22070189
-0.0919143 0.05582811 0.10536404 0.096587405 0.06768894 -0.10646312 0.007427482 -0.033084888
0.09562572 0.02736148 -0.10060328 0.044280257 -0.053574145 -0.15505402 -0.02567668 -0.10954861
-0.11881169 0.114559345 -0.01625273 0.05409982 0.06683626 -0.123433344 -0.14324692 -0.09246346
-0.12533571 0.16322829 -0.11544359 0.12801509 0.07485314 -0.067845255 0.08845281 -0.030379469
0.022505974 -0.04522789 0.025657842 -0.17367008 0.06547711 -0.10690392 -0.018593546 0.056586314
0.035660014 0.10712946 -0.017229887 -0.16799067 0.103712425 0.09342194 -0.34236655 0.11029366
0.20631287 -0.07157477 0.006941551 -0.106315725 -0.03883702 0.27285963 -0.020817239 0.03591521
0.04262183 0.054354742 0.17889419 -0.009126996 0.120866 0.23007844 -0.022844624 0.2665241
0.06259624 -0.0074935835 -0.014751014 0.081605926 -0.13674574 -0.026188184 -0.21531989 0.09481931
0.14125648 -0.0531292 0.052116953 0.1555806 -0.05108154 0.25131908 0.072633244 -0.06546193
0.17879154 0.06800838 0.0816355 -0.03564084 -0.042588074 0.0075677135 0.31001735 0.087419085
-0.061179053 0.08449192 0.34248585 -0.025341174 0.102450356 -0.0047157267 -0.0014212595 -0.30564636
-0.1369979 -0.0065037264 0.11052134 -0.07123917 0.019109573 0.09906247 0.021127483 0.056980606
0.0013888918 0.16667381 -0.018281627 -0.08071064 0.020149708 0.10730226 0.031797394 -0.03536281
-0.05031318 0.011125512 0.038794573 0.0072140237 0.061712045 0.008089591 0.12751628 -0.12116069
0.04129619 -0.036722377 -0.13137455 -0.11102645 0.14193907 -0.05684487 -0.072854646 -0.029613752
0.048887063 -0.075078614 -0.04097463 -0.045347445 0.15771905 0.11673201 0.04759015 0.14433362
00000000: 482d 3e3d 33c5 32bd d101 053f 65b6 ad3c
00000010: 8f8c b7be 80d9 14be 93b4 8d3e c859 5b3e
00000020: f9bb 0e3e 4873 2d3e e2d3 5ebe f869 dc3d
00000030: be9f 9c3e 5fd9 7cbe d321 d33e 1d62 00be
00000040: 21b3 e13d cde9 93bd d2c9 58be 2c24 b8bd
00000050: c2d8 3c3e f047 a13e 3def 453d 4683 543e
00000060: 1d05 5bbe bf09 8a3d 6ebe f93d 19b6 87bc
00000070: f01d 2d3d 8c36 9fbc ccb8 1dbd 0dc9 433e
00000080: 8412 cfbd d139 3dbe 21ff 303e 2e17 9f3d
00000090: 8a3c 253d 0afa e33c a429 d03c ee76 1d3d
000000a0: 1fcb 3d3c 0c2c 1ebe aafa b43d ab8d dabd
000000b0: 5f09 e23d 69cd 7f3d 9522 243e e957 3c3e
000000c0: 3670 28be b3c6 3ebd 6dff 8c3e d531 37be
000000d0: de34 e23c fece b6bd 3818 103d c911 bc3d
000000e0: b505 cabd 9526 cabc 542b babd eaa2 36be
000000f0: 68af 193e 5f48 793e 9934 9f3d d58e 3bbc
00000100: 577b 1cbe 93f8 2bbe 08e9 d33d b6d6 8a3d
00000110: cb2f 14bd dbd0 8ebd 23f0 29be b605 33bb
00000120: bc3f 493d 0504 6c3d 6a58 2cbe d283 613d
00000130: 584c 043e b252 14be fcb6 e8bd c42d f8bd
00000140: d8a0 0fbb 7c5e 8bbd ae0c 04be e0a5 a13c
00000150: 65dc 6cbd 5423 24be ad42 873d e20a 3bbd
00000160: 02ad 03be b1e5 153e 443a adbd bbec acbd
00000170: d1c7 073e 13d8 16be a1e6 953d a303 023e
00000180: dde7 e43c 429d 2a3d 71dc 4d3e 138e 273d
00000190: 24db 51be 4790 ac3e 8811 a43e df0c 0b3e
000001a0: cf4e 3e3d b404 883e 29b2 143e b9ca 843e
000001b0: db31 d43d a851 afbd 8c8c 1cbe b546 b23e
000001c0: 1bd7 a43d f02d 0abe 89ca 36be 0be1 20be
000001d0: 06e4 50be e5e6 c63d 70b1 ebbd adff 613e
000001e0: 913d bcbd 04ac 643d 1ac9 d73d 9ecf c53d
000001f0: 80a0 8a3d 5609 dabd 3c62 f33b 0584 07bd
00000200: 6bd7 c33d 2f25 e03c 1809 cebd 375f 353d
00000210: 9070 5bbd 7bc6 1ebe e757 d2bc 065b e0bd
00000220: 8b53 f3bd 179e ea3d 7224 85bc c697 5d3d
00000230: 73e1 883d 9fca fcbd 52af 12be 7c5d bdbd
00000240: 0158 00be 5125 273e b06d ecbd 6316 033e
00000250: 9a4c 993d 74f2 8abd bf26 b53d 5dde f8bc
00000260: 735e b83c e140 39bd 6530 d23c 92d6 31be
00000270: dd18 863d 71f0 dabd 7e51 98bc 0dc7 673d
00000280: 3c10 123d b166 db3d b125 8dbc bf05 2cbe
00000290: 2e67 d43d 0154 bf3d ab4a afbe a4e1 e13d
000002a0: ae43 533e cb95 92bd f375 e33b 0fbc d9bd
000002b0: 9113 1fbd 42b4 8b3e ea88 aabc d41b 133d
000002c0: 3a94 2e3d 14a3 5e3d 0a30 373e 6589 15bc
000002d0: 9888 f73d af99 6b3e a624 bbbc d975 883e
000002e0: 7532 803d bc8c f5bb 3dae 71bc 0221 a73d
000002f0: 1307 0cbe 9a88 d6bc d17c 5cbe a030 c23d
00000300: 8aa5 103e 019e 59bd 9678 553d 8550 1f3e
00000310: e03a 51bd e5ac 803e bdc0 943d e810 86bd
00000320: 2115 373e fa47 8b3d 8330 a73d 21fc 11bd
00000330: d570 2ebd 95fa f73b 98ba 9e3e c708 b33d
00000340: e396 7abd 1a0a ad3d 4e5a af3e 4b98 cfbc
00000350: 7ed1 d13d 6286 9abb 8e49 baba ae7d 9cbe
00000360: 2d49 0cbe 361d d5bb 0359 e23d d8e5 91bd
00000370: ae8b 9c3c 44e1 ca3d 8b13 ad3c 7f64 693d
00000380: 7a0b b63a 8aac 2a3e 5ac3 95bc 9f4b a5bd
00000390: 0011 a53c 4ac1 db3d fc3d 023d 98d8 10bd
000003a0: 3115 4ebd c847 363c 0fe7 1e3d 9e63 ec3b
000003b0: c5c5 7c3d 348a 043c a193 023e 1923 f8bd
000003c0: 3226 293d 346a 16bd 0d87 06be d661 e3bd
000003d0: 7a58 113e 2bd6 68bd d134 95bd 8a98 f2bc
000003e0: cd3d 483d d1c2 99bd 03d5 27bd 3ebe 39bd
000003f0: 1a81 213e 3111 ef3d e4ed 423d 31cc 133e

decoder.2.bias f4 [64]
0.10202382 0.14840946 -0.022826586 -0.018352488 -0.16087706 0.07324987 0.008488579 -0.15265131
0.0198991 0.16348663 0.018035812 0.06374804 -0.038337365 0.021652533 0.07411363 -0.08146928
-0.23215911 0.027128078 0.0881665 0.021027327 -0.057490446 0.14720803 0.02830882 0.19440041
0.07074659 -0.033063505 0.08442273 -0.13890776 -0.036257356 0.055092152 -0.17603034 0.12291032
-0.12447606 0.27832624 0.058036797 0.21820118 -0.0039647636 -0.12410738 -0.20845298 0.01927307
-0.010802126 0.172424 0.17706303 -0.0287503 -0.1547431 0.24046203 0.13731188 -0.24543098
-0.014186266 0.26232463 -0.102604285 0.16311109 -0.01258706 0.039148852 -0.06577559 0.01643042
0.020845352 0.13857329 0.0024854844 0.19983715 -0.013459549 -0.094918095 0.12872043 -0.101946935
00000000: ddf1 d03d a6f8 173e d2fe babc f557 96bc
00000010: f5bc 24be 0704 963d ae13 0b3c a050 1cbe
00000020: 7003 a33c 0a69 273e d7bf 933c 558e 823d
00000030: a407 1dbd a760 b13c e3c8 973d 5ed9 a6bd
00000040: 1ebb 6dbe b43b de3c a390 b43d 8041 ac3c
00000050: 1a7b 6bbd b4bd 163e e6e7 e73c e710 473e
00000060: 97e3 903d 996d 07bd d3e5 ac3d d63d 0ebe
00000070: 9882 14bd 4fa8 613d 4c41 34be 68b8 fb3d
00000080: 4eed febd c780 8e3e feb7 6d3d 2170 5f3e
00000090: d9ea 81bb 032c febd b374 55be 8fe2 9d3c
000000a0: 66fb 30bc eb8f 303e 0350 353e c085 ebbc
000000b0: fa74 1ebe ae3b 763e 7c9b 0c3e 4252 7bbe
000000c0: 836d 68bc 6a4f 863e 3222 d2bd 9806 273e
000000d0: f539 4ebc 8c5a 203d 5ab5 86bd 1799 863c
000000e0: dfc3 aa3c 28e6 0d3e 82e3 223b 1ca2 4c3e
000000f0: 7185 5cbc 6b64 c2bd 4acf 033e 8ec9 d0bd

decoder.4.weight f4 [26, 64]
0.10624639 0.024101958 0.09707594 0.010116222 -0.0760555 0.022021912 -0.07316 0.006669016
0.08120388 -0.0024471565 0.04842751 0.17902797 0.041381836 0.099707015 -0.16936088 -0.055299573
-0.050690316 -0.048298806 -0.022048237 -0.05813577 -0.011384952 0.012549756 -0.056621153 -0.037212897
-0.14437336 0.10017321 0.09658702 0.09571578 0.0087052975 -0.038739875 0.049681857 -0.12355222
0.022248209 0.012915828 -0.0533186 0.071910344 -0.07327705 0.13366131 -0.03732613 0.037927054
-0.061798062 -0.061347928 -0.09106372 -0.021511234 0.12070273 0.0007801897 0.15777831 0.0043395474
0.021538427 0.0511239 0.016413152 0.008464128 -0.06289939 0.04558319 -0.003308178 -0.05020621
-0.015243007 -0.13645068 -0.092144854 0.056122143 0.12118381 -0.01286324 -0.087776035 0.014619724
0.004329386 -0.027724152 0.017991334 -0.031142348 0.067032576 -0.12232165 -0.06514556 0.020106152
0.048452385 0.0042931004 0.0078625195 0.08472494 0.1186673 0.04490363 -0.19901061 0.08733841
-0.005457533 0.01749695 -0.04555245 -0.0037240973 0.09040994 0.121249 -0.08140188 -0.04073602
0.012743648 -0.02155424 0.11598719 -0.03222481 0.06640337 -8.544261e-05 -0.09424502 0.120402664
-0.047839593 -0.043353632 0.05239842 -0.00803131 -0.02575607 -0.015778014 0.032117736 -0.028875435
-0.09163263 -0.02760217 -0.17092241 -0.00044768403 0.009215847 -0.0076698735 0.20167921 0.10758316
0.016848609 -0.041079134 -0.0203107 -0.01234038 0.0022240528 0.099884935 0.08606172 -0.019410424
-0.0083639175 0.027249124 0.07231829 -0.08975698 0.0720393 -0.020754809 -0.00022762928 0.010828787
0.0023073305 -0.02127102 0.042375684 0.004386846 0.10497454 -0.016644238 -0.086985774 -0.038091082
-0.055433184 0.03894922 -0.0857055 0.06040753 -0.012832986 0.10515697 -0.13071497 0.039694
-0.019519946 -0.07717206 -0.024903126 -0.033165958 -0.06883475 0.014849556 -0.00025497592 0.012097737
-0.094870165 -0.012306727 0.19836973 0.046921436 -0.09686516 -0.09807121 0.054185618 0.0943549
0.034918085 -0.09401424 -0.008094988 0.10915627 -0.0809151 0.06869274 0.0478709 -0.011849871
-0.09942947 -0.070112266 0.023820257 -0.0713135 0.080364466 0.02501395 0.1850751 -0.04846323
0.01813748 -0.00817213 -0.037496105 -0.010614633 -0.068595536 0.10389248 0.08425147 -0.09086009
-0.019556291 -0.015191445 -0.04193463 0.018210616 0.0768187 -0.006927234 0.061274648 0.014565045
0.032557707 -0.082746126 0.008659795 -0.028599693 0.11258097 -0.0039869417 -0.08141818 0.002798828
0.033812776 0.03362669 0.05962513 0.047481626 -0.120708115 0.011431318 -0.112056464 -0.036725994
-0.017590549 -0.1265816 -0.0044144504 -0.056404017 -0.03546548 0.15262318 0.015399422 0.04974969
-0.05608958 -0.06511596 0.13558088 0.01748562 -0.010957661 -0.041752525 0.10807373 0.06990583
0.0197036 -0.07496538 0.07291355 0.11908974 -0.09903016 0.07905454 -0.05463219 -0.05188865
-0.09502244 0.01653697 -0.058469668 0.04221317 0.0007275939 0.0070513333 0.17433038 0.09543475
0.018335946 -0.02377499 -0.09855102 0.04366262 -0.051824037 0.037438262 0.029765105 -0.11740882
-0.018108409 -0.05055019 0.09109549 0.038107794 0.047545157 -0.03102587 -0.11219046 0.014851428
00000000: b597 d93d 7871 c53c c0cf c63d 83be 253c
00000010: fcc2 9bbd 4c67 b43c e9d4 95bd c387 da3b
00000020: 384e a63d 7960 20bb ed5b 463d 1c53 373e
00000030: 0080 293d 3133 cc3d f06c 2dbe ce81 62bd
00000040: a6a0 4fbd f8d4 45bd 819e b4bc c61f 6ebd
00000050: f387 3abc 7e9d 4d3c 95eb 67bd 8d6c 18bd
00000060: 9cd6 13be 9d27 cd3d 6acf c53d a306 c43d
00000070: aaa0 0e3c b4ad 1ebd 347f 4b3d f208 fdbd
00000080: e041 b63c e99c 533c 9b64 5abd bb45 933d
00000090: 4712 96bd 83de 083e 49e3 18bd 6659 1b3d
000000a0: f71f 7dbd f747 7bbd 9e7f babd 5438 b0bc
000000b0: fe32 f73d a585 4c3a a390 213e c332 8e3b
000000c0: 5b71 b03c 4b67 513d e074 863c 20ad 0a3c
000000d0: 65d1 80bd 70b5 3a3d 04ce 58bb 07a5 4dbd
000000e0: cebd 79bc bab9 0bbe 71b6 bcbd 55e0 653d
000000f0: 382f f83d 57c0 52bc ecc3 b3bd 9187 6f3c
00000100: 86dd 8d3b c31d e3bc 9062 933c 3d1e ffbc
00000110: 6048 893d c683 fabd 096b 85bd a8b5 a43c
00000120: 0276 463d 23ad 8c3b ccd1 003c 4584 ad3d
00000130: d707 f33d deec 373d 70c9 4bbe 7bde b23d
00000140: 1bd5 b2bb c455 8f3c 3595 3abd fc0f 74bb
00000150: d928 b93d 6551 f83d 07b6 a6bd d0da 26bd
00000160: bcca 503c 8492 b0bc b18a ed3d 2afe 03bd
00000170: 7dfe 873d a72f b3b8 8803 c1bd ac95 f63d
00000180: 73f3 43bd 9493 31bd ba9f 563d c195 03bc
00000190: 65fe d2bc e540 81bc e38d 033d 2d8c ecbc
000001a0: e3a9 bbbd f21d e2bc 4906 2fbe 22b7 eab9
000001b0: 10fe 163c 9053 fbbb ff84 4e3e 8f54 dc3d
000001c0: 1806 8a3c 9842 28bd a062 a6bc 4e2f 4abc
000001d0: 6ac1 113b 7990 cc3d 2141 b03d 9c02 9fbc
000001e0: d008 09bc 8e39 df3c 9d1b 943d 82d2 b7bd
000001f0: 5789 933d fd05 aabc c5af 6eb9 3a6b 313c
00000200: 9536 173b 9040 aebc 2092 2d3d 88bf 8f3b
00000210: e4fc d63d 7f59 88bc 9925 b2bd 6505 1cbd
00000220: e80d 63bd 3889 1f3d 5d86 afbd e36d 773d
00000230: 7241 52bc 8a5c d73d 25da 05be 2d96 223d
00000240: 4be8 9fbc 630c 9ebd a401 ccbc 07d9 07bd
00000250: 3cf9 8cbd 8d4b 733c 4aae 85b9 9635 463c
00000260: 4a4b c2bd 27a2 49bc 6f21 4b3e b130 403d
00000270: 3e61 c6bd 8fd9 c8bd bdf1 5d3d 243d c13d
00000280: 4406 0f3d 8a8a c0bd d7a0 04bc 538d df3d
00000290: d1b6 a5bd c7ae 8c3d 4714 443d f625 42bc
000002a0: aea1 cbbd 0597 8fbd b322 c33c d00c 92bd
000002b0: 2096 a43d 0eea cc3c 5484 3d3e 6181 46bd
000002c0: 0d95 943c 66e4 05bc 8495 19bd ffe8 2dbc
000002d0: d17b 8cbd 95c5 d43d 098c ac3d db14 babd
000002e0: 8434 a0bc 8ae5 78bc a6c3 2bbd 6e2e 953c
000002f0: 1f53 9d3d dafd e2bb 20fb 7a3d 3aa2 6e3c
00000300: 3b5b 053d cd76 a9bd d0e1 0d3c e749 eabc
00000310: da90 e63d e4a4 82bb 93be a6bd 8b6c 373b
00000320: 447f 0a3d 24bc 093d 7b39 743d 187c 423d
00000330: d135 f7bd 6c4a 3b3c dc7d e5bd ff6d 16bd
00000340: 0e1a 90bc 9b9e 01be 18a7 90bb e607 67bd
00000350: 4044 11bd 4049 1c3e db4d 7c3c 55c6 4b3d
00000360: 30be 65bd 845b 85bd b7d5 0a3e 013e 8f3c
00000370: c387 33bc b204 2bbd c255 dd3d ca2a 8f3d
00000380: 7269 a13c 7387 99bd b353 953d 52e5 f33d
00000390: 53d0 cabd 59e7 a13d 01c6 5fbd 3189 54bd
000003a0: 209b c2bd 8a78 873c e47d 6fbd b8e7 2c3d
000003b0: 00bc 3e3a df0e e73b aa83 323e 4b73 c33d
000003c0: 4435 963c c5c3 c2bc 1ed5 c9bd 93d7 323d
000003d0: 7145 54bd dd58 193d f3d5 f33c 0974 f0bd
000003e0: 1658 94bc b70d 4fbd 4690 ba3d eb16 1c3d
000003f0: b6be 423d f729 febc 1dc4 e5bd 6753 733c

decoder.4.bias f4 [26]
-0.018560525 0.038457584 -0.064758964 -0.058008034 -0.39237088 0.10325477 -0.07151364 -0.040267404
-0.018652508 -0.014398966 -0.08995833 -0.08682668 -0.07603806 -0.0663993 0.12677127 0.07107276
-0.10462665 0.06142839 -0.31924003 0.11002676 0.010809791 -0.013596192 0.00968018 -0.08717198
-0.05212504 -0.06826642
00000000: 3e0c 98bc b385 1d3d 59a0 84bd d599 6dbd
00000010: d6e4 c8be 3d77 d33d be75 92bd 6fef 24bd
00000020: 25cd 98bc a4e9 6bbc 133c b8bd 30d2 b1bd
00000030: d8b9 9bbd 5bfc 87bd 54d0 013e 988e 913d
00000040: 7f46 d6bd 569c 7b3d 6e73 a3be b655 e13d
00000050: 8d1b 313c 90c2 5ebc 9e99 1e3c 3987 b2bd
00000060: 1181 55bd 44cf 8bbd
