models/autoencoder.pth (torch, 39154 bytes, 12 tensors)

encoder.0.weight f4 [64, 26]
-0.015745962 -0.12715404 0.17314932 0.039711703 -0.06685337 0.22812037 -0.14576742 0.021331087
0.083289474 -0.0055297934 0.029778445 -0.16235279 -0.17643821 0.22556464 -0.40425712 0.42026824
-0.10582647 -0.023009064 0.017086629 0.15029286 0.11456059 0.039052524 -0.08618492 0.02783377
0.2247257 0.289647 0.0046978104 -0.023500912 0.100533806 -0.07634187 -0.02194295 0.008342956
-0.19349305 -0.019535178 0.13607042 0.13122429 0.094038986 0.0057624034 -0.030909782 -0.011236768
-0.008070896 0.008167892 -0.15411551 0.17799404 -0.0009543155 0.051900886 -0.15847196 -0.060947806
-0.1303041 0.15607323 -0.0037010864 0.0013600123 0.2328434 0.093447775 0.19123712 0.21711022
-0.11287068 -0.05133116 -0.052949276 0.13627112 0.2892322 0.08042977 0.055430654 0.009188139
0.13197629 -0.43560198 -0.19610247 -0.010128417 0.2905686 0.01702426 0.059974857 0.30611998
0.11657542 0.1744322 0.075429894 0.22968486 -0.31383348 -0.001273206 -0.013551764 -0.14265166
-0.051973063 0.084510446 -0.15024637 -0.6073778 0.085565604 0.0074800397 0.20145696 -0.11242846
0.07526693 0.06331571 0.029760048 0.52283424 0.11356689 -0.022348583 0.03912112 0.21638897
-0.31570965 -0.25488952 -0.007785179 0.02653644 0.1417819 0.082384855 0.08745541 -0.1089631
0.13197647 -0.032121666 0.1054102 -0.035945818 0.024011318 -0.02775384 0.048562344 0.11740881
-0.06951218 -0.057709355 -0.072474085 0.04651982 -0.16703296 -0.056031704 0.09601268 0.07406137
0.10624885 -0.013983638 -0.05609739 -0.08917515 0.12365554 0.11766028 -0.13317864 0.034302104
0.08149943 -0.32166246 0.158989 -0.1027527 0.127247 -0.15853731 0.022364497 -0.04547206
-0.02452349 -0.1265512 0.12616535 0.13377963 -0.14240777 -0.108497046 0.11452781 0.019125814
0.044493157 -0.20400234 0.06445993 0.11165622 0.38409942 -0.010242225 -0.044300333 -0.00648651
-0.0052149515 -0.12300187 0.0050060456 0.012928119 -0.111152 -0.054718565 -0.13033608 0.012161934
0.029296098 0.28717223 0.042180415 0.038952496 0.10514252 0.10013978 -0.1223652 0.0475584
0.057603735 0.4950398 -0.00039822413 -0.17563352 -0.14883225 -0.102506384 0.2510996 -0.41229343
0.054769248 0.10656115 0.070211604 0.05005062 -0.47403133 -0.023271324 0.051816586 0.049409784
-0.07700678 -0.06729002 -0.18763658 -0.04433399 0.07052578 -0.0902433 -0.1498224 -0.016325591
0.13852699 0.12805262 -0.14860922 0.005562913 -0.03508962 0.06609725 0.15018974 -0.13296428
-0.0023603006 0.060412496 0.09519921 -0.042952947 -0.04125148 -0.1525482 0.03210207 0.016622758
0.13760313 -0.17812909 0.18573539 -0.12925576 -0.028962672 0.008720524 0.082058564 0.053101823
0.05113732 -0.13572583 0.086026624 -0.10746595 -0.08076541 -0.015214895 0.05939288 -0.0551734
-0.11770088 -0.1199472 -0.04505336 0.05589321 0.10272951 0.05101539 0.0005515196 0.008575238
-0.0029883634 -0.01611804 0.10256158 -0.089591 -0.04233645 -0.08285727 -0.0061123185 0.0010680432
0.0870991 0.15858404 -0.16610777 0.17731409 0.11768701 -0.13166489 -0.098540254 -0.0014691836
0.012231929 -0.013123064 -0.12434 0.06850782 -0.002144257 0.016149681 -0.015635066 0.15713395
00000000: adfd 80bc ab34 02be 0e4e 313e bda8 223d
00000010: 6bea 88bd 6398 693e 0e44 15be 88be ae3c
00000020: ac93 aa3d 4533 b5bb edf1 f33c cf3f 26be
00000030: 38ac 34be 6bfa 663e cafa cebe 662d d73e
00000040: 8cbb d8bd 817d bcbc 42f9 8b3c 5fe6 193e
00000050: be9e ea3d 8af5 1f3d b881 b0bd a503 e43c
00000060: 7e1e 663e 9d4c 943e 17f0 993b fc84 c0bc
00000070: abe4 cd3d 2059 9cbd b4c1 b3bc e5b0 083c
00000080: 0b23 46be 3d08 a0bc 0b56 0b3e a95f 063e
00000090: 8397 c03d 8bd2 bc3b 8336 fdbc 6c1a 38bc
000000a0: cb3b 04bc 9fd2 053c 75d0 1dbe 1244 363e
000000b0: 072b 7aba 0696 543d 7946 22be 68a4 79bd
000000c0: 706e 05be a9d1 1f3e ed8d 72bb 7142 b23a
000000d0: 806e 6e3e 8c61 bf3d aad3 433e 2452 5e3e
000000e0: be28 e7bd 9f40 52bd 57e1 58bd a88a 0b3e
000000f0: 3e16 943e 5db8 a43d 410b 633d d989 163c
00000100: cb24 073e 3907 dfbe 16cf 48be a9f1 25bc
00000110: 68c5 943e 7676 8b3c 32a8 753d c2bb 9c3e
00000120: 18bf ee3d 5b9e 323e fd7a 9a3d 8232 6b3e
00000130: c8ae a0be b4e1 a6ba 3808 5ebc 4713 12be
00000140: b5e1 54bd d013 ad3d 2fda 19be 1d7d 1bbf
00000150: 053d af3d 1f1b f53b bc4a 4e3e e440 e6bd
00000160: 8c25 9a3d abab 813d 58cb f33c 77d8 053f
00000170: c295 e83d 6014 b7bc 783d 203d 1295 5d3e
00000180: b2a4 a1be e180 82be d11a ffbb f362 d93c
00000190: 462f 113e 64b9 a83d d21b b33d 0c28 dfbd
000001a0: d724 073e 0292 03bd 4ee1 d73d ec3b 13bd
000001b0: 62b3 c43c 055c e3bc 4fe9 463d 0874 f03d
000001c0: 675c 8ebd a560 6cbd 4b6d 94bd 918b 3e3d
000001d0: b00a 2bbe 8081 65bd 4ca2 c43d 7dad 973d
000001e0: ff98 d93d a11b 65bc 60c6 65bd 76a1 b6bd
000001f0: 1e3f fd3d dff7 f03d fb5f 08be 5d80 0c3d
00000200: 2ce9 a63d f1b0 a4be 03ce 223e 0270 d2bd
00000210: 0a4d 023e 9b57 22be c035 b73c e940 3abd
00000220: 7ce5 c8bc a396 01be 7d31 013e 87fd 083e
00000230: 58d3 11be b333 debd 8e8d ea3d bdad 9c3c
00000240: 753e 363d fde5 50be 9103 843d 04ac e43d
00000250: aea8 c43e 01cf 27bc 4474 35bd ca8c d4bb
00000260: 2fe2 aabb 68e8 fbbd c109 a43b 76d0 533c
00000270: a9a3 e3bd 9320 60bd d276 05be d942 473c
00000280: 5ffe ef3c 3d08 933e 5fc5 2c3d a78c 1f3d
00000290: f654 d73d 1616 cd3d 9b9a fabd 99cc 423d
000002a0: e5f1 6b3d db75 fd3e bdc8 d0b9 46d9 33be
000002b0: 7b67 18be deee d1bd 2090 803e 2018 d3be
000002c0: b855 603d bb3c da3d 1acb 8f3d e101 4d3d
000002d0: 3cb4 f2be 81a3 bebc a13d 543d ea61 4a3d
000002e0: bbb5 9dbd 5acf 89bd ce23 40be 8f97 35bd
000002f0: d26f 903d 7bd1 b8bd 0b6b 19be 3fbd 85bc
00000300: 05da 0d3e 3a20 033e 042d 18be 1949 b63b
00000310: 22ba 0fbd ff5d 873d 57cb 193e ca27 08be
00000320: 46af 1abb 1873 773d cef7 c23d 6eef 2fbd
00000330: 50f7 28bd 9835 1cbe 767d 033d 732c 883c
00000340: d6e7 0c3e 7967 36be 6b31 3e3e 9f5b 04be
00000350: 2043 edbc 87e0 0e3c 520e a83d 4c81 593d
00000360: 5e75 513d b6fb 0abe ba2e b03d 1c17 dcbd
00000370: 5668 a5bd e547 79bc f345 733d 81fd 61bd
00000380: 290d f1bd e1a6 f5bd df89 38bd 47f0 643d
00000390: d963 d23d 83f5 503d db93 103a 287f 0c3c
000003a0: 6bd8 43bb fb09 84bc ce0b d23d 7c7b b7bd
000003b0: fc68 2dbd 13b1 a9bd d849 c8bb 95fd 8b3a
000003c0: 0361 b23d db63 223e 2818 2abe d391 353e
000003d0: e305 f13d 29d3 06be 79cf c9bd 9f91 c0ba
000003e0: 6e68 483c 1f02 57bc f8a5 febd d44d 8c3d
000003f0: aa86 0cbb 564c 843c 1c15 80bc b9e7 203e

encoder.0.bias f4 [64]
-0.06388681 -0.12357889 -0.082199395 0.1453367 -0.06312937 0.3992457 0.10205197 -0.49709377
-0.23875456 -0.055146746 -0.07170394 0.06620584 0.59965277 0.10566264 0.0051152743 0.35222083
-0.24920666 -0.9778015 -0.030170728 0.535029 -0.072593756 0.5109979 0.0011950263 -1.3752059
-0.12182013 0.13972361 0.12570591 -0.31379426 0.013809014 0.06756874 0.24491844 0.0023719936
-0.04543515 0.053836178 -0.56553364 -0.82282716 -0.52523583 0.31946036 0.06598632 0.1322173
-0.14084572 -0.1216869 -1.1703314 0.06613942 -1.1035383 0.04659545 0.52134514 -0.13916335
-0.16612092 0.08218236 -0.13807346 -0.31388497 0.006532279 -0.0068227015 0.0747523 -0.6341302
-0.5684989 0.034623854 -0.002288924 -0.01387609 -0.054314226 -0.07316992 0.08696524 -0.21061055
00000000: 16d7 82bd ee16 fdbd 2858 a8bd 25d3 143e
00000010: f949 81bd ef69 cc3e a000 d13d 1383 febe
00000020: 137c 74be 8ee1 61bd 84d9 92bd ed96 873d
00000030: d882 193f a765 d83d 089e a73b 4a56 b43e
00000040: 0830 7fbe 3351 7abf 9a28 f7bc a9f7 083f
00000050: 09ac 94bd c2d0 023f 6ea2 9c3a bf06 b0bf
00000060: d57c f9bd b513 0f3e 0db9 003e a4a9 a0be
00000070: 343f 623c 7b61 8a3d e6cb 7a3e 7373 1b3b
00000080: 351a 3abd 5383 5c3d d0c6 10bf cda4 52bf
00000090: db75 06bf 4f90 a33e d623 873d f963 073e
000000a0: dc39 10be fb36 f9bd 6bcd 95bf 1b74 873d
000000b0: be40 8dbf dfda 3e3d e076 053f d680 0ebe
000000c0: 9a1b 2abe 3a4f a83d 2163 0dbe 88b5 a0be
000000d0: ba0c d63b f890 dfbb bc17 993d 5b56 22bf
000000e0: 2589 11bf bed1 0d3d c601 16bb 8a58 63bc
000000f0: 9878 5ebd 1cda 95bd d51a b23d 4baa 57be

encoder.2.weight f4 [32, 64]
0.099712744 0.18863988 -0.07746034 0.04358667 -0.08884968 0.08812212 0.23355581 0.078547426
-0.05226716 -0.04681862 0.1206275 0.059055608 0.092673205 0.13380086 0.03310383 -0.098376065
0.03605628 0.22927968 -0.081149444 0.07049848 -0.031555224 0.11892167 0.00978407 0.10143461
0.096859545 -0.025611075 0.19289035 -0.010912912 0.09278523 -0.09137757 -0.0625411 0.049699686
0.08558232 0.0967285 0.13922824 0.2757158 0.024713296 0.14858495 0.15627107 0.08660431
0.08834642 -0.057599455 0.17334442 -0.03650998 0.19781017 0.09677157 0.08779606 0.04640419
-0.035337843 -0.031050557 0.18039268 0.09598274 0.16623503 -0.071426556 -0.031147365 0.1205921
0.060514968 0.20819116 -0.00565272 0.027457537 0.008608363 0.004420718 0.23334765 -0.020582011
-0.041462824 -0.045247324 -0.031102989 -0.004837236 0.03737066 0.086041905 -0.012186968 -0.027994493
0.09111424 -0.014152107 -0.0830628 0.17432922 0.14221533 0.08597256 -0.01334195 0.12451897
-0.14137395 0.03824194 -0.0063092625 0.101224825 -0.1548434 0.11454355 -0.0019806072 -0.015464319
-0.0150624355 0.07123994 0.031401873 0.118240476 0.025948977 0.03838701 0.16318366 0.14776823
0.07891889 0.08634854 -0.1304538 -0.24408738 0.020282699 0.16021551 -0.054353297 0.101373926
0.031156464 0.016906701 0.080045134 -0.16455019 0.30763343 -0.051973097 0.05603779 0.061997026
0.0042555467 -0.13695051 -0.035514776 0.050535448 -0.0865378 0.017005565 -0.02116802 -0.023400027
-0.0026704685 0.032933187 -0.06516327 -0.03270018 -0.06527548 0.17001916 0.076134965 -0.079814516
-0.06399772 0.059778694 -0.054563213 -0.04612934 0.014795748 0.08123956 -0.039721612 0.11803991
0.0950321 -0.10275867 0.40709823 -0.035074864 0.22441721 0.100072324 -0.036187418 0.22472331
-0.080494545 -0.03253338 0.055903178 0.27183643 -0.12133749 0.056343626 0.16214757 0.39491135
-0.011142943 0.04723072 0.027720597 0.0008520369 0.23240276 -0.058106143 0.11819931 0.113625295
0.12530166 0.16320786 -0.025354922 0.23226936 0.06252943 0.29258952 -0.0066024675 0.002027271
0.05512049 0.09290285 0.2153336 -0.11246176 0.14007916 0.086862385 0.1710766 0.12929383
0.0932027 0.068016276 -0.100981 0.02226921 -0.033735335 0.002390251 0.00080330396 0.07416314
0.25713277 -0.0006466026 -0.16314805 -0.14149506 -0.0967387 -0.02923599 0.07252983 0.08930228
0.100989506 0.08164726 0.1896368 0.4528682 0.16404605 -0.01768632 -0.023800744 0.11833434
-0.022698933 -0.0060024313 0.2381036 0.32328048 -0.07413828 0.017485177 0.19106191 0.092599906
-0.031777363 0.429737 0.20110823 0.27610326 -0.077416815 -0.13115467 0.1334938 0.19512954
0.13988876 0.058378935 0.028718729 0.04621118 0.04959726 -0.06021818 0.020727795 0.081984766
0.24974602 0.19123706 0.12496196 0.30425456 0.06215792 0.2224093 0.06946102 -0.08985441
-0.03663229 0.38730744 0.0769847 0.012042871 -0.005529577 -0.071934566 0.293807 0.16707857
0.100891665 -0.03909875 -0.106785364 0.037282873 0.12066764 0.060551904 0.056872718 0.057449285
0.023177437 0.008457696 0.029331766 0.021268208 0.13331972 -0.040000565 -0.124772735 0.11660907
00000000: 3236 cc3d d02a 413e 87a3 9ebd f087 323d
00000010: d2f6 b5bd 5f79 b43d 4129 6f3e 79dd a03d
00000020: 1716 56bd e2c4 3fbd 8d0b f73d 4be4 713d
00000030: 73cb bd3d 1803 093e e297 073d 6479 c9bd
00000040: c0af 133d 4bc8 6a3e ae31 a6bd 8261 903d
00000050: 0d40 01bd 348d f33d 5d4d 203c f3bc cf3d
00000060: 4c5e c63d 51ce d1bc 0c85 453e 12cc 32bc
00000070: 2f06 be3d 2a24 bbbd 8c15 80bd e691 4b3d
00000080: c945 af3d 9819 c63d d991 0e3e 9f2a 8d3e
00000090: 8a73 ca3c a726 183e 8605 203e 9a5d b13d
000000a0: f8ee b43d 68ed 6bbd 3381 313e 7d8b 15bd
000000b0: c08e 4a3e 2c30 c63d 6cce b33d 5212 3e3d
000000c0: 6abe 10bd bd5d febc dcb8 383e 9992 c43d
000000d0: 8439 2a3e 1648 92bd c228 ffbc fef8 f63d
000000e0: 8bde 773d 1030 553e 743a b9bb a1ee e03c
000000f0: 170a 0d3c acdb 903b b0f2 6e3e 9b9b a8bc
00000100: ecd4 29bd 4255 39bd b2cb febc ad81 9ebb
00000110: fa11 193d bd36 b03d d9ab 47bc b554 e5bc
00000120: 1a9a ba3d 3dde 67bc d41c aabd 5c83 323e
00000130: e5a0 113e 6212 b03d 3298 5abc cd03 ff3d
00000140: 55c4 10be 95a3 1c3d eebd cebb f64e cf3d
00000150: 458f 1ebe cf95 ea3d 13cd 01bb 0e5e 7dbc
00000160: 6fc8 76bc 3fe6 913d 409f 003d 1028 f23d
00000170: f392 d43c b33b 1d3d 9e19 273e 8e50 173e
00000180: 3aa0 a13d 81d7 b03d ae95 05be 0bf2 79be
00000190: e727 a63c 890f 243e 90a1 5ebd 229d cf3d
000001a0: d73b ff3c ec7f 8a3c b4ee a33d d87f 28be
000001b0: 2182 9d3e bee1 54bd e287 653d 98f0 7d3d
000001c0: 1d72 8b3b c13c 0cbe f177 11bd 42fe 4e3d
000001d0: bb3a b1bd 414f 8b3c 8e68 adbc 6ab1 bfbc
000001e0: 0703 2fbb f3e4 063d 5274 85bd a0f0 05bd
000001f0: 27af 85bd 8119 2e3e a6ec 9b3d cb75 a3bd
00000200: 3d11 83bd 81da 743d ad7d 5fbd 1ef2 3cbd
00000210: dd69 723c ed60 a63d 21b3 22bd e9be f13d
00000220: 31a0 c23d 2373 d2bd 2e6f d03e a9aa 0fbd
00000230: a0cd 653e b8f2 cc3d 4239 14bd de1d 663e
00000240: 53da a4bd b941 05bd bbfa 643d 252e 8b3e
00000250: ca7f f8bd 93c8 663d 030a 263e d231 ca3e
00000260: e490 36bc 0075 413d 4e16 e33c 3a5b 5f3a
00000270: fdfa 6d3e b500 6ebd 7b12 f23d 61b4 e83d
00000280: 144f 003e f61f 273e 20b5 cfbc 05d8 6d3e
00000290: 6e0f 803d 4bce 953e 8359 d8bb f7db 043b
000002a0: 06c6 613d d943 be3d 6980 5c3e 5a52 e6bd
000002b0: e970 0f3e e8e4 b13d b42e 2f3e 9a65 043e
000002c0: 0fe1 be3d 1e4c 8b3d 20cf cebd eb6d b63c
000002d0: 102e 0abd c2a5 1c3b d194 523a d8e2 973d
000002e0: e8a6 833e c480 29ba 4810 27be 15e4 10be
000002f0: f11e c6bd 5180 efbc 858a 943d 1de4 b63d
00000300: 96d3 ce3d ae36 a73d 2630 423e 57de e73e
00000310: b0fb 273e e7e2 90bc c7f9 c2bc 4659 f23d
00000320: 1df3 b9bc 0bb0 c4bb 6ed1 733e 0585 a53e
00000330: cfd5 97bd 133d 8f3c bca5 433e 05a5 bd3d
00000340: fb28 02bd 7d06 dc3e 51ef 4d3e 685d 8d3e
00000350: b58c 9ebd 694d 06be 99b2 083e 0ad0 473e
00000360: 003f 0f3e c01e 6f3d 8a43 eb3c ef47 3d3d
00000370: 7f26 4b3d 57a7 76bd 56cd a93c a1e7 a73d
00000380: 6cbd 7f3e a6d3 433e 0eec ff3d 41c7 9b3e
00000390: 4e99 7e3d 43bf 633e 9441 8e3d 9705 b8bd
000003a0: bd0b 16bd 294d c63e 28aa 9d3d 764f 453c
000003b0: 7431 b5bb 6e52 93bd df6d 963e a516 2b3e
000003c0: 4aa0 ce3d 0326 20bd 49b2 dabd edb5 183d
000003d0: 9820 f73d 4605 783d 5ef3 683d f14f 6b3d
000003e0: 9cde bd3c 2692 0a3c 2c49 f03c aa3a ae3c
000003f0: f784 083e a2d7 23bd d988 ffbd bcd0 ee3d

encoder.2.bias f4 [32]
0.0034253425 0.036571365 -0.022266414 0.106338695 0.0983893 0.04987206 0.153732 0.10234923
0.19057487 0.2009418 -0.08708715 0.1980968 -0.14993477 0.058708 0.0625267 -0.13940758
-0.12831731 0.0689918 0.0051288153 0.1735703 0.09872805 0.06593255 0.10381213 0.07461054
-0.1548577 0.039785735 0.06819972 -0.034342393 0.056897063 0.24252984 0.028762035 0.23124151
00000000: b67b 603b dbcb 153d 0e68 b6bc 1ac8 d93d
00000010: 5480 c93d a546 4c3d ec6b 1d3e 799c d13d
00000020: 0f26 433e b0c3 4d3e bf5a b2bd e3d9 4a3e
00000030: 8088 19be cd77 703d 000e 803d dcc0 0ebe
00000040: 9d65 03be 934b 8d3d 9f0f a83b 6abc 313e
00000050: ef31 ca3d a507 873d 749b d43d 69cd 983d
00000060: 0493 1ebe 5ef6 223d 4bac 8b3d 9caa 0cbd
00000070: e50c 693d be59 783e 5c9e eb3c 93ca 6c3e

encoder.4.weight f4 [16, 32]
-0.13013777 0.13729955 0.074276485 -0.024962094 0.021746289 0.22518426 0.095265575 -0.020805078
-0.05672772 -0.067078635 -0.005415633 -0.12560447 -0.21515569 0.017270785 -0.05255769 0.026589902
-0.040989425 0.19921401 -0.059326615 -0.10756826 0.063805826 -0.049982492 0.042223167 -0.07335039
-0.0890095 -0.28767738 0.045626927 -0.028659428 -0.08789089 0.044813976 -0.072338186 0.21889739
-0.038583815 -0.21007498 -0.0056169094 0.11093007 -0.21658519 0.16989572 -0.010077702 -0.22261706
0.19820671 0.11960095 -0.06013273 0.0038940234 0.020873807 0.035464175 -0.0970885 0.07908178
0.03263551 0.04083812 -0.18956238 -0.19420736 -0.047928933 0.009165442 0.1433142 -0.107531026
-0.015337723 0.24531546 0.0025043495 -0.19170822 -0.1776596 -0.024348404 0.23255458 0.3197671
-0.101208575 0.044346273 -0.040912878 -0.013665416 0.16117458 0.16594426 -0.1496381 0.07136697
-0.072533466 0.45709163 -0.027035039 0.02551412 0.0064142244 -0.23361678 0.20569235 -0.011768249
0.18895586 0.1685603 0.031715486 -0.19355388 0.121925995 0.11559719 -0.25373086 -0.14425303
-0.03935032 0.029988898 -0.003082504 -0.15360163 0.067907505 -0.19707297 -0.2782467 0.009458741
0.09455462 0.033276234 0.18726993 0.27517068 0.14395647 0.07644293 0.25662678 -0.0641455
-0.27986038 0.041154053 -0.07202719 0.04257728 0.037823685 0.21405904 -0.19788054 0.08875663
-0.07624004 0.16534 -0.11874869 -0.07111997 -0.1392411 -0.12133382 -0.25341952 0.24467605
0.09407575 0.0046242215 0.13711867 -0.12719281 -0.2728311 -0.0007641782 0.06521002 -0.11469241
0.02837758 -0.029915702 -0.07313671 -0.2806562 -0.14778514 0.010085645 0.081949085 -0.07154905
-0.028075328 -0.15676752 -0.037209798 0.129839 0.05614619 0.19890098 -0.244717 0.1297056
0.13256717 -0.06541394 0.035735786 -0.22287437 0.07910236 -0.23964 0.16885148 0.05085769
-0.14308982 -0.0542558 -0.07663774 0.022816781 -0.2538633 -0.14892723 0.054193962 -0.022257948
-0.09577114 -0.1642754 -0.10747195 -0.04620881 0.11371284 -0.049211852 0.35091597 -0.009652189
0.028539632 -0.055615664 0.28587827 0.17829202 0.040907543 -0.21463709 -0.21347167 0.08677179
0.013169505 0.12815556 -0.11594722 -0.21027556 -0.12099398 -0.049753327 -0.13629243 0.18215099
-0.09745445 -0.013524771 0.022056514 0.15843225 -0.044023246 0.18656749 -0.07130918 0.09729583
-0.13938236 0.025469596 -0.18163295 0.17216705 0.22410221 0.041711435 -0.3476826 -0.20320931
0.017072005 0.025914202 -0.012059471 0.36299276 -0.047593035 -0.09237243 -0.07099071 0.013041535
-0.08093569 0.11103586 -0.10669263 0.16987006 -0.08573733 -0.13566083 0.17981008 0.23794778
-0.13810116 0.18124102 0.02891619 -0.023742251 -0.14010042 -0.17884915 -0.27305746 0.15353289
-0.045130003 0.15230522 0.14922191 0.09860833 -0.17323132 -0.11701242 0.050331853 0.1253318
0.00516034 0.23539028 -0.02583412 -0.12388069 -0.091491535 -0.1926904 -0.2195613 -0.023186225
-0.06304228 0.05566395 0.16513711 0.24873005 0.0066826358 0.0013919328 -0.2091714 -0.022188403
-0.005733556 0.1945197 -0.07864605 0.07162621 -0.18230875 0.23767233 -0.18268234 0.052676547
00000000: d642 05be 4198 0c3e 451e 983d 4e7d ccbc
00000010: 4625 b23c b496 663e 991a c33d 696f aabc
00000020: 535b 68bd 8660 89bd 9f75 b1bb 759e 00be
00000030: c651 5cbe 767b 8d3c bb46 57bd 11d3 d93c
00000040: 87e4 27bd c2fe 4b3e 7700 73bd bf4c dcbd
00000050: a1ac 823d 71ba 4cbd 33f2 2c3d bb38 96bd
00000060: 9d4a b6bd 734a 93be 4de3 3a3d 2dc7 eabc
00000070: 2400 b4bd dc8e 373d 0b26 94bd a326 603e
00000080: 100a 1ebd e51d 57be 0d0e b8bb 4e2f e33d
00000090: 82c8 5dbe 25f9 2d3e f21c 25bc baf5 63be
000000a0: b3f6 4a3e 58f1 f43d bd4d 76bd df32 7f3b
000000b0: 8cff aa3c e242 113d 56d6 c6bd a1f5 a13d
000000c0: d0ac 053d df45 273d a41c 42be 4bde 46be
000000d0: 2151 44bd a62a 163c f5c0 123e 3a39 dcbd
000000e0: 134b 7bbc fa33 7b3e 0320 243b 294f 44be
000000f0: 66ec 35be 4e76 c7bc ca22 6e3e 83b8 a33e
00000100: 7146 cfbd 70a4 353d 4394 27bd e9e4 5fbc
00000110: f30a 253e 4bed 293e bb3a 19be d928 923d
00000120: 6d8c 94bd ea07 ea3e 9678 ddbc fd02 d13c
00000130: 6a2e d23b 3d39 6fbe 04a1 523e 9dcf 40bc
00000140: a57d 413e 129b 2c3e 19e8 013d fd32 46be
00000150: 56b4 f93d 38be ec3d 03e9 81be 11b7 13be
00000160: cd2d 21bd 47ab f53c d603 4abb bf49 1dbe
00000170: 1713 8b3d 7fcd 49be 5a76 8ebe d6f8 1a3c
00000180: daa5 c13d a94c 083d b0c3 3f3e 2ce3 8c3e
00000190: 5369 133e 1c8e 9c3d 9664 833e b75e 83bd
000001a0: dc49 8fbe 2791 283d fe82 93bd 8465 2e3d
000001b0: 02ed 1a3d 4b32 5b3e 32a1 4abe 09c6 b53d
000001c0: bd23 9cbd e44e 293e 8332 f3bd 59a7 91bd
000001d0: 3895 0ebe de7d f8bd 34c0 81be 5c8c 7a3e
000001e0: c9aa c03d c886 973b d668 0c3e d53e 02be
000001f0: 85b0 8bbe 2253 48ba d58c 853d dbe3 eabd
00000200: 1978 e83c c611 f5bc b3c8 95bd 2bb2 8fbe
00000210: fd54 17be 433e 253c ecd4 a73d 4f88 92bd
00000220: 3bfe e5bc aa87 20be 4d69 18bd 84f4 043e
00000230: 8cf9 653d b3ac 4b3e 1897 7abe 8bd1 043e
00000240: b0bf 073e bef7 85bd b05f 123d 2e39 64be
00000250: 6b00 a23d 3064 75be 67e7 2c3e 2750 503d
00000260: 2386 12be 543b 5ebd 3ff4 9cbd 42ea ba3c
00000270: 5ffa 81be 6180 18be 7dfa 5d3d 4d56 b6bc
00000280: a923 c4bd cf37 28be 411a dcbd 7345 3dbd
00000290: 47e2 e83d 5e92 49bd 42ab b33e 3724 1ebc
000002a0: f2cb e93c 40cd 63bd a35e 923e 2f92 363e
000002b0: ab8e 273d d3c9 5bbe 5198 5abe 69b5 b13d
000002c0: e8c4 573c 363b 033e bc75 edbd 7a52 57be
000002d0: b1cb f7bd 25ca 4bbd 3e90 0bbe ca85 3a3e
000002e0: 3396 c7bd 0097 5dbc ddaf b43c 103c 223e
000002f0: b851 34bd 8c0b 3f3e 8c0a 92bd 0943 c73d
00000300: 40ba 0ebe 9da5 d03c fdfd 39be 8f4c 303e
00000310: 0d7b 653e 9cd9 2a3d 7403 b2be 1a16 50be
00000320: 97da 8b3c 054a d43c 1695 45bc 30da b93e
00000330: eaf0 42bd c22d bdbd 9463 91bd 2aac 553c
00000340: 9cc1 a5bd c566 e33d aa81 dabd 6bf2 2d3e
00000350: 0e97 afbd acea 0abe 2220 383e 95a8 733e
00000360: 646a 0dbe 3f97 393e a5e1 ec3c 1c7f c2bc
00000370: 7c76 0fbe 3b24 37be 30ce 8bbe ba37 1d3e
00000380: 3dda 38bd e6f5 1b3e a1cd 183e 2af3 c93d
00000390: 8d63 31be 35a4 efbd c628 4e3d fb56 003e
000003a0: 1218 a93b 260a 713e 14a2 d3bc 29b5 fdbd
000003b0: ea5f bbbd a250 45be add4 60be 0af1 bdbc
000003c0: 501c 81bd e2ff 633d b419 293e 17b3 7e3e
000003d0: 03fa da3b 8471 b63a 0731 56be 74c4 b5bc
000003e0: 8ee0 bbbb 2c30 473e 2e11 a1bd c3b0 923d
000003f0: 25af 3abe 6060 733e 1411 3bbe 5dc3 573d

encoder.4.bias f4 [16]
0.15761083 -0.054393627 -0.009229825 0.030826543 -0.13900381 -0.18256086 -0.06684655 -0.049064912
-0.14499651 0.010786295 0.061910678 0.025678921 0.109521724 0.14773777 -0.09549765 0.096900724
00000000: bc64 213e dacb 5ebd b138 17bc f287 fc3c
00000010: 0457 0ebe 3cf1 3abe d8e6 88bd 4af8 48bd
00000020: f779 14be 00b9 303c 0d96 7d3d 9a5c d23c
00000030: ed4c e03d 9248 173e 4694 c3bd e373 c63d

decoder.0.weight f4 [32, 16]
-0.21079332 0.03715204 -0.22651945 0.09730655 -0.27196226 -0.1553211 -0.1820339 -0.22916226
-0.00046588504 0.17959678 -0.3566 0.08650582 0.05367117 -0.15225585 0.015887564 -0.15850358
-0.21380398 -0.13675581 -0.052079666 0.094129086 -0.015945947 -0.05162361 -0.07291739 0.14202969
-0.08601858 0.26274526 -0.07308502 0.11418239 0.16720802 -0.30912036 -0.14798382 0.2446511
0.22127709 0.08725356 -0.20199938 0.07762033 -0.1909428 -0.08988038 -0.25069824 -0.17276537
-0.24015586 -0.1988758 -0.06486475 -0.19712514 -0.17507882 -0.17550938 -0.20434411 0.037696958
0.036655046 0.16321723 -0.025548518 0.20260444 -0.21737376 0.045940425 -0.02143114 0.17389774
-0.20318688 0.26707673 0.05558607 0.19729462 -0.0992251 0.15287869 -0.278054 -0.0070473873
-0.2788207 -0.11206126 -0.1596669 0.17331071 -0.0645865 0.18343931 -0.039176725 -0.016737418
-0.03198597 -0.12439338 -0.06343944 0.2104604 -0.13512562 -0.19441298 -0.11000562 0.1879654
-0.3230253 0.06571748 0.17029765 -0.14893262 0.119957305 0.15128535 -0.033464268 -0.03177288
0.087230675 0.09355462 -0.060284715 -0.028705424 0.12604712 0.09161561 0.21822311 0.00574558
-0.15892567 0.10985488 -0.033577356 0.0049155317 -0.30150047 0.22500257 -0.15872239 -0.03387366
0.15693592 0.08078659 -0.120428 -0.19754153 -0.13793182 -0.20718297 0.09157837 0.068615615
-0.014699999 -0.15424292 -0.12402652 0.020827627 -0.33943594 0.2743034 0.20836315 0.113333054
-0.03343509 0.2055742 -0.19184768 -0.12677044 -0.17826402 -0.089602664 0.15406366 -0.020948825
0.1840485 0.18918116 0.014079776 -0.059462056 -0.1307359 -0.040165387 0.14138733 0.061775927
-0.13504721 0.018049981 0.09844448 0.17798594 -0.10825396 -0.06243679 -0.020703057 0.0788339
-0.010760322 -0.22648264 0.046286378 -0.418031 0.10853682 0.26260832 0.22964956 -0.20962974
-0.03928903 0.16781753 -0.25900292 -0.010658285 0.3230547 0.44789013 0.07678385 -0.4304987
0.11231809 0.05732828 -0.2532967 -0.13289355 -0.17751952 0.017974222 -0.065854296 0.07826588
-0.16008888 0.18125775 -0.054476082 0.14858945 0.009468921 0.019911941 -0.12846738 -0.1210218
0.07607337 -0.19303687 -0.049805403 -0.0585167 0.2949151 0.17692612 -0.18445916 -0.029880933
-0.18102212 -0.036263645 -0.05775357 0.095413454 -0.025810082 -0.011474035 0.050362267 -0.06531697
0.1479497 0.11416622 -0.294789 0.17204909 0.12189106 -0.1362148 0.10375835 0.173721
0.1716023 0.20505962 -0.0142202275 -0.050106555 -0.13823326 -0.30899113 -0.2690799 -0.10581712
-0.03797945 -0.06162762 -0.044373516 -0.05826716 -0.12949803 0.092791826 0.26392996 -0.29021975
0.089838624 0.007726242 0.033336367 -0.034100626 0.178692 -0.10745488 0.0043895426 0.008967109
-0.110610865 0.240999 -0.27030018 -0.1683502 -0.09955116 -0.16312799 0.14468312 0.0913935
-0.17974207 0.19688316 -0.22942817 -0.014828464 0.027813245 -0.08587596 -0.30278382 0.13504142
0.12410713 0.124015376 -0.24126574 -0.003545849 0.023373032 0.08988223 0.11452396 0.04376258
-0.17898372 0.104006425 -0.2947185 0.2125115 0.33323303 0.0019290923 -0.1880447 0.10114696
00000000: 34da 57be bd2c 183d b7f4 67be a848 c73d
00000010: a33e 8bbe 7f0c 1fbe 1867 3abe 83a9 6abe
00000020: 0842 f4b9 38e8 373e 4694 b6be f729 b13d
00000030: 4dd6 5b3d f5e8 1bbe a326 823c c34e 22be
00000040: 6eef 5abe b709 0cbe 7d51 55bd c0c6 c03d
00000050: 13a1 82bc 4773 53bd b655 95bd 3b70 113e
00000060: 822a b0bd 8c86 863e 99ad 95bd 75d8 e93d
00000070: 9438 2b3e 0645 9ebe 1289 17be d185 7a3e
00000080: 7696 623e ffb1 b23d edd8 4ebe 68f7 9e3d
00000090: 8286 43be 3413 b8bd 855b 80be 68e9 30be
000000a0: 6beb 75be 19a6 4bbe cfd7 84bd 2cdb 49be
000000b0: dd47 33be bbb8 33be 953f 51be 2068 1a3d
000000c0: 9a23 163d 6b22 273e 204b d1bc 8a77 4f3e
000000d0: 3a97 5ebe 072c 3c3d 5c90 afbc 4012 323e
000000e0: 3910 50be 48be 883e 38ae 633d 9a07 4a3e
000000f0: 8736 cbbd 3b8c 1c3e 185d 8ebe c5ed e6bb
00000100: 96c1 8ebe 6080 e5bd b87f 23be 5d78 313e
00000110: ed45 84bd 84d7 3b3e c677 20bd e91c 89bc
00000120: b803 03bd f5c1 febd 8aec 81bd ee82 573e
00000130: 5f5e 0abe 3214 47be a04a e1bd 007a 403e
00000140: 9263 a5be e396 863d 8262 2e3e cb81 18be
00000150: 2dac f53d 8cea 1a3e d411 09bd 4824 02bd
00000160: ffa5 b23d 9199 bf3d 1bed 76bd a327 ebbc
00000170: 7f12 013e f7a0 bb3d e175 5f3e 6b45 bc3b
00000180: 69bd 22be 98fb e03d 6988 09bd 7812 a13b
00000190: 455e 9abe 1367 663e 1f88 22be 1bbf 0abd
000001a0: cfb3 203e 7173 a53d f5a2 f6bd 5448 4abe
000001b0: 003e 0dbe c627 54be 718d bb3d 5886 8c3d
000001c0: 44d8 70bc dbf1 1dbe 9e01 febd b39e aa3c
000001d0: 8cca adbe 7f71 8c3e 265d 553e 291b e83d
000001e0: 3cf3 08bd 0b82 523e b873 44be 1cd0 01be
000001f0: d88a 36be 9a81 b7bd ddc2 1d3e df9c abbc
00000200: 3677 3c3e b5b8 413e dcae 663c 7c8e 73bd
00000210: a2df 05be 7684 24bd d7c7 103e c108 7d3d
00000220: d149 0abe 8edd 933c 429d c93d f241 363e
00000230: 41b4 ddbd b8bd 7fbd 7599 a9bc ab73 a13d
00000240: 104c 30bc 11eb 67be c996 3d3d 2908 d6be
00000250: 8d48 de3d 9974 863e 4129 6b3e 2ea9 56be
00000260: 89ed 20bd 5cd8 2b3e 089c 84be 16a0 2ebc
00000270: 6d67 a53e db51 e53e da40 9d3d 536a dcbe
00000280: 0707 e63d 0fd1 6a3d 1bb0 81be 3f15 08be
00000290: adc7 35be ad3e 933c 9ede 86bd dd49 a03d
000002a0: 57ee 23be a29b 393e 5022 5fbd d527 183e
000002b0: 8923 1b3c 5e1e a33c f48c 03be 47da f7bd
000002c0: 5bcc 9b3d 75ab 45be c000 4cbd 35af 6fbd
000002d0: 1dff 963e 1f2c 353e dde2 3cbe dcc8 f4bc
000002e0: dd5d 39be 3089 14bd 028f 6cbd 2168 c33d
000002f0: aa6f d3bc 97fd 3bbc aa48 4e3d e7c4 85bd
00000300: 2080 173e fbcf e93d 95ee 96be a32d 303e
00000310: 05a2 f93d e47b 0bbe 427f d43d ebe3 313e
00000320: 83b8 2f3e 26fb 513e f5fb 68bc 883c 4dbd
00000330: 058d 0dbe 1634 9ebe d7c4 89be a5b6 d8bd
00000340: 5790 1bbd 3e6d 7cbd 01c1 35bd 8ca9 6ebd
00000350: 229b 04be a409 be3d d421 873e af97 94be
00000360: 50fd b73d 6a2c fd3b b78b 083d 19ad 0bbd
00000370: 09fb 363e 4e11 dcbd 27d6 8f3b c8ea 123c
00000380: f387 e2bd 71c8 763e c964 8abe ff63 2cbe
00000390: 7be1 cbbd 060b 27be d027 143e 842c bb3d
000003a0: 4e0e 38be bd9b 493e 38ef 6abe 16f3 72bc
000003b0: 9ad8 e33c bcdf afbd 7b06 9bbe 4c48 0a3e
000003c0: e12b fe3d c6fb fd3d 5e0e 77be 7961 68bb
000003d0: cd78 bf3c 2d14 b83d 8a8b ea3d 6440 333d
000003e0: 8247 37be 5201 d53d 58e5 96be 9d9c 593e
000003f0: 859d aa3e 99d9 fc3a ca8e 40be 2326 cf3d

decoder.0.bias f4 [32]
0.29651687 -0.0628248 0.16184466 0.13004006 0.24457885 -0.30946326 0.21430385 0.23942427
-0.12760133 -0.55997294 -0.0434909 -0.6417858 -8.6669854e-05 0.2963888 0.24212885 0.39099905
0.13367216 -0.089854866 0.048899155 -0.04181258 0.07524233 -0.02168158 -0.045536958 -0.12186345
0.10150478 -0.07033571 -0.101291716 0.18030743 -0.09766131 0.17899372 0.34631273 0.026147667
00000000: 0fd1 973e 4aaa 80bd 9bba 253e 3929 053e
00000010: e172 7a3e f871 9ebe 7872 5b3e a32b 753e
00000020: eca9 02be 635a 0fbf 8423 32bd 134c 24bf
00000030: 86c2 b5b8 46c0 973e a0f0 773e 0731 c83e
00000040: 5be1 083e d405 b8bd 7b4a 483d ab43 2bbd
00000050: a718 9a3d 929d b1bc f684 3abd 8b93 f9bd
00000060: bde1 cf3d 2b0c 90bd 0872 cfbd 83a2 383e
00000070: a702 c8bd 214a 373e e74f b13e a233 d63c

decoder.2.weight f4 [64, 32]
0.27341127 -0.30540985 0.08844948 0.020075912 0.012267745 -0.009584324 -0.091645956 -0.017123567
0.112597495 0.07043362 0.015961364 0.1497778 -0.027609238 0.30106786 -0.0066906 -0.05477269
-0.14768232 0.14679822 -0.07293903 0.032521874 0.03407476 -0.015586545 -0.16115017 0.09119516
0.33737558 0.14461122 -0.01699259 0.051535603 -0.13982852 0.23984915 0.053683728 -0.18683231
-0.031808645 0.18966365 0.040149476 0.09361555 0.07876922 -0.0893206 -0.019015934 -0.009403902
-0.12253027 -0.32127532 -0.05430585 0.11155041 -0.06575411 -0.017146453 0.104434654 -0.076877594
-0.024228448 0.1081543 0.103790134 -0.00038602864 -0.12797032 0.15907888 0.034858774 0.11011395
0.15977834 0.05998438 -0.26990205 0.24531719 0.052330334 -0.12535557 -0.034641087 -0.13177201
0.079226196 -0.08315844 0.28624922 0.10562368 0.0880011 0.0752009 0.04295214 -0.030012958
-0.004492553 0.010181839 -0.15945943 0.018751673 0.0525912 -0.053115886 0.13515231 -0.12141621
0.14474581 -0.033570644 0.0668812 0.18329547 0.26009881 -0.07560461 0.075750835 -0.08648924
0.1449241 0.20137775 0.31816548 -0.16588931 -0.0043291342 -0.097021885 -0.18377064 0.13251077
0.12774356 0.15394288 0.025904676 0.06530521 0.24508859 0.05445028 -0.17020476 0.07812359
-0.12179895 0.20136204 -0.07363252 0.00021540826 -0.1858506 -0.14883728 -0.1313425 0.20697637
0.13398166 -0.08464331 0.07314555 0.1695226 0.018742075 -0.077568084 0.14545348 0.0138546005
-0.09028866 0.21123697 -0.13743971 -0.01285209 0.08135808 0.09821287 -0.04215719 -0.089419946
0.1469506 0.033551402 0.10585618 -0.15354647 -0.075447574 0.07314381 -0.032339532 0.031545937
0.1689354 -0.034646623 -0.21316165 0.038011227 -0.11139818 -0.04696007 0.111729324 0.064172454
0.16196594 0.1606768 0.21063848 0.06758235 0.106187284 -0.02556747 0.24758749 0.08072408
-0.16151573 0.124091096 0.10411629 0.26903763 0.061555583 -0.1262712 0.07594444 0.032904033
-0.16397862 -0.09258489 0.11274896 -0.020977668 -0.27280647 -0.08949095 -0.04141021 -0.03474967
-0.10549837 0.2589279 0.089095004 -0.03508157 0.09314095 0.15420881 0.27684054 0.097345635
-0.1356488 0.2628525 0.11830589 0.21967444 0.16662589 0.07865793 0.11530177 -0.052728176
-0.10238926 -0.17536801 0.049565766 0.20365664 0.14777815 -0.096712634 0.25474328 -0.15263318
-0.007136913 -0.18587695 -0.10748419 0.027869213 0.0068342932 -0.08521581 -0.09998278 -0.027892688
0.059227094 0.15568787 -0.11647872 -0.04486067 -0.13740382 0.20932594 -0.05013623 -0.09252592
0.22603153 0.26059818 0.0881801 -0.020805022 0.20593359 -0.08491117 0.012352632 0.15237832
0.21764287 0.009821189 -0.1337928 -0.010198683 0.012170851 0.14180964 0.05381329 -0.08357995
-0.14664233 -0.059112135 -0.094329156 -0.167731 -0.01689311 0.053319704 -0.061019678 0.07536786
-0.12184055 -0.14272907 0.12089823 -0.11753694 0.11659325 -0.09604443 0.112284176 -0.025242275
-0.058533818 -0.13941431 -0.0776495 -0.16095683 0.16290914 -0.07486983 -0.023180936 0.1314337
-0.07028324 -0.077068865 -0.010202256 -0.11137892 0.096614234 -0.035984684 -0.07262553 -0.00875999
00000000: 90fc 8b3e ae5e 9cbe 0025 b53d 3d76 a43c
00000010: a7fe 483c 9207 1dbc e0b0 bbbd b946 8cbc
00000020: 8499 e63d 803f 903d 68c1 823c 5a5f 193e
00000030: c52c e2bc 9125 9a3e d23c dbbb 5459 60bd
00000040: 093a 17be 4652 163e 0f61 95bd a835 053d
00000050: fa91 0b3d b55e 7fbc 8d04 25be 87c4 ba3d
00000060: 7ebc ac3e f714 143e 0b34 8bbc ff16 533d
00000070: 352f 0fbe 049b 753e 78e3 5b3d f850 3fbe
00000080: c849 02bd 3037 423e c773 243d 82b9 bf3d
00000090: c251 a13d b8ed b6bd 4ec7 9bbc d312 1abc
000000a0: 26f1 fabd 337e a4be d06f 5ebd 8b74 e43d
000000b0: 17aa 86bd b876 8cbc d6e1 d53d 0072 9dbd
000000c0: bd7a c6bc 0080 dd3d ec8f d43d e363 cab9
000000d0: a70a 03be 93e5 223e 13c8 0e3d 6c83 e13d
000000e0: ef9c 233e 2eb2 753d 9a30 8abe 6e34 7b3e
000000f0: 5558 563d 365d 00be d0e3 0dbd 3eef 06be
00000100: 5841 a23d f94e aabd 428f 923e 3a51 d83d
00000110: ec39 b43d ee02 9a3d 95ee 2f3d bcdd f5bc
00000120: 4436 93bb bad1 263c 5549 23be 1c9d 993c
00000130: df69 573d 0b90 59bd 5e65 0a3e 10a9 f8bd
00000140: 3f38 143e 5f81 09bd 03f9 883d cfb1 3b3e
00000150: ac2b 853e 97d6 9abd 4123 9b3d 4521 b1bd
00000160: fc66 143e f835 4e3e 96e6 a23e e3de 29be
00000170: 69db 8dbb 69b3 c6bd 5f2e 3cbe e7b0 073e
00000180: 35cf 023e 34a3 1d3e 0b36 d43c bdbe 853d
00000190: 81f8 7a3e 4207 5f3d 284a 2ebe 43ff 9f3d
000001a0: ba71 f9bd da31 4e3e a6cc 96bd 37df 6139
000001b0: 9f4f 3ebe cd68 18be a67e 06be 9df1 533e
000001c0: 7d32 093e 7959 adbd 56cd 953d 5597 2d3e
000001d0: fb88 993c 04dc 9ebd c2f1 143e 68fe 623c
000001e0: 43e9 b8bd 814e 583e ffbc 0cbe 9391 52bc
000001f0: 119f a63d d423 c93d 05ad 2cbd ce21 b7bd
00000200: 387a 163e 326d 093d 20cb d83d 493b 1dbe
00000210: 4284 9abd 6ccc 953d 7576 04bd 5036 013d
00000220: 67fd 2c3e 9ee9 0dbd 0c47 5abe a9b1 1b3d
00000230: bb24 e4bd 3459 40bd 58d2 e43d d96c 833d
00000240: 66da 253e 7688 243e 9db1 573e 9d68 8a3d
00000250: b878 d93d df72 d1bc 9387 7d3e ab52 a53d
00000260: 6164 25be 7923 fe3d ec3a d53d 4dbf 893e
00000270: b521 7c3d 3d4d 01be c288 9b3d 61c6 063d
00000280: 03ea 27be 269d bdbd ede8 e63d 5cd9 abbc
00000290: 4aad 8bbe 0847 b7bd c19d 29bd ac55 0ebd
000002a0: 880f d8bd 3392 843e 7177 b63d b1b1 0fbd
000002b0: afc0 be3d eae8 1d3e 0bbe 8d3e 265d c73d
000002c0: 85e7 0abe 9a94 863e 5c4a f23d 56f2 603e
000002d0: fa9f 2a3e 6917 a13d 5623 ec3d 80f9 57bd
000002e0: 76b1 d1bd ac93 33be 7905 4b3d 5e8b 503e
000002f0: 2853 173e 4611 c6bd b66d 823e df4b 1cbe
00000300: c4dc e9bb 8756 3ebe ac20 dcbd fa4d e43c
00000310: 35f2 df3b a085 aebd c6c3 ccbd 357f e4bc
00000320: 1c98 723d a46c 1f3e 658c eebd d2bf 37bd
00000330: 96b3 0cbe 8a59 563e a65b 4dbd 3b7e bdbd
00000340: cf74 673e 206d 853e c597 b43d 4b6f aabc
00000350: 41e0 523e e8e5 adbd b262 4a3c 1009 1c3e
00000360: c6dd 5e3e 0de9 203c fb00 09be 6018 27bc
00000370: 4068 473c 8c36 113e 536b 5c3d f72b abbd
00000380: 6829 16be 911f 72bd a52f c1bd adc1 2bbe
00000390: 6b63 8abc c365 5a3d c5ef 79bd 775a 9a3d
000003a0: 8a87 f9bd 9227 12be 7e99 f73d 35b7 f0bd
000003b0: 71c8 ee3d f1b2 c4bd 3ff5 e53d e3c8 cebc
000003c0: 28c1 6fbd a0c2 0ebe b306 9fbd ded1 24be
000003d0: a7d1 263e 5a55 99bd f2e5 bdbc 8e96 063e
000003e0: a9f0 8fbd 48d6 9dbd 5d27 27bc a21a e4bd
000003f0: afdd c53d ad64 13bd b2bc 94bd 1086 0fbc

decoder.2.bias f4 [64]
0.060459156 -0.07319527 -0.16421315 0.031101469 -0.046264928 0.1825802 0.18627825 -0.017641237
-0.040227637 -0.1527292 -0.02189104 -0.02044159 -0.15971722 0.16576618 -0.07197303 -0.0040676147
-0.025259288 0.0057186657 -0.17077763 0.018321134 0.101821035 -0.3197822 -0.026066216 -0.01182505
0.017604548 -0.17046164 -0.24898042 0.17347561 -0.032227077 -0.09961125 -0.06510383 -0.6363708
-0.088299826 -0.0891885 0.07473417 0.06190562 0.14299615 0.09657634 0.1544581 0.035353348
0.21673863 -0.09253875 -0.004897799 0.2595599 -0.26827905 0.0050092526 0.03116925 -0.11828525
-0.034593593 0.26246306 0.17013867 -0.15008222 -0.044317123 -0.18461029 0.05855711 -0.15743856
0.16188696 0.17247859 0.17163244 0.056331154 -0.11852487 0.046436545 0.035471216 0.2222065
00000000: 05a4 773d 67e7 95bd 7e27 28be 82c8 fe3c
00000010: 4b80 3dbd 4ef6 3a3e babf 3e3e 5b84 90bc
00000020: bcc5 24bd 0b65 1cbe d754 b3bc 1f75 a7bc
00000030: e98c 23be 9cbe 293e 9966 93bd a049 85bb
00000040: 91ec cebc a563 bb3b 55e0 2ebe 3416 963c
00000050: 8c87 d03d 7eba a3be d188 d5bc dbbd 41bc
00000060: 6a37 903c 7f8d 2ebe b9f4 7ebe 97a3 313e
00000070: 8a00 04bd fc00 ccbd 2855 85bd 32e9 22bf
00000080: 8ad6 b4bd 76a8 b6bd 3b0e 993d bf90 7d3d
00000090: 956d 123e d1c9 c53d 442a 1e3e acce 103d
000000a0: bbf0 5d3e f584 bdbd b77d a0bb 09e5 843e
000000b0: df5b 89be a824 a43b a856 ff3c 8a3f f2bd
000000c0: 03b2 0dbd 8f61 863e d538 2e3e 27af 19be
000000d0: df85 35bd 7b0a 3dbe 95d9 6f3d 9337 21be
000000e0: b2c5 253e 3a9e 303e 6ac0 2f3e 7fbb 663d
000000f0: 2bbd f2bd 3f34 3e3d 444a 113d 1a8a 633e

decoder.4.weight f4 [26, 64]
0.11460559 0.013498181 -0.030296464 -0.06433615 -0.0611187 -0.08255547 0.10664542 0.026719406
0.039036006 0.015077838 -0.18505351 -0.006457293 0.04451652 -0.16433793 -0.016957372 0.03742612
0.06324859 -0.008007373 0.15445141 0.11496099 0.0056270007 0.010472863 -0.0010445862 -0.010398494
-0.104559734 0.04492065 -0.012922185 0.16855037 0.02256373 0.005443201 0.032318037 -0.07893932
-0.10722789 -0.0147882765 -0.03531607 -0.13745965 0.008044592 0.06461623 -0.056190066 0.071283944
-0.119238235 -0.0123602 -0.051282875 0.054175436 -0.015389669 0.058093484 -0.11049883 -0.024057314
0.005541271 -0.058684412 0.050048016 -0.007197765 -0.12952341 0.06327688 0.07319217 -0.02464033
0.07964178 -0.043095637 -0.034801595 -0.04169295 -0.10662504 0.003016576 0.124825545 0.14085218
0.059291583 -0.044403944 0.039102823 0.043892823 0.006107741 -0.12191782 -0.028286787 0.089458376
-0.07567366 0.010286647 -0.0760932 0.06851737 0.0068338383 -0.12435084 0.048819207 0.0024526631
0.098727964 -0.050148018 -0.017993037 0.04525808 0.091810696 -0.010997292 0.0014861148 -0.061839677
0.076373465 -0.04432386 0.03991019 0.08171585 -0.008789471 -0.06921515 -0.038201217 -0.014969666
0.051635824 0.01657736 0.0098531535 -0.07175945 -0.047714897 0.026679995 0.09038898 0.08061286
-0.00930439 0.11698533 0.07211104 0.23559152 0.037804153 -0.14178479 -0.02618484 0.06190309
0.011224332 -0.005743393 -0.030547515 0.092380755 -0.13276589 0.040247347 -0.08592715 -0.0133969495
-0.04540263 -0.0077128145 0.09767154 -0.02708281 -0.09400558 0.009695728 0.025663111 -0.06287536
0.07240487 -0.0481282 0.17736787 0.011901944 0.04935412 -0.15234673 0.088249564 -0.061215565
-0.14930137 -0.074133575 -0.13313127 0.091107026 0.065154694 0.032279592 0.017488059 0.05623084
0.017575447 -0.004786371 -0.038258754 0.10039017 -0.03340157 -0.0004515766 0.0009950965 0.05424269
0.014498672 0.065393925 0.037981406 0.118774466 -0.023938771 -0.10281368 -0.066386834 -0.0019429135
-0.080749154 0.018703835 0.019662399 -0.12300389 -0.093145624 -0.017770533 0.027353404 0.027690396
-0.0146030495 0.11850636 0.05117226 0.17920965 0.029139545 -0.10269883 0.031029552 0.047908634
0.011091683 -0.16319123 -0.063045986 0.08554355 -0.111087285 -0.055102043 -0.07055136 -0.01951286
0.11639396 0.053319246 -0.028443653 -0.032076422 0.007978004 0.055055745 0.034330096 -0.068900034
-0.005505153 0.016425716 -0.018570103 -0.05840017 -0.12878 -0.09952962 0.1285373 0.06610806
-0.011023945 -0.048035108 -0.15963513 0.059977457 -0.056582507 0.0053015267 0.019798525 0.0743076
0.13857469 -0.12015858 -0.06834752 0.057038035 0.017994104 0.01113082 -0.0015591186 -0.05474337
0.009285676 -0.037362445 0.04862393 0.07563612 -0.0038048502 0.05750274 0.008465067 -0.011149706
-0.10511392 0.11205608 -0.012693593 -0.019228132 -0.021815306 0.06565728 -0.00031981058 0.07668188
-0.088716954 -0.013534699 0.06344148 0.24307735 0.020572897 0.016744783 -0.051058963 0.07097919
0.00783056 -0.08116971 -0.033860113 0.11755193 -0.17755097 -0.0054157027 0.026546609 -0.01675415
-0.054030005 0.02490582 0.07020098 0.02068586 -0.021278415 0.005016833 0.049290914 -0.045866966
00000000: 56b6 ea3d 7927 5d3c 4a30 f8bc acc2 83bd
00000010: 9a57 7abd d812 a9bd ea68 da3d a8e2 da3c
00000020: 38e4 1f3d 0909 773c ab7e 3dbe b397 d3bb
00000030: f456 363d 3448 28be 30ea 8abc 224c 193d
00000040: 7a88 813d 5b31 03bc 8328 1e3e ab70 eb3d
00000050: b462 b83b 5f96 2b3c 7fea 88ba 725e 2abc
00000060: 6a23 d6bd b7fe 373d 92b7 53bc 7898 2c3e
00000070: 92d7 b83c e15c b23b eb5f 043d f0aa a1bd
00000080: 4c9a dbbd 874a 72bc 95a7 10bd 39c2 0cbe
00000090: 77cd 033c 8455 843d 8e27 66bd 51fd 913d
000000a0: 2d33 f4bd 7082 4abc fe0d 52bd 10e7 5d3d
000000b0: f324 7cbc 6ff3 6d3d 364d e2bd d813 c5bc
000000c0: 8d93 b53b 115f 70bd 26ff 4c3d 3bdb ebbb
000000d0: c9a1 04be 4f97 813d c7e5 953d 84da c9bc
000000e0: 3b1b a33d 0d85 30bd 1e8c 0ebd 3ac6 2abd
000000f0: 3b5e dabd bfb1 453b 89a4 ff3d 8e3b 103e
00000100: bbdb 723d e9e0 35bd 482a 203d f6c8 333d
00000110: 7223 c83b 0db0 f9bd b1b9 e7bc f435 b73d
00000120: cbfa 9abd 5389 283c c0d6 9bbd d652 8c3d
00000130: 64ee df3b a7ab febd a6f6 473d dcbc 203b
00000140: e331 ca3d 0268 4dbd 2266 93bc 8960 393d
00000150: 3f07 bc3d fc2d 34bc bdc9 c23a 9a4b 7dbd
00000160: b169 9c3d f08c 35bd de78 233d a45a a73d
00000170: b701 10bc acc0 8dbd e178 1cbd 5443 75bc
00000180: 1680 533d 3ecd 873c 1f6f 213c 9ef6 92bd
00000190: b270 43bd 0190 da3c dc1d b93d 5b18 a53d
000001a0: 7171 18bc 0196 ef3d f4ae 933d e73e 713e
000001b0: 87d8 1a3d 0830 11be 9781 d6bc 188e 7d3d
000001c0: 43e6 373c 1333 bcbb c83e fabc 1f32 bd3d
000001d0: c8f3 07be 67da 243d 93fa afbd e17e 5bbc
000001e0: 1cf8 39bd c7bb fcbb 0408 c83d c5dc ddbc
000001f0: ff85 c0bd d5da 1e3c 723b d23c ccc4 80bd
00000200: 0149 943d 1322 45bd ec9f 353e 5f00 433c
00000210: 8c27 4a3d c800 1cbe 30bc b43d 2cbd 7abd
00000220: 75e2 18be 58d3 97bd 9053 08be 5296 ba3d
00000230: d36f 853d 9b37 043d 1e43 8f3c 4f52 663d
00000240: 62fa 8f3c fdd6 9cbb 36b5 1cbd 5d99 cd3d
00000250: 16d0 08bd 96c1 ecb9 e66d 823a 952d 5e3d
00000260: d78b 6d3c 40ed 853d 6492 1b3d 0740 f33d
00000270: 3e1b c4bc fb8f d2bd d2f5 87bd 5ca9 feba
00000280: d05f a5bd c938 993c 0a13 a13c 77e9 fbbd
00000290: 22c3 bebd 8293 91bc 3f14 e03c f8d6 e23c
000002a0: a141 6fbc 76b3 f23d 019a 513d bc82 373e
000002b0: 0eb6 ee3c c453 d2bd b031 fe3c d83b 443d
000002c0: e4b9 353c 9a1b 27be 411e 81bd 7531 af3d
000002d0: bb81 e3bd aeb2 61bd 3b7d 90bd 6fd9 9fbc
000002e0: f55f ee3d 4865 5a3d aa02 e9bc 9162 03bd
000002f0: 2db6 023c 2282 613d b79d 0c3d 761b 8dbd
00000300: 9264 b4bb 398f 863c 5420 98bc 0435 6fbd
00000310: e8de 03be 2fd6 cbbd 489f 033e aa63 873d
00000320: c79d 34bc 76c0 44bd 6477 23be ecaa 753d
00000330: 0fc3 67bd 6eb8 ad3b 8430 a23c 952e 983d
00000340: 86e6 0d3e b415 f6bd c9f9 8bbd b7a0 693d
00000350: 5f68 933c 0b5e 363c 575b ccba 953a 60bd
00000360: f322 183c 5d09 19bd e329 473d 1ce7 9a3d
00000370: cb5a 79bb fe87 6b3d 10b1 0a3c 42ad 36bc
00000380: f845 d7bd a87d e53d caf8 4fbc 5184 9dbc
00000390: 03b6 b2bc 5377 863d 40ac a7b9 640b 9d3d
000003a0: 3cb1 b5bd a4c0 5dbc 9bed 813d 45e9 783e
000003b0: 7e88 a83c 5b2c 893c 3423 51bd 8a5d 913d
000003c0: c04b 003c 4e3c a6bd e7b0 0abd 11bf f03d
000003d0: eccf 35be 3576 b1bb 4678 d93c 0040 89bc
000003e0: 914e 5dbd 4a07 cc3c 88c5 8f3d 6575 a93c
000003f0: 1250 aebc 3f64 a43b 45e5 493d 00df 3bbd

decoder.4.bias f4 [26]
0.020801948 -0.02614697 0.007163946 -0.0014161938 -0.32078514 -0.0580218 -0.06347227 0.0029205745
-0.021118313 0.008770752 -0.020027043 -0.023895368 -0.0010692684 -0.021316186 -0.023127731 0.005445994
-0.044554718 -0.07003793 -0.1989173 0.118065216 0.009816959 -0.07415624 0.059624434 -0.024285072
-0.046161845 0.06806218
00000000: d968 aa3c 2c32 d6bc 89bf ea3b 949f b9ba
00000010: f33d a4be 44a8 6dbd c0fd 81bd 1c67 3f3b
00000020: 5000 adbc 33b3 0f3c c10f a4bc 38c0 c3bc
00000030: b226 8cba 489f aebc 5e76 bdbc 4f74 b23b
00000040: 027f 36bd 0c70 8fbd fab0 4bbe 2dcc f13d
00000050: 4fd7 203c 3adf 97bd c038 743d 7df1 c6bc
00000060: 3414 3dbd 2f64 8b3d
