models/seq_encoder.pth (torch, 588805 bytes, 16 tensors)

lstm.weight_ih_l0 f4 [256, 26]
-0.024630561 0.04491692 -0.114659265 -0.040592358 0.0068538436 -0.017662404 0.124850236 -0.09708703
-0.089790024 -0.11106157 0.04152069 -0.08518951 0.11091223 -0.039741192 0.046767324 -0.011615787
0.116534665 0.11637491 0.05955168 -0.078608155 0.10220996 0.011782623 -0.085975215 -0.011731802
0.0019802412 -0.001035632 -0.024601653 0.1047398 -0.09168165 0.116822235 -0.012385468 0.0042309514
-0.0066692545 -0.12351226 0.011898873 -0.092815794 -0.003445702 -0.12673502 0.017604291 -0.023073804
0.00023667117 0.0066257315 0.029604934 0.08780532 0.0002272544 0.07441245 0.10354937 0.096257694
-0.013404763 -0.1256729 -0.013438214 0.00054040866 0.10297763 0.059531778 0.014892548 -0.110545285
0.032865327 0.008894132 0.02246779 0.019318365 -0.063551076 -0.07699883 -0.024492372 0.09309392
-0.125331 0.00596384 0.0020934662 0.007297785 0.06452078 0.08959494 0.005082236 0.0450294
-0.030391967 -0.043166403 0.061808538 -0.043968555 0.017444218 -0.047219723 -0.05830107 -0.060084965
-0.0472708 0.114981 -0.051435605 0.0067468206 -0.07582598 0.032083552 -0.048258066 0.07512714
0.08344001 -0.03678252 -0.021506809 -0.04571272 -0.03915748 0.032475166 0.021634437 0.024484808
0.02363174 -0.0089395745 -0.084840275 -0.020414414 0.0983166 0.082061216 0.03515996 -0.0369743
0.004811125 0.053086415 -0.004807738 0.07782211 0.028345466 -0.0040021366 0.070202425 0.07971626
0.016614296 -0.03695105 0.023663858 -0.11586762 -0.09843713 0.011853616 0.028763296 -0.060864046
-0.0018804914 0.09259267 -0.026288992 -0.09291737 0.07037794 0.07077587 -0.03129179 -0.12327481
-0.0075146467 -0.055039536 0.032091796 -0.0070811836 0.08590863 -0.03510177 0.025532886 -0.010371361
0.10054613 0.024032958 0.10215085 -0.033498596 -0.014351148 -0.010048544 0.035695888 -0.0110633345
-0.0003923078 0.028262608 0.014500736 -0.03649422 -0.024081549 0.004963043 -0.044750698 -0.037963446
-0.043000888 -0.11159654 -0.0022726066 0.026783565 -0.026432596 -0.10591727 -0.035225492 0.0020067666
-0.00085545506 -0.006239799 -0.059235584 -0.031885173 0.03791468 -0.069565795 0.09644164 0.056491937
-0.04787511 -0.02517123 0.0054532597 0.002040797 -0.108846396 0.10032104 -0.0009242272 0.009707135
-0.06308336 0.08897948 0.060102 0.085517816 -0.029938819 -0.010036982 0.055370137 0.10575694
0.01585571 -0.07074341 0.01214985 0.013167212 -0.011478494 -0.028270872 0.06424896 -0.07290354
-0.016168775 -0.11667678 0.022959981 0.016346538 -0.021775344 0.0071498696 -0.09740685 0.010541982
-0.008547753 -0.0049493317 -0.05900848 0.09538801 0.06920579 0.027982127 0.015402581 -0.027911745
0.11154566 -0.11650653 -0.024404183 -0.077634536 -0.0033022375 -0.017425787 -0.06707059 0.09772374
0.07079638 0.11166602 -0.1148069 -0.06622471 0.062626705 0.0018296661 -0.03360778 0.025714276
-0.035714846 0.012475793 -0.005330712 0.09185443 0.088324286 0.0224227 -0.113086626 -0.021697737
0.038032424 0.011551581 -0.09814809 0.06345931 0.022654982 0.11671112 -0.0007302297 0.004052082
0.024247546 0.013331201 0.022943303 0.017130999 -0.00051091827 -0.05283254 -0.012083734 0.0027396518
0.010836795 -0.011183797 0.111792855 -0.046987813 -0.039965928 -0.04176822 0.07553131 -0.11374493
00000000: 08c6 c9bc cefa 373d 7ad2 eabd 2c44 26bd
00000010: 3596 e03b bfb0 90bc 7bb1 ff3d 91d5 c6bd
00000020: d5e3 b7bd 4074 e3bd 9911 2a3d d677 aebd
00000030: f425 e33d a9c7 22bd 188f 3f3d 2450 3ebc
00000040: baa9 ee3d f855 ee3d 76ec 733d 50fd a0bd
00000050: 7553 d13d e70b 413c c613 b0bd be36 40bc
00000060: efc6 013b 0bbe 87ba 6889 c9bc d281 d63d
00000070: 97c3 bbbd 7f40 ef3d 6bec 4abc cba3 8a3b
00000080: c389 dabb fff3 fcbd 7ef3 423c 3516 bebd
00000090: 49d1 61bb d3c6 01be e036 903c 4605 bdbc
000000a0: ef2a 7839 aa1c d93b 0c86 f23c 47d3 b33d
000000b0: 234b 6e39 8e65 983d b111 d43d c122 c53d
000000c0: a79f 5bbc 66b0 00be f42b 5cbc 36aa 0d3a
000000d0: f0e5 d23d 98d7 733d e0ff 733c 9165 e2bd
000000e0: cb9d 063d b2b8 113c 5f0e b83c 8c41 9e3c
000000f0: 1127 82bd 90b1 9dbd 3aa4 c8bc 06a8 be3d
00000100: c556 00be 516c c33b 8932 093b 4222 ef3b
00000110: 7923 843d 8d7d b73d e388 a63b c070 383d
00000120: 93f8 f8bc 41cf 30bd f32a 7d3d 5f18 34bd
00000130: 2de7 8e3c 7869 41bd 1acd 6ebd a71b 76bd
00000140: 079f 41bd 297b eb3d 24ae 52bd 6f14 dd3b
00000150: a74a 9bbd 0b6a 033d 40aa 45bd 42dc 993d
00000160: 99e2 aa3d 45a9 16bd 0c2f b0bc 433d 3bbd
00000170: 9863 20bd ae04 053d b43a b13c 5d94 c83c
00000180: 5a97 c13c 4b77 12bc bdc0 adbd 213c a7bc
00000190: 375a c93d b60f a83d e403 103d 5d72 17bd
000001a0: a4a6 9d3b 2471 593d 3b8a 9dbb 3361 9f3d
000001b0: c034 e83c 5b24 83bb 4ac6 8f3d 4742 a33d
000001c0: b41a 883c fc59 17bd b5da c13c 014c edbd
000001d0: 6899 c9bd ab35 423c 01a1 eb3c 944c 79bd
000001e0: d27a f6ba 3aa1 bd3d 035c d7bc 764b bebd
000001f0: 4f22 903d f0f2 903d d22b 00bd 8177 fcbd
00000200: 6d3d f6bb 2371 61bd b072 033d 4609 e8bb
00000210: ddf0 af3d e0c6 0fbd 582a d13c a4ec 29bc
00000220: 21eb cd3d c4e0 c43c 7734 d13d d335 09bd
00000230: 1421 6bbc a6a2 24bc da35 123d fd42 35bc
00000240: a9ae cdb9 fc86 e73c 7f94 6d3c f77a 15bd
00000250: ab46 c5bc 06a1 a23b 824c 37bd 8f7f 1bbd
00000260: b321 30bd ba8c e4bd 03f0 14bb 3569 db3c
00000270: 2c89 d8bc 27eb d8bd 9b48 10bd f583 033b
00000280: 9e40 60ba 3a77 ccbb 03a1 72bd 079a 02bd
00000290: 6c4c 1b3d 8378 8ebd 3283 c53d 1764 673d
000002a0: b118 44bd e533 cebc 42b1 b23b e4be 053b
000002b0: dcea debd 1e75 cd3d d647 72ba ad0a 1f3c
000002c0: d931 81bd e03a b63d 842d 763d f723 af3d
000002d0: 4142 f5bc 2772 24bc cccb 623d 1897 d83d
000002e0: d5e3 813c ece1 90bd 2a10 473c 4abb 573c
000002f0: 4b10 3cbc 5198 e7bc f594 833d 744e 95bd
00000300: 6174 84bc 3cf4 eebd 9216 bc3c 2de9 853c
00000310: 3562 b2bc 7449 ea3b 3e7d c7bd 47b8 2c3c
00000320: e00b 0cbc 012e a2bb e0b2 71bd ca5a c33d
00000330: c4bb 8d3d c63a e53c 1b5b 7c3c 2ca7 e4bc
00000340: 0d72 e43d fa9a eebd 48eb c7bc dbfe 9ebd
00000350: 5a6a 58bb 86c0 8ebc 4e5c 89bd 6223 c83d
00000360: b1fd 903d 27b1 e43d e11f ebbd d2a0 87bd
00000370: 6e42 803d 68d1 ef3a 50a8 09bd bfa6 d23c
00000380: bb49 12bd 4567 4c3c 41ad aebb 2d1e bc3d
00000390: 5de3 b43d cfaf b73c f699 e7bd 74bf b1bc
000003a0: e3c7 1b3d d842 3d3c de01 c9bd f4f6 813d
000003b0: f196 b93c 3d06 ef3d e36c 3fba 54c7 843b
000003c0: caa2 c63c 1c6b 5a3c 98f3 bb3c 4f56 8c3c
000003d0: 25ef 05ba ef66 58bd dbfa 45bc bb8b 333b
000003e0: d08c 313c 3f3c 37bc a7f3 e43d 4b76 40bd
000003f0: 50b3 23bd 2715 2bbd 29b0 9a3d 1af3 e8bd

lstm.weight_hh_l0 f4 [256, 64]
0.019081429 0.060400907 -0.06398581 0.12055934 -0.092381164 0.039638955 -0.12746768 0.090650775
0.024687937 0.09354637 -0.08503323 0.10465883 0.114486076 -0.07363673 -0.027736306 -0.043289218
-0.10811496 0.10108594 -0.09871733 0.086739756 0.045966014 -0.096265 -0.08364193 -0.07742848
0.0012270283 0.045513418 -0.010105201 -0.07608153 0.06495061 0.048225045 0.025848897 -0.12598452
-0.104889736 -0.10743385 -0.14094086 -0.035153974 -0.053441804 -0.042480405 -0.04260113 -0.056685276
-0.05486434 -0.0658401 -0.12799194 0.0858454 -0.084674165 0.06405121 -0.05148839 0.11071456
0.10020541 -0.046123456 -0.12911712 -0.12834099 -0.032450676 -0.10540102 0.026266234 0.075129785
-0.011179583 0.006344083 0.06656896 0.10645485 -0.0044211824 0.057111736 0.06614123 0.07413163
0.10120437 -0.06079164 -0.14449412 -0.024683276 -0.009446764 0.097947806 -0.006703504 -0.08174258
-0.11363631 -0.08600294 -0.07374985 0.097885765 0.062205434 -0.086737156 -0.016145468 0.14729239
-0.06791588 0.041090112 0.13079916 -0.0031957063 -0.027983703 -0.037605356 -0.07382369 -0.10509156
-0.015270441 -0.09649806 -0.08745169 0.10866372 0.13910443 0.11264479 -0.06380453 -0.0032079436
-0.18179773 -0.042901866 0.11714682 0.033950854 -0.09308284 0.0117156925 -0.09252202 0.057008743
-0.010605536 -0.06575339 -0.062237363 0.041912474 -0.023486713 0.023387996 0.055610947 0.07672026
-0.10194529 -0.07953491 0.14875571 -0.16816063 -0.055948786 -0.07324455 0.08961058 -0.13310711
-0.0007288519 0.043589737 -0.009113524 0.09270881 -0.032545004 -0.034840282 -0.10607791 -0.08071543
-0.04659388 0.0036826388 0.12218636 0.10586079 -0.06918778 -0.065639526 0.11748093 0.0047489232
0.061715595 0.048962798 -0.070059665 0.12502235 -0.085429914 0.028663909 0.055589262 0.0019511111
-0.0031926346 0.0037950836 -0.07322328 -0.07703831 0.10274202 0.10864172 0.064190574 -0.06703794
-0.07538491 -0.05740476 -0.055434775 0.022567857 -0.064186424 0.07792919 -0.075941816 0.0935461
-0.14087379 -0.10137922 0.04913283 0.054513514 -0.04220134 0.12679113 0.10681435 0.036717344
0.100999855 -0.03795858 -0.0070272633 0.14453073 0.058836427 -0.10557324 -0.04412194 -0.05626839
-0.00035743893 -0.05666689 0.00043950608 -0.03870461 0.010614481 0.022985034 0.03336691 -0.03847238
0.13232054 0.09364257 0.12716748 -0.09225017 0.007873332 -0.08307439 -0.014487217 -0.12486561
0.09232748 0.09535903 0.019798292 0.03154 -0.10389069 0.05463546 -0.024042342 0.09580991
-0.021600476 0.040986296 0.07143073 0.030881854 -0.11231498 -0.020845138 0.06925804 -0.028050762
-0.10296841 -0.012621624 -0.048491064 0.005632132 0.006983948 0.042590525 0.031680092 0.01851654
0.14784195 -0.037753608 0.03536592 0.0010412792 0.1035508 0.07187563 -0.0018679556 0.097623475
0.031677004 0.074843325 -0.124478474 0.07546005 -0.0664703 0.10034736 -0.074599385 -0.14985104
0.017610999 0.023120997 0.14781787 0.043602917 -0.10051158 -0.027472071 0.097428046 0.11311664
-0.046478312 -0.04924226 -0.02032419 -0.02465381 -0.021618342 -0.1242256 0.033437677 -0.04688928
-0.0012373404 -0.055901643 -0.08732869 0.0604792 0.012174114 -0.14644735 -0.06998074 -0.026354631
00000000: a850 9c3c f166 773d fe0a 83bd d1e7 f63d
00000010: 5632 bdbd 755c 223d e386 02be 1da7 b93d
00000020: 5b3e ca3c 3d95 bf3d e725 aebd 5e57 d63d
00000030: ad77 ea3d dbce 96bd 4037 e3bc 0950 31bd
00000040: 606b ddbd 2506 cf3d 502c cabd 9da4 b13d
00000050: dc46 3c3d 9626 c5bd 764c abbd d392 9ebd
00000060: 3dd4 a03a 476c 3a3d 4990 25bc a2d0 9bbd
00000070: d304 853d a087 453d 11c1 d33c 1602 01be
00000080: 6ed0 d6bd 4706 dcbd cd52 10be 9dfd 0fbd
00000090: cbe5 5abd efff 2dbd 867e 2ebd d22e 68bd
000000a0: 6eb9 60bd 2dd7 86bd 5210 03be b7cf af3d
000000b0: a669 adbd 482d 833d 7de5 52bd 51be e23d
000000c0: 7e38 cd3d f3eb 3cbd 4737 04be d26b 03be
000000d0: 00eb 04bd 7ddc d7bd 492c d73c a5dd 993d
000000e0: 922a 37bc 07e2 cf3b 4f55 883d 0005 da3d
000000f0: 91df 90bb ffed 693d 0e75 873d 53d2 973d
00000100: 3d44 cf3d a800 79bd 44f6 13be 9534 cabc
00000110: 9ac6 1abc dc98 c83d 11a9 dbbb a768 a7bd
00000120: 27ba e8bd 4f22 b0bd 290a 97bd 5578 c83d
00000130: 20cb 7e3d 40a3 b1bd 8043 84bc d1d3 163e
00000140: 7b17 8bbd 1b4e 283d 37f0 053e 0e6f 51bb
00000150: 143e e5bc 1308 1abd e030 97bd 3e3a d7bd
00000160: df30 7abc c6a0 c5bd df19 b3bd 168b de3d
00000170: 6471 0e3e 50b2 e63d f3ab 82bd 5d3c 52bb
00000180: 2f29 3abe deb9 2fbd acea ef3d 0d10 0b3d
00000190: 37a2 bebd 2df3 3f3c 2f7c bdbd 0082 693d
000001a0: d8c2 2dbc b7a9 86bd 9bec 7ebd 6aac 2b3d
000001b0: 3567 c0bc 2f98 bf3c 4ec8 633d 831f 9d3d
000001c0: b1c8 d0bd 33e3 a2bd 6b53 183e 4d32 2cbe
000001d0: 8e2a 65bd 3d01 96bd c085 b73d 3b4d 08be
000001e0: 6c10 3fba 278b 323d e450 15bc 1ede bd3d
000001f0: e94d 05bd afb4 0ebd 603f d9bd 224e a5bd
00000200: 39d9 3ebd 6d58 713b d83c fa3d 8bcd d83d
00000210: 53b2 8dbd 046e 86bd d899 f03d db9c 9b3b
00000220: 7ec9 7c3d 378d 483d 717b 8fbd dc05 003e
00000230: e1f5 aebd 93d0 ea3c 91b1 633d 6dbc ff3a
00000240: 853b 51bb f0b6 783b 16f6 95bd 43c6 9dbd
00000250: 686a d23d 8d7f de3d 5976 833d 304b 89bd
00000260: 6763 9abd 4121 6bbd 930f 63bd 3ae0 b83c
00000270: 2c74 83bd 5799 9f3d 6287 9bbd 1995 bf3d
00000280: 3841 10be e99f cfbd 823f 493d 9049 5f3d
00000290: 50db 2cbd 89d5 013e 7bc1 da3d ed64 163d
000002a0: 03d9 ce3d 757a 1bbd f544 e6bb ddff 133e
000002b0: 77fe 703d c836 d8bd 35b9 34bd af79 66bd
000002c0: a466 bbb9 8a1b 68bd 826d e639 ba88 1ebd
000002d0: 5ce8 2d3c 1c4b bc3c beab 083d 3795 1dbd
000002e0: 097f 073e adc7 bf3d 3138 023e a8ed bcbd
000002f0: 26ff 003c e822 aabd cb5b 6dbc 8ab9 ffbd
00000300: 3116 bd3d 984b c33d 0730 a23c 1630 013d
00000310: a4c4 d4bd 6fc9 5f3d 72f4 c4bc fc37 c43d
00000320: 7bf3 b0bc 3fe1 273d 464a 923d f1fb fc3c
00000330: 6505 e6bd 6cc3 aabc 29d7 8d3d b6ca e5bc
00000340: 1ae1 d2bd eeca 4ebc 919e 46bd bf8d b83b
00000350: 9ad9 e43b 6773 2e3d fcc2 013d 00b0 973c
00000360: e163 173e 87a3 1abd dbdb 103d 887b 883a
00000370: 7112 d43d 8833 933d 30d6 f4ba d1ee c73d
00000380: bfbf 013d 7547 993d 92ee febd cc8a 9a3d
00000390: 9521 88bd eb82 cd3d 90c7 98bd 8d72 19be
000003a0: f144 903c 3f68 bd3c 915d 173e f998 323d
000003b0: 04d9 cdbd 1c0d e1bc 5b88 c73d b2a9 e73d
000003c0: 0b60 3ebd 41b2 49bd ea7e a6bc c9f6 c9bc
000003d0: f318 b1bc fe69 febd f2f5 083d f90e 40bd
000003e0: 412e a2ba 1ff9 64bd 62d9 b2bd 0ab9 773d
000003f0: ef75 473c 4bf6 15be 1052 8fbd abe5 d7bc

lstm.bias_ih_l0 f4 [256]
0.016254572 -0.0088974405 -0.03557013 0.08907689 0.15352987 0.058909938 -0.10642544 0.12927371
-0.012045361 0.1348831 -0.017894516 0.13588813 0.102261 0.01841832 0.023962177 -0.059947196
-0.09608328 0.083165474 -0.026060367 -0.038957346 -0.02871906 0.043572105 -0.02375039 0.030795319
-0.0025985385 0.05821236 0.057556864 -0.058040164 0.086971335 0.019791424 -0.053194806 0.08640806
-0.004296976 0.00720288 0.1705067 -0.0240518 -0.12009321 -0.1695762 0.06875985 0.07564354
0.07732443 0.10107852 0.011683101 -0.0921873 0.22301717 0.13028301 -0.048313178 -0.017211545
-0.0048126504 -0.002660293 0.057565954 0.1210284 0.18697876 0.04511834 0.05407401 -0.022661973
-0.11264569 0.0410134 0.07244032 -0.075561844 -0.03659743 0.04291694 -0.09810072 0.08474312
0.074372895 0.071574576 -0.020721551 0.08736639 0.09815034 -0.004830062 -0.037388336 0.072475776
0.032933798 0.020700596 -0.041806754 0.016255673 -0.046706263 -0.05433608 -0.07164979 0.034922443
0.06813641 0.0827752 0.17212835 0.0014326167 -0.07104488 0.08182536 -0.073055975 0.0556736
-0.019953147 0.03743038 -0.11077755 -0.040107027 -0.025009993 -0.01352209 0.09052087 -0.09854226
-0.02118461 -0.13869224 0.20837979 -0.051045243 -0.14758049 0.023396077 0.057422806 -0.10960243
-0.054746196 0.20054655 -0.071427815 0.029083576 0.0417176 -0.08523565 0.1191479 -0.14753057
0.04936623 -0.10412227 -0.07236583 -0.010161463 0.014534173 -0.04999334 -0.04948686 -0.018389186
-0.10132978 0.05859126 -0.13673869 0.027911134 -0.017873073 0.06808609 0.026385192 0.034815032
-0.03864461 -0.077503175 0.021630336 -0.12579462 0.113836564 -0.19592427 0.17516492 -0.14839064
0.09210287 -0.026440986 -0.14047158 0.18868233 -0.08171938 -0.016089331 0.06775303 -0.17603406
-0.1221683 -0.14344627 -0.04036942 0.03433441 0.07374407 -0.07287972 -0.122715995 -0.027090069
-0.024686418 -0.1876063 -0.0710245 -0.14745302 -0.058119904 0.119220644 -0.08565591 -0.15020938
-0.029156266 0.05307058 0.1462354 -0.058517884 0.033617284 0.09245378 -0.106275216 0.094574064
0.023293035 0.16704942 0.01583264 0.08766314 0.19742063 -0.19317803 0.11329444 0.12823048
0.010047113 0.12047403 0.035126574 0.062281445 -0.20860258 0.004496507 -0.08828012 0.110046394
0.13693455 -0.10510767 0.12012714 -0.034528505 -0.19683388 0.100558765 0.05642721 0.12047176
-0.09247126 -0.026268866 0.0077102585 -0.017218709 0.11461816 -0.013847356 -0.06534507 0.035125285
0.08264682 -0.07413079 -0.1137103 0.18535346 0.062194496 -0.1495352 -0.10151041 0.10458845
-0.010355532 0.002877567 0.17151818 0.074860334 -0.119648054 0.16087528 0.030996084 0.030064078
-0.15627342 0.11928489 -0.1280543 0.06413316 -0.049473256 -0.14577857 -0.061225172 -0.031251904
-0.032861408 -0.0055612717 0.11932611 0.0393712 -0.021189187 0.017225666 0.017557064 0.018846724
-0.14270662 0.31525785 0.038340785 0.013859207 0.17466284 -0.05495412 0.036542907 -0.1247086
0.03626175 0.058251765 -0.14474495 0.0027681342 0.08257749 0.074326545 -0.04892956 0.07426571
-0.11120343 -0.077497095 0.02689791 -0.012694904 0.12715903 0.058599148 0.11961061 -0.15373828
00000000: 4f28 853c 92c6 11bc fcb1 11bd f26d b63d
00000010: ef36 1d3e 8c4b 713d 95f5 d9bd 5460 043e
00000020: e859 45bc cc1e 0a3e 8597 92bc 4226 0b3e
00000030: 376e d13d 04e2 963c 544c c43c 318b 75bd
00000040: 50c7 c4bd a952 aa3d 8d7c d5bc bd91 1fbd
00000050: 3c44 ebbc aa78 323d 2e90 c2bc 7746 fc3c
00000060: 3e4c 2abb 1570 6e3d bfc0 6b3d 86bb 6dbd
00000070: 071e b23d a021 a23c cce2 59bd b5f6 b03d
00000080: a6cd 8cbb 2306 ec3b 4f99 2e3e 4808 c5bc
00000090: 6ef3 f5bd 62a5 2dbe f7d1 8c3d 00eb 9a3d
000000a0: 455c 9e3d 4102 cf3d 7a6a 3f3c b2cc bcbd
000000b0: 9d5e 643e e968 053e 0ae4 45bd 3aff 8cbc
000000c0: 70b3 9dbb 4f58 2ebb 47ca 6b3d bddd f73d
000000d0: 5c77 3f3e 02ce 383d b67c 5d3d 9aa5 b9bc
000000e0: c9b2 e6bd abfd 273d 975b 943d 2bc0 9abd
000000f0: 30e7 15bd acc9 2f3d 08e9 c8bd cd8d ad3d
00000100: d150 983d b195 923d 3ec0 a9bc 26ed b23d
00000110: 0c03 c93d 7f45 9ebb 8324 19bd 2e6e 943d
00000120: 97e5 063d 4c94 a93c 8f3d 2bbd 9e2a 853c
00000130: 114f 3fbd 828f 5ebd 20bd 92bd d60a 0f3d
00000140: 1a8b 8b3d 0b86 a93d 6a42 303e a4c6 bb3a
00000150: fa7f 91bd 0e94 a73d 5f9e 95bd 000a 643d
00000160: c874 a3bc 9950 193d 57df e2bd 4447 24bd
00000170: c2e1 ccbc c28b 5dbc 0263 b93d 86d0 c9bd
00000180: 598b adbc 5705 0ebe 8361 553e d114 51bd
00000190: 571f 17be 21a9 bf3c 2d34 6b3d 3d77 e0bd
000001a0: 8c3d 60bd 135c 4d3e bf48 92bd ae40 ee3c
000001b0: 13e0 2a3d 0790 aebd d003 f43d 4112 17be
000001c0: 3e34 4a3d 0f3e d5bd 8934 94bd 447c 26bc
000001d0: bd20 6e3c d1c5 4cbd bcb2 4abd eba4 96bc
000001e0: fd85 cfbd 64fd 6f3d 3a05 0cbe e4a5 e43c
000001f0: 8d6a 92bc b870 8b3d c225 d83c 359a 0e3d
00000200: d049 1ebd fcb9 9ebd 1a32 b13c 4ed0 00be
00000210: 2523 e93d 5fa0 48be 6f5e 333e b7f3 17be
00000220: 6ea0 bc3d c49a d8bc c8d7 0fbe f135 413e
00000230: 7e5c a7bd c6cd 83bc 1ac2 8a3d 4642 34be
00000240: 6033 fabd 94e3 12be 685a 25bd 3da2 0c3d
00000250: 2207 973d f641 95bd 8652 fbbd feeb ddbc
00000260: 2c3b cabc de1b 40be 4b75 91bd edfd 16be
00000270: 230f 6ebd f429 f43d 5e6c afbd 7dd0 19be
00000280: 1fd9 eebc 8960 593d bcbe 153e 73b0 6fbd
00000290: 47b2 093d 6858 bd3d d2a6 d9bd 0cb0 c13d
000002a0: 09d1 be3c 010f 2b3e 74b3 813c bb88 b33d
000002b0: a228 4a3e 76d0 45be ea06 e83d da4e 033e
000002c0: a59c 243c 17bb f63d e2e0 0f3d d41a 7f3d
000002d0: ea9b 55be 6f57 933b 35cc b4bd 0160 e13d
000002e0: 9238 0c3e b142 d7bd 3805 f63d c36d 0dbd
000002f0: d28e 49be c1f1 cd3d 3820 673d e6b9 f63d
00000300: 9261 bdbd ce31 d7bc 56a6 fc3b 400e 8dbc
00000310: edbc ea3d 05e0 62bc a3d3 85bd 88df 0f3d
00000320: bc42 a93d e2d1 97bd f2e0 e8bd 4ccd 3d3e
00000330: a8bf 7e3d c11f 19be b1e4 cfbd 7832 d63d
00000340: 40aa 29bc 9095 3c3b 76a2 2f3e 6050 993d
00000350: 0a0a f5bd 7dbc 243e 80eb fd3c f148 f63c
00000360: 2406 20be a34b f43d ab20 03be 3f58 833d
00000370: 78a4 4abd fa46 15be 3fc7 7abd ff01 00bd
00000380: af99 06bd 543b b6bb 3f61 f43d b243 213d
00000390: f294 adbc d71c 8d3c d5d3 8f3c 7264 9a3c
000003a0: af21 12be 7a69 a13e 3a0b 1d3d ba11 633c
000003b0: d1da 323e 9217 61bd 04ae 153d 3967 ffbd
000003c0: 3387 143d 6799 6e3d 0538 14be 9669 353b
000003d0: 631e a93d 8438 983d 5d6a 48bd 9f18 983d
000003e0: a0be e3bd ccb6 9ebd 0159 dc3c 49fe 4fbc
000003f0: fa35 023e a905 703d 68f6 f43d 916d 1dbe

lstm.bias_hh_l0 f4 [256]
-0.113135055 -0.13553317 0.037732784 0.0451319 -0.019315755 -0.015700808 -0.037014727 0.05935303
0.062118422 0.111412354 -0.12779294 -0.069397524 0.009667421 -0.13794135 -0.02034139 -0.08876909
-0.15712848 0.10162475 0.1509628 -0.123260245 -0.0061644325 -0.013723615 0.086463094 0.04011765
-0.0015580049 0.025650708 -0.007067982 0.014555528 -0.06461539 -0.15501657 -0.08208024 -0.005094204
-0.07426426 0.02748024 0.0230191 -0.14857432 -0.008573253 -0.087478824 -0.061331764 0.045235638
-0.08931538 0.24381997 0.05770534 0.07360868 0.17758532 0.059944876 0.12093348 -0.092457786
-0.13870446 -0.081061125 -0.110314585 -0.07424458 0.0140651 -0.05654352 -0.006646362 0.15517418
-0.032046553 -0.024851225 0.077336624 0.053003095 0.05770108 -0.08495256 -0.08263316 -0.05505824
-0.065479435 -0.08481669 -0.15285477 0.045468487 -0.008311775 0.08262475 0.016471852 -0.043546468
-0.06756481 -0.0835983 -0.07268696 0.13965034 0.08854468 -0.10004336 -0.056108166 -0.01391451
-0.16533405 -0.11443474 0.010670488 -0.019078875 -0.11440488 0.010968618 -0.033125795 -0.15867835
-0.14699352 0.021607695 -0.06843618 -0.09161928 -0.062411413 -0.053762034 0.028199071 0.072414614
0.022028536 0.0730316 0.13522512 -0.0996535 -0.073793195 0.022343673 -0.11711425 -0.017511271
-0.11427166 0.0701081 0.07176644 -0.028258557 0.12278089 0.01313431 -0.0876486 0.011610099
-0.15596415 -0.12611258 0.051631395 -0.05569921 0.12038042 0.038250603 -0.10597636 0.058499623
-0.06700864 0.07732676 0.004500303 -0.055313233 0.0071304357 0.07450241 0.08461064 -0.17591402
-0.1058205 -0.10215087 0.20738119 -0.22736572 0.15851589 -0.15403073 -0.036324486 -0.09951095
0.07260311 -0.16480346 -0.10338158 0.08501003 -0.0897964 -0.027632924 0.13489696 -0.1340484
-0.014181124 -0.02751462 -0.18728188 0.101965934 -0.1270311 -0.12961875 0.043231823 0.13311438
0.00018332654 -0.18501842 -0.057418223 -0.040321473 -0.18590645 0.009685915 -0.09010138 -0.07252675
-0.0067365374 0.004183424 0.13092245 0.044572204 0.10766354 -0.004505002 0.062394455 0.08511055
-0.17199878 0.008504643 -0.038716324 0.015507312 0.08757092 -0.034730993 0.12414398 0.14045909
0.012041205 0.035414655 -0.17021409 0.16278014 -0.21763471 -0.05024942 -0.05954135 0.18525217
-0.083018206 0.082343094 0.08913116 0.15373695 -0.021251382 0.040557597 0.14709817 0.0048384606
-0.08607574 -0.023136873 -0.066177405 0.1391575 0.067864105 0.0747914 -0.10074514 0.07583045
-0.14019708 -0.06669888 0.015625998 0.10111406 -0.13188082 -0.0883034 -0.11727816 0.04138156
-0.07319588 0.0013071917 0.183311 -0.10456345 -0.16355516 -0.026972977 -0.11386375 -0.03627699
-0.061152272 -0.063658275 0.03168179 0.12583892 0.011997218 -0.12854378 0.009791506 0.0871286
-0.04086963 -0.14488594 0.21695212 -0.0410052 -0.13031746 -0.14091611 -0.08734432 -0.12746699
-0.038692947 0.3414226 0.0893735 -0.06236329 0.30909795 -0.031835876 -0.02689118 -0.08643129
-0.12573726 0.041282684 -0.085059665 0.11991842 -0.00039162522 0.09337205 0.041783758 -0.066721976
-0.05425289 -0.027090238 0.088574946 -0.14497599 0.084150136 0.041799758 0.090756886 -0.08100991
00000000: 5ab3 e7bd 35c9 0abe b18d 1a3d 3adc 383d
00000010: 133c 9ebc fb9e 80bc c19c 17bd 2a1c 733d
00000020: e36f 7e3d 292c e43d 27dc 02be 4a20 8ebd
00000030: 1a64 1e3c 7f40 0dbe fda2 a6bc 92cc b5bd
00000040: 4ae6 20be a320 d03d fe95 1a3e de6f fcbd
00000050: 02ff c9bb 03d9 60bc 9013 b13d 6852 243d
00000060: f835 ccba 6f21 d23c 889a e7bb 4f7a 6e3c
00000070: 1355 84bd aabc 1ebe af19 a8bd 48ed a6bb
00000080: dc17 98bd 3e1e e13c 8d92 bc3c de23 18be
00000090: d476 0cbc 1928 b3bd 0437 7bbd 0149 393d
000000a0: fbea b6bd f1ab 793e 6f5c 6c3d 26c0 963d
000000b0: edd8 353e c288 753d f9ab f73d 825a bdbd
000000c0: 8b08 0ebe 6003 a6bd 9dec e1bd 8b0d 98bd
000000d0: 4e71 663c 2e9a 67bd bac9 d9bb fbe5 1e3e
000000e0: 3f43 03bd cc94 cbbc aa62 9e3d c619 593d
000000f0: f857 6c3d 9cfb adbd 933b a9bd c084 61bd
00000100: 151a 86bd 5fb4 adbd f685 1cbe 2a3d 3a3d
00000110: 1c2e 08bc 2a37 a93d faef 863c c85d 32bd
00000120: 6b5f 8abd 9635 abbd e7dc 94bd 8000 0f3e
00000130: ea56 b53d 88e3 ccbd add1 65bd aff9 63bc
00000140: 544d 29be c35c eabd 45d3 2e3c 4d4b 9cbc
00000150: 1b4d eabd b8b5 333c eaae 07bd 947c 22be
00000160: 7885 16be 9f02 b13c 4528 8cbd e4a2 bbbd
00000170: 1ca3 7fbd 9435 5cbd bd01 e73c 1d4e 943d
00000180: 3075 b43c 9791 953d 7478 0a3e 2217 ccbd
00000190: e320 97bd 140a b73c 99d9 efbd cc73 8fbc
000001a0: 4307 eabd d694 8f3d 49fa 923d 7d7e e7bc
000001b0: 8c74 fb3d 4a31 573c 1c81 b3bd 4938 3e3c
000001c0: 11b5 1fbe a823 01be 717b 533d db24 64bd
000001d0: 028a f63d aaac 1c3d 220a d9bd 4d9d 6f3d
000001e0: d33b 89bd 7e5d 9e3d 4777 933b 2190 62bd
000001f0: 6ea6 e93b b894 983d 5848 ad3d ce22 34be
00000200: 6bb8 d8bd 7a34 d1bd bc5b 543e 8fd2 68be
00000210: fd51 223e 3bba 1dbe fcc8 14bd 66cc cbbd
00000220: f0b0 943d 3dc2 28be b9b9 d3bd bd19 ae3d
00000230: 2de7 b7bd 715e e2bc 6e22 0a3e fc43 09be
00000240: f257 68bc 5766 e1bc d2c6 3fbe 84d3 d03d
00000250: 7114 02be c7ba 04be da13 313d 234f 083e
00000260: 583b 4039 7875 3dbe 5f2f 6bbd 2128 25bd
00000270: 435e 3ebe acb1 1e3c 1387 b8bd e888 94bd
00000280: 2cbe dcbb 1b15 893b 8910 063e 5891 363d
00000290: b47e dc3d b29e 93bb 5491 7f3d 714e ae3d
000002a0: 7320 30be 0f57 0b3c 0295 1ebd 6112 7e3c
000002b0: 6258 b33d 1642 0ebd 333f fe3d 82d4 0f3e
000002c0: 7948 453c f50e 113d 9a4c 2ebe d6af 263e
000002d0: a2db 5ebe 56d2 4dbd a1e1 73bd bfb2 3d3e
000002e0: 7305 aabd 7fa3 a83d 668a b63d 386d 1d3e
000002f0: 6117 aebc b91f 263d e7a0 163e f38b 9e3b
00000300: 7a48 b0bd 8a89 bdbc 0588 87bd 4e7f 0e3e
00000310: 56fc 8a3d 3c2c 993d 7853 cebd ff4c 9b3d
00000320: d38f 0fbe 6c99 88bd 1802 803c e314 cf3d
00000330: c40b 07be 6ad8 b4bd 882f f0bd b67f 293d
00000340: b9e7 95bd 1356 ab3a e1b5 3b3e 5d25 d6bd
00000350: 017b 27be 6ff6 dcbc 6631 e9bd 2e97 14bd
00000360: ce7a 7abd 455f 82bd c4c4 013d ebdb 003e
00000370: fb8f 443c fba0 03be 8e6c 203c 7b70 b23d
00000380: ea66 27bd fb5c 14be b228 5e3e 12f5 27bd
00000390: f171 05be 504c 10be 94e1 b2bd b586 02be
000003a0: 7f7c 1ebd f1ce ae3e 7409 b73d a670 7fbd
000003b0: 1642 9e3e 5666 02bd e44a dcbc e302 b1bd
000003c0: 45c1 00be 0818 293d c333 aebd ca97 f53d
000003d0: 0c53 cdb9 d839 bf3d 7225 2b3d 88a5 88bd
000003e0: 4738 5ebd 59ec ddbc c866 b53d 9674 14be
000003f0: e856 ac3d 3936 2b3d bfde b93d 86e8 a5bd

lstm.weight_ih_l0_reverse f4 [256, 26]
0.050865676 -0.0042490237 -0.05825979 -0.06887908 0.009344065 0.033526547 0.116935216 -0.10973859
0.010393186 -0.036566712 0.099074274 -0.030793432 -0.10153058 -0.034516435 0.004998129 0.0045194384
0.08146201 -0.015852004 -0.06611234 0.083605655 0.015306713 0.05284469 -0.116135426 0.041985106
0.01014012 0.0023084795 0.10456 0.06758454 -0.027591486 0.08172738 0.048393603 -0.04600668
-0.101300806 0.0016635361 0.017040484 -0.095819056 -0.085201815 -0.058749523 -0.05269515 -0.056056105
0.061747976 0.010721413 -0.048367333 0.022851715 -0.04995733 -0.030873355 0.13078673 0.09663256
-0.08851222 0.038932137 0.046061814 0.028225496 -0.025418041 -0.047546905 0.059713583 0.026303729
-0.067704886 -0.027323944 -0.029176164 -0.10336481 -0.013758633 0.12767492 -0.08413436 0.10379814
0.11735456 0.039866403 0.039373174 -0.071484394 -0.026926337 -0.09883589 -0.033492576 0.05895083
0.05913007 -0.045069728 -0.020751053 -0.1019122 -0.016343128 0.017489867 0.11283414 0.1069378
0.04876319 -0.10157312 -0.03541074 -0.042100616 -0.10981013 -0.11886376 0.08896385 0.058039587
-0.027311023 -0.052818216 0.030065125 -0.037734546 0.016113551 0.04038642 -0.024615508 -0.092776634
0.054556392 0.042027544 0.02218437 0.06214935 -0.11606187 0.04853656 0.035831064 -0.019552466
-0.110348076 0.0432494 -0.11005576 0.10333369 0.004327432 -0.008464136 0.0022186853 -0.028822059
0.12106498 0.07242255 -0.0037299804 0.023578046 -0.027619213 0.051033963 -0.010024126 0.02387117
-0.07178565 -0.09222958 -0.0371741 -0.025089487 0.046407785 -0.09694286 -0.03286455 0.07801917
-0.067370966 0.023459459 0.10104585 -0.12624297 0.0833812 0.015523034 -0.0029878954 0.0073505263
0.07975875 0.03542433 0.08913841 -0.0512355 0.078478515 -0.009721731 0.05890216 -0.030402008
-0.025865793 0.057440117 -0.034875967 -0.042774845 -0.068294816 -0.03072193 -0.07332484 -0.02386305
0.03802463 -0.10465328 0.023606813 -0.03070127 0.08030716 -0.028196272 -0.04191626 0.0651592
-0.010039963 -0.035817996 -0.0011325579 -0.044921737 0.1043762 -0.109636396 -0.058441866 -0.030812647
-0.022509228 -0.012200315 0.004411406 -0.0071741454 0.012725462 -0.072407775 -0.014423389 -0.04587925
-0.07916591 0.010177691 0.08845564 0.0139727695 0.019523313 0.022325894 0.034024134 0.10532826
-0.049872644 -0.031399604 -0.022506341 -0.011003991 0.08536093 -0.012346151 0.055163704 0.020071192
-0.0072255004 -0.056357753 -0.015198544 -0.060077462 0.0025793752 0.022745367 -0.1025715 -0.04762768
-0.00019004529 -0.046134103 -0.02349416 -0.070688695 0.07554354 0.016575899 0.01634052 -0.03978279
0.07457508 0.072572015 0.13202445 -0.100912906 -0.01506332 -0.015334559 0.09697879 0.011235661
-0.021915471 0.046968296 -0.0781363 -0.04020982 -0.07199027 0.0047365865 -0.008576287 0.033394013
-0.08618332 0.040038332 -0.010833484 0.01462088 -0.029058484 0.07076572 0.05082623 -0.10517064
0.004026712 0.030233601 0.07792946 -0.019234551 -0.03901463 -0.08949008 -0.03392387 0.017654864
-0.02139793 -0.032393776 -0.028279986 -0.025784878 0.08743736 0.11108555 -0.049098127 0.009473182
-0.061522778 0.062524386 0.049661767 0.08036613 -0.029138817 0.0324321 -0.044866953 -0.10618932
00000000: 8758 503d 653b 8bbb d1a1 6ebd 7a10 8dbd
00000010: d917 193c 2253 093d bb7b ef3d a0be e0bd
00000020: 2e48 2a3c fac6 15bd 74e7 ca3d 8242 fcbc
00000030: 44ef cfbd 1b61 0dbd 58c7 a33b cc17 943b
00000040: 8ed5 a63d 10dc 81bc e865 87bd 7139 ab3d
00000050: 02c9 7a3c ac73 583d 69d8 edbd 93f8 2b3d
00000060: bf22 263c dc49 173b 8e23 d63d c369 8a3d
00000070: 8a07 e2bc af60 a73d 5f38 463d 8071 3cbd
00000080: cc76 cfbd 020b da3a 7c98 8b3c c83c c4bd
00000090: 4a7e aebd 57a3 70bd dfd6 57bd 169b 65bd
000000a0: 72eb 7c3d dea8 2f3c d31c 46bd 8533 bb3c
000000b0: 0fa0 4cbd 1eea fcbc f5ec 053e 4be7 c53d
000000c0: e545 b5bd 4e77 1f3d 50ab 3c3d 2839 e73c
000000d0: 7f39 d0bc 8bc0 42bd 3b96 743d eb7a d73c
000000e0: dca8 8abd 77d6 dfbc da02 efbc eeb0 d3bd
000000f0: e46b 61bc 37bd 023e a34e acbd 1f94 d43d
00000100: 9657 f03d f44a 233d c445 213d 6966 92bd
00000110: 9f94 dcbc 796a cabd 832f 09bd 6d76 713d
00000120: 5f32 723d 099b 38bd 1dfe a9bc 58b7 d0bd
00000130: 06e2 85bc e946 8f3c 9615 e73d 3502 db3d
00000140: e9bb 473d 9105 d0bd da0a 11bd b271 2cbd
00000150: 22e4 e0bd d86e f3bd ae32 b63d ebba 6d3d
00000160: 5ebb dfbc ea57 58bd 234b f63c 8a8f 1abd
00000170: 9100 843c 3b6c 253d 76a6 c9bc ad01 bebd
00000180: 8676 5f3d 1325 2c3d ffbb b53c 5190 7e3d
00000190: d8b1 edbd 46ce 463d 98c3 123d 7e2c a0bc
000001a0: 2cfe e1bd 4826 313d ea64 e1bd 9da0 d33d
000001b0: 21cd 8d3b 29ad 0abc 5d67 113b 3d1c ecbc
000001c0: ebf0 f73d 4652 943d b072 74bb bf26 c13c
000001d0: b041 e2bc fd08 513d 3b3c 24bc 798d c33c
000001e0: 5b04 93bd dde2 bcbd de43 18bd 7888 cdbc
000001f0: 1716 3e3d fa89 c6bd fa9c 06bd 84c8 9f3d
00000200: caf9 89bd 0d2e c03c 20f1 ce3d d645 01be
00000210: c3c3 aa3d 5354 7e3c 91d0 43bb afdc f03b
00000220: 8e58 a33d 1a19 113d 338e b63d 51dc 51bd
00000230: 58b9 a03d e547 1fbc 6443 713d a20d f9bc
00000240: 80e4 d3bc 5446 6b3d 1ada 0ebd ad34 2fbd
00000250: 27de 8bbd 8fac fbbc 552b 96bd 717c c3bc
00000260: b7bf 1b3d 7554 d6bd 1363 c13c 3b81 fbbc
00000270: 1578 a43d defb e6bc 62b0 2bbd 3072 853d
00000280: a87e 24bc e4b5 12bd 5672 94ba dbff 37bd
00000290: 30c3 d53d 0c89 e0bd bd60 6fbd ce6a fcbc
000002a0: 4665 b8bc d4e3 47bc 8e8d 903b 1815 ebbb
000002b0: 757e 503c 874a 94bd 1450 6cbc e1eb 3bbd
000002c0: bd21 a2bd 54c0 263c 3b28 b53d 0bee 643c
000002d0: 5bef 9f3c cbe4 b63c e45c 0b3d 58b6 d73d
000002e0: 4247 4cbd df9c 00bd 385f b8bc 154a 34bc
000002f0: b6d1 ae3d 8347 4abc 56f3 613d 576c a43c
00000300: e4c3 ecbb 63d7 66bd 5003 79bc c913 76bd
00000310: bc0a 293b 7e54 ba3c 0211 d2bd 3e15 43bd
00000320: e546 47b9 1df7 3cbd d376 c0bc 3cc5 90bd
00000330: 92b6 9a3d 2eca 873c 8edc 853c 47f3 22bd
00000340: d2ba 983d a3a0 943d 6b31 073e 6dab cebd
00000350: 25cc 76bc cd3d 7bbc d19c c63d c715 383c
00000360: 1388 b3bc d461 403d ed05 a0bd 0db3 24bd
00000370: a26f 93bd 5e35 9b3b 8e83 0cbc 29c8 083d
00000380: e180 b0bd 3cff 233d ed7e 31bc 6a8c 6f3c
00000390: 0f0c eebc 9eed 903d 2a2f 503d b463 d7bd
000003a0: 82f2 833b 75ac f73c 7b99 9f3d c791 9dbc
000003b0: cecd 1fbd 9346 b7bd c2f3 0abd efa0 903c
000003c0: b64a afbc 56af 04bd 6eab e7bc cf3a d3bc
000003d0: 5c12 b33d d280 e33d 1e1b 49bd 6835 1b3c
000003e0: 4fff 7bbd c90c 803d 236a 4b3d ff96 a43d
000003f0: 87b4 eebc 86d7 043d 69c6 37bd c979 d9bd

lstm.weight_hh_l0_reverse f4 [256, 64]
-0.03261803 0.09920186 0.069966294 -0.121028885 0.12161392 0.112502396 -0.067844905 -0.04989321
0.12077638 0.051865134 -0.01730025 0.00071996404 -0.0711413 -0.09106896 -0.00904343 0.04379103
-0.08402752 0.08388054 0.08702233 -0.016316773 0.110040925 -0.06498012 -0.12986344 0.11846581
-0.076530464 0.07031658 -0.03024827 0.094800875 0.09312536 -0.054303154 0.07907775 0.069590636
0.007885076 0.11783171 0.0033766145 -0.061056845 0.043181457 0.10402043 -0.10989713 0.05329068
-0.055367865 0.015940893 0.08124253 -0.124456696 -0.101067 0.05733909 0.013671076 -0.09434168
0.122889675 0.029213091 0.0830841 -0.07981751 0.011097645 0.014487907 -0.086819515 -0.08891161
-0.016710384 0.09385366 0.05441125 -0.0031053382 0.090239614 0.026555795 0.0046916176 -0.03017249
0.104588985 -0.07348333 0.041763186 -0.06986074 -0.11111365 -0.011670986 0.027456708 0.09821172
-0.035087917 -0.081404045 0.0060071745 -0.023043208 0.08964667 -0.14497888 -0.07879446 -0.012341691
0.020461094 0.095103346 -0.04226361 -0.04368395 0.06217122 -0.07950691 0.046963688 0.0037726648
0.012316488 0.12332701 -0.07997496 0.046029277 0.13723531 0.043743763 -0.11444258 0.070787795
-0.08110319 0.07776682 0.072533265 0.0066403304 -0.10204101 -0.04830524 0.09990485 -0.04876513
-0.0532878 0.14739932 -0.051133696 0.011770086 0.079096995 -0.03733815 -0.025245348 -0.091340154
0.094692186 0.06045201 0.038869213 -0.06099567 0.03887299 -0.028377302 -0.08595434 -0.035008676
0.052863795 -0.011305155 0.10153281 0.084182985 -0.07547271 0.076624654 -0.006702039 0.020616475
0.01992336 -0.025783878 0.053012617 0.05942232 -0.06803473 -0.023096135 0.012590603 -0.09714787
-0.061342407 0.137433 -0.07820781 0.07445508 -0.019657988 0.102597915 -0.0035038192 -0.034249887
0.08629452 0.0068669547 -0.0867145 -0.12152561 -0.0534407 -0.030498585 0.10922113 -0.004672842
0.10302406 0.035399638 -0.06450423 0.123366445 -0.025986528 -0.07740969 0.008907878 0.092680834
0.11171701 0.036433313 0.053078406 -0.080400944 0.039483815 0.1014905 0.049399663 -0.034277055
-0.12040916 -0.008003134 -0.08661598 -0.065212086 0.016139131 -0.03361531 -0.07848769 0.06372074
0.07828808 0.06161269 -0.0073388666 -0.07036304 -0.026206726 -0.13021061 -0.068287864 -0.074054986
0.055577625 -0.018364653 0.07709626 -0.013647317 -0.01285542 -0.040962175 -0.07444584 0.02385712
0.031808976 -0.07674949 0.01083464 0.115822226 0.095381714 0.10334988 0.015016913 -0.07530567
0.012820831 -0.119924225 0.028214443 -0.006147092 -0.12046929 -0.10238474 -0.112817355 0.0010927083
-0.06637946 0.12515168 -0.04414135 -0.08864675 -0.0315299 0.030790407 0.008556075 0.104745746
0.057439957 0.08017577 0.05889591 0.036416065 -0.0026250677 0.047755484 0.097143784 0.08015091
0.11881323 -0.062350325 -0.12295283 0.105389126 -9.788817e-05 0.0670387 0.03234126 -0.10720772
0.09825733 0.015715113 0.0978459 -0.02645549 -0.1041094 0.09266193 -0.024817266 -0.04676396
0.07174915 -0.020257171 -0.026226608 -0.12060378 0.118809536 -0.07339307 0.0050336644 0.021450289
0.026806626 0.07212113 -0.03273694 0.05215918 0.056639493 0.110005215 0.10627599 -0.11108654
00000000: 7c9a 05bd 582a cb3d 7d4a 8f3d fedd f7bd
00000010: b810 f93d a867 e63d 45f2 8abd d35c 4cbd
00000020: 9b59 f73d 8970 543d 41b9 8dbc f8bb 3c3a
00000030: 88b2 91bd 5d82 babd e52a 14bc 395e 333d
00000040: 9f16 acbd 90c9 ab3d c338 b23d c1aa 85bc
00000050: 235d e13d 4c14 85bd ecfa 04be 349e f23d
00000060: 01bc 9cbd 2402 903d 38cb f7bc f626 c23d
00000070: 82b8 be3d fc6c 5ebd 84f3 a13d 8985 8e3d
00000080: 6830 013c c051 f13d 314a 5d3b be16 7abd
00000090: 0adf 303d aa08 d53d bf11 e1bd 5447 5a3d
000000a0: 6ac9 62bd 7a96 823c 7c62 a63d 27e3 febd
000000b0: 37fc cebd 65dc 6a3d a6fc 5f3c 3636 c1bd
000000c0: 95ad fb3d 4b50 ef3c ff27 aa3d 5d77 a3bd
000000d0: e6d2 353c b05e 6d3c 6ece b1bd 4a17 b6bd
000000e0: 37e4 88bc 5936 c03d 55de 5e3d ee82 4bbb
000000f0: 8ccf b83d 8a8b d93c 24bc 993b 4c2c f7bc
00000100: c032 d63d 6e7e 96bd e00f 2b3d 2613 8fbd
00000110: 8e8f e3bd aa37 3fbc e4ec e03c 3a23 c93d
00000120: 59b8 0fbd 2ab7 a6bd d5d7 c43b 1cc5 bcbc
00000130: ac98 b73d 5875 14be fd5e a1bd ce34 4abc
00000140: 069e a73c 8bc5 c23d 9b1c 2dbd f1ed 32bd
00000150: 40a7 7e3d 85d4 a2bd ff5c 403d d03e 773b
00000160: 18cb 493c df92 fc3d e9c9 a3bd 3289 3c3d
00000170: 6a87 0c3e a92c 333d df60 eabd 31f9 903d
00000180: 6e19 a6bd 3644 9f3d 528c 943d 2197 d93b
00000190: e1fa d0bd b7db 45bd ea9a cc3d f2bd 47bd
000001a0: 4f44 5abd d9ef 163e 9171 51bd 52d7 403c
000001b0: 9bfd a13d e3ef 18bd 55cf cebc 8c10 bbbd
000001c0: faed c13d 879c 773d 5335 1f3d 98d6 79bd
000001d0: 4939 1f3d 8477 e8bc d408 b0bd 4265 0fbd
000001e0: b587 583d 4239 39bc 6ff0 cf3d 2168 ac3d
000001f0: 7091 9abd 63ed 9c3d c79c dbbb e2e3 a83c
00000200: 5036 a33c b638 d3bc c223 593d d264 733d
00000210: cb55 8bbd 1b34 bdbc d148 4e3c 76f5 c6bd
00000220: 2d42 7bbd 3dbb 0c3e 6b2b a0bd e87b 983d
00000230: ca09 a1bc db1e d23d 55a0 65bb 9c49 0cbd
00000240: 2ebb b03d 3104 e13b 5f97 b1bd 6be2 f8bd
00000250: a3e4 5abd 2bd8 f9bc 54af df3d a41e 99bb
00000260: 47fe d23d 36ff 103d cb1a 84bd 8ca7 fc3d
00000270: b3e1 d4bc f988 9ebd 59f2 113c 73cf bd3d
00000280: e3cb e43d 193b 153d be68 593d 40a9 a4bd
00000290: c8b9 213d 40da cf3d 4d57 4a3d 1966 0cbd
000002a0: 1499 f6bd 941f 03bc b863 b1bd ea8d 85bd
000002b0: 3636 843c 35b0 09bd 27be a0bd 0580 823d
000002c0: 8055 a03d 975d 7c3d e07a f0bb 7f1a 90bd
000002d0: 7daf d6bc ee55 05be 82da 8bbd 24aa 97bd
000002e0: 5da5 633d 7871 96bc a5e4 9d3d ff98 5fbc
000002f0: 8a9f 52bc f4c7 27bd 1077 98bd 0270 c33c
00000300: 214a 023d d62e 9dbd c683 313c 3434 ed3d
00000310: 7d57 c33d 1aa9 d33d 8009 763c dc39 9abd
00000320: 760e 523c d59a f5bd fa21 e73c 8c6d c9bb
00000330: 9ab8 f6bd 17af d1bd c90c e7bd 3539 8f3a
00000340: f4f1 87bd c327 003e 8fcd 34bd 6d8c b5bd
00000350: 7f25 01bd 2a3c fc3c c82e 0c3c f084 d63d
00000360: 2946 6b3d 3233 a43d d63c 713d 0329 153d
00000370: 5409 2cbb 419b 433d 52f3 c63d 2926 a43d
00000380: 5a54 f33d 0e63 7fbd b1ce fbbd 41d6 d73d
00000390: 5049 cdb8 964b 893d 4578 043d b98f dbbd
000003a0: 243b c93d fbbc 803c 6e63 c83d 2fb9 d8bc
000003b0: 4f37 d5bd 8ac5 bd3d 944d cbbc 918b 3fbd
000003c0: 38f1 923d 5ef2 a5bc 2fd9 d6bc 1dff f6bd
000003d0: 6a52 f33d 1b4f 96bd 70f1 a43b 84b8 af3c
000003e0: 9299 db3c 3eb4 933d 2b17 06bd dda4 553d
000003f0: d0fe 673d 6a4a e13d 3aa7 d93d 5781 e3bd

lstm.bias_ih_l0_reverse f4 [256]
0.07892976 -0.14236268 0.021300653 -0.12742811 -0.14588925 -0.08877568 -0.121163145 -0.047183152
-0.023894304 0.022798639 -0.10356196 -0.124246255 -0.057571195 -0.011210659 -0.14856388 0.044067446
-0.09768836 -0.121460445 -0.06441583 0.035949927 -0.036203045 0.03270548 0.07077898 -0.020836612
-0.030222183 -0.009179084 -0.13923018 0.00019855922 -0.116635144 -0.102369495 -0.011685434 -0.07114169
-0.13005188 0.022276333 0.00834083 0.08731105 -0.027489992 -0.05157434 -0.080195464 0.017941957
-0.11884056 -0.2190879 0.09292327 0.029782016 -0.07284904 -0.07816352 -0.000518401 -0.11751539
0.047983482 0.028810252 0.013430161 -0.11150259 -0.14953561 -0.0050973026 0.070575744 -0.11281892
-0.07996586 -0.068610445 -0.07620469 0.04509838 0.078546196 -0.042616926 -0.027101893 -0.082917884
0.0036737432 0.03087944 -0.031411298 -0.10667716 -0.12604414 -0.07681137 -0.05407791 -0.08819666
-0.07713699 -0.018386673 -0.09370209 0.025419911 0.09849301 -0.1480178 -0.07505078 -0.11217898
-0.058717314 -0.10308764 -0.032016423 -0.09486585 -0.15727323 -0.1378955 -0.11259331 0.028920356
0.0651899 -0.00092338806 0.019953385 -0.04170516 -0.08831902 -0.013260348 0.014960646 -0.16750534
-0.115885645 0.09535257 -0.03885564 -0.048501972 0.073640384 0.08952729 -0.019759247 -0.06869041
-0.15869585 -0.0393844 -0.044743802 -0.010578047 0.0045600883 -0.14736381 -0.07384057 0.054773416
-0.11492796 0.013998774 -0.0690564 -0.13824092 -0.10277167 -0.17813961 0.0621288 -0.0016523977
0.02471583 -0.07172977 -0.09923886 0.10129844 -0.1043809 0.057117116 0.022914344 -0.11878954
-0.059265375 -0.0015819656 -0.11688848 -0.03224221 0.010386783 0.03599702 -0.088430524 -0.05570966
-0.16966563 -0.14288521 0.034775127 -0.046077836 0.0044855974 0.050598685 0.13125272 0.022064947
-0.1279844 0.07922689 -0.07067931 0.044325966 -0.06283136 0.16507678 0.13499935 0.15068504
-0.08155181 0.02847445 -0.086212724 0.03692997 -0.069746606 0.08168393 -0.001372131 -0.08441685
-0.13725305 -0.22179715 0.09609737 0.08360688 -0.08134985 -0.02412022 -0.077997476 -0.0896739
0.070160694 0.11742097 0.13067447 -0.07973928 -0.05694859 0.15464035 0.020695144 -0.08301365
-0.07045365 0.098405436 -0.1109494 -0.06884397 0.040538546 -0.053725705 0.14233042 0.1168633
0.010089183 -0.15941148 0.09689187 0.1164037 0.122501604 -0.14123753 -0.096432365 0.0964626
0.09083362 0.023441123 -0.07924787 -0.023980737 -0.053871997 -0.06931999 -0.14786161 0.031154223
0.06434968 -0.10461411 0.01655614 0.047477372 -0.053342495 -0.03571154 -0.1551666 0.029522566
-0.014613592 0.023915853 0.049686633 -0.019043712 -0.09330328 0.08229994 -0.05186131 -0.13899297
-0.061565276 -0.088247485 -0.053001385 0.040744018 0.0470421 0.08616132 -0.011388748 -0.026737336
0.03756593 -0.09395601 0.016432479 0.039556894 -0.11259255 0.01837129 -0.03711927 0.029363096
0.019921746 -0.02320805 -0.077633195 0.040097777 -0.19394444 -0.15774019 0.017174765 -0.155592
-0.07015445 0.03695765 0.041690726 -0.09431595 -0.06044165 -0.08557553 0.088690005 -0.052681588
0.00414062 0.08402079 0.067458056 -0.10158147 -0.14758763 -0.18798791 -0.14482874 0.038448174
00000000: eda5 a13d 86c7 11be b57e ae3c 847c 02be
00000010: fe63 15be 06d0 b5bd 6224 f8bd 1f43 41bd
00000020: fdbd c3bc 36c4 ba3c 4b18 d4bd d274 febd
00000030: c6cf 6bbd e9ac 37bc 2121 18be 1180 343d
00000040: d610 c8bd 41c0 f8bd 72ec 83bd 3b40 133d
00000050: a549 14bd 2ef6 053d 92f4 903d 8bb1 aabc
00000060: 8394 f7bc de63 16bc 5b92 0ebe 5634 5039
00000070: 68de eebd 19a7 d1bd 4374 3fbc bcb2 91bd
00000080: 522c 05be db7c b63c faa7 083c 23d0 b23d
00000090: b132 e1bc 9d3f 53bd 853d a4bd 03fb 923c
000000a0: ae62 f3bd 9458 60be 8e4e be3d 6af9 f33c
000000b0: e131 95bd 3214 a0bd 4de5 07ba e9ab f0bd
000000c0: 548a 443d 7a03 ec3c 2e0a 5c3c 785b e4bd
000000d0: dd1f 19be 4607 a7bb 048a 903d 9b0d e7bd
000000e0: 24c5 a3bd a283 8cbd 3411 9cbd 14b9 383d
000000f0: d4dc a03d 168f 2ebd ca04 debc dad0 a9bd
00000100: 2fc3 703b e1f6 fc3c 22a9 00bd 8e79 dabd
00000110: b711 01be 484f 9dbd cc80 5dbd 73a0 b4bd
00000120: 00fa 9dbd a69f 96bc e2e6 bfbd 6b3d d03c
00000130: b4b6 c93d fa91 17be 39b4 99bd 18be e5bd
00000140: 9181 70bd 9d1f d3bd a723 03bd 0749 c2bd
00000150: 3c0c 21be 7a34 0dbe 5297 e6bd 62ea ec3c
00000160: 4882 853d 860f 72ba 4875 a33c 08d3 2abd
00000170: 9ae0 b4bd ee41 59bc 7f1d 753c 8586 2bbe
00000180: 7455 edbd 3548 c33d 1727 1fbd 01aa 46bd
00000190: c5d0 963d 155a b73d 25de a1bc 8fad 8cbd
000001a0: 2a81 22be 8951 21bd 4745 37bd 8b4f 2dbc
000001b0: cb6c 953b 8ae6 16be ba39 97bd 175a 603d
000001c0: 5a5f ebbd 1d5b 653c 716d 8dbd 078f 0dbe
000001d0: f479 d2bd 3b6a 36be c57a 7e3d 4495 d8ba
000001e0: da78 ca3c 0fe7 92bd be3d cbbd 8e75 cf3d
000001f0: a7c5 d5bd a3f3 693d ddb6 bb3c ee47 f3bd
00000200: 40c0 72bd f559 cfba 3a63 efbd 6810 04bd
00000210: 532d 2a3c 9c71 133d 101b b5bd d02f 64bd
00000220: d4bc 2dbe 8050 12be 5d70 0e3d 1dbc 3cbd
00000230: ebfb 923b 9140 4f3d 1d67 063e 8cc1 b43c
00000240: 580e 03be b541 a23d 50c0 90bd 258f 353d
00000250: baad 80bd e309 293e 453d 0a3e 2e4d 1a3e
00000260: a304 a7bd 4043 e93c 4c90 b0bd e143 173d
00000270: 4fd7 8ebd e749 a73d 14d9 b3ba bee2 acbd
00000280: 108c 0cbe cb1e 63be b3ce c43d 153a ab3d
00000290: c09a a6bd c597 c5bc 24bd 9fbd f3a6 b7bd
000002a0: 69b0 8f3d 687a f03d 87cf 053e 594e a3bd
000002b0: ed42 69bd 0a5a 1e3e dd88 a93c 0f03 aabd
000002c0: 014a 90bd ca88 c93d 7039 e3bd 11fe 8cbd
000002d0: bf0b 263d 7c0f 5cbd 11bf 113e 0756 ef3d
000002e0: 1a4d 253c c33c 23be 3f6f c63d 1065 ee3d
000002f0: 1fe2 fa3d 92a0 10be 557e c5bd 2f8e c53d
00000300: fa06 ba3d 9907 c03c b54c a2bd 4073 c4bc
00000310: e2a8 5cbd a4f7 8dbd 0969 17be 2437 ff3c
00000320: c4c9 833d ec3f d6bd bea0 873c a277 423d
00000330: a97d 5abd 4446 12bd fee3 1ebe 4fd9 f13c
00000340: d96d 6fbc 2eeb c33c 3684 4b3d 8f01 9cbc
00000350: ca15 bfbd df8c a83d 866c 54bd 2c54 0ebe
00000360: df2b 7cbd 19bb b4bd fb17 59bd 33e3 263d
00000370: 38af 403d 5975 b03d df97 3abc 4208 dbbc
00000380: bcde 193d 026c c0bd 689d 863c 6906 223d
00000390: ec96 e6bd 637f 963c 600a 18bd e08a f03c
000003a0: ee32 a33c cf1e bebc 27fe 9ebd 913d 243d
000003b0: 5f99 46be a586 21be 18b2 8c3c 8253 1fbe
000003c0: 23ad 8fbd e860 173d e5c3 2a3d b928 c1bd
000003d0: aa91 77bd 3942 afbd 1ba3 b53d a6c8 57bd
000003e0: 0aae 873b 1813 ac3d 7327 8a3d f209 d0bd
000003f0: 3621 17be e77f 40be fc4d 14be d57b 1d3d
