models/seq_encoder.pth (torch, 592901 bytes, 16 tensors)

lstm.weight_ih_l0 f4 [256, 28]
0	0x3cf0025e	0.029298004
1	0xbc04a6f8	-0.008096449
2	0x3d78d08d	0.060745765
3	0x3db8ea71	0.09029091
4	0x3ce66096	0.028122228
5	0x3c2f31d2	0.01069303
6	0x3daf826e	0.08569799
7	0x3c9e727d	0.019341702
8	0x3daea833	0.08528175
9	0xbc15d903	-0.009145978
10	0xbd979720	-0.07401872
11	0xbdda9323	-0.10672595
12	0x3c05c618	0.008164905
13	0x3cca40de	0.024689134
14	0x3c044836	0.008073857
15	0xbc0d647f	-0.008629917
16	0xbd62de67	-0.05538788
17	0xbd7eca03	-0.062204372
18	0x3c87611f	0.016525803
19	0x3ce0bfea	0.027435262
20	0x3d8bd3e0	0.06827521
21	0x3dc13dff	0.09435653
22	0xbcfc8995	-0.030827323
23	0xbe0ef718	-0.13961446
24	0xbd45573a	-0.04817889
25	0xbd1fae6d	-0.038984705
26	0xbcfe6489	-0.031053798
27	0x3c0ab0c2	0.008464994
28	0x3e03098c	0.1279661
29	0xbdcd005b	-0.100098334
30	0x3b311ffc	0.002702712
31	0x3cc49510	0.02399686
32	0xbc5e7717	-0.013578198
33	0xba8199f8	-0.0009887805
34	0x3e048f43	0.12945275
35	0x3d8d728f	0.06906616
36	0x3d0f2261	0.034944896
37	0xbdca1cd5	-0.098687805
38	0x3dac1ffe	0.084045395
39	0xbd98eb20	-0.074667215
40	0xbd9e044b	-0.077156626
41	0x3c516c20	0.012782127
42	0x3d40836c	0.047000334
43	0xbd719fbc	-0.058990225
44	0xbbec228b	-0.0072062663
45	0xbda4acca	-0.080407694
46	0xbda6a96f	-0.08137786
47	0xbd3620ac	-0.044464752
48	0xbb0674ef	-0.0020516475
49	0xbd464733	-0.048407745
50	0x3d79b1f2	0.060960717
51	0xbd0d1509	-0.03444389
52	0x3bf36cb3	0.0074287294
53	0xbc0227ac	-0.007944029
54	0xbc68ceba	-0.014209444
55	0x3c893935	0.016750911
56	0x3d9d7093	0.076874875
57	0xba4407f3	-0.0007477991
58	0xbd0e3607	-0.034719493
59	0xbd5478e2	-0.051873095
60	0xbd101678	-0.035177678
61	0x3b630ee8	0.0034646336
62	0x3c2de0bf	0.010612666
63	0xbd8c5504	-0.06852153
64	0xbdc3bab3	-0.095570944
65	0x3db39cf3	0.0877017
66	0xbb829290	-0.003984757
67	0x39e5fe70	0.00043867854
68	0xbd7e9327	-0.062152054
69	0x3d1d2fd3	0.038375687
70	0x3cd0a433	0.025468921
71	0xbce82f1d	-0.028342778
72	0xbdbec76b	-0.0931538
73	0xbd96273b	-0.07331701
74	0xbbedc7b2	-0.0072564716
75	0x3d455145	0.048173208
76	0x3dbb17e2	0.09135415
77	0x3e021b07	0.12705623
78	0xbd300f2c	-0.04298322
79	0x3c92e8f9	0.017933356
80	0x3d09508b	0.033524077
81	0xbd03f8b5	-0.032219607
82	0x3c93bcdf	0.018034397
83	0xbc255196	-0.010090252
84	0x3dcea07d	0.100892045
85	0xbcdb32f0	-0.026757687
86	0x3dcc83a9	0.0998605
87	0x3d358ef9	0.044325802
88	0x3bce5c00	0.0062975883
89	0x3bd5856c	0.0065161493
90	0xbd335f27	-0.043791916
91	0x3d1472d9	0.03624234
92	0x3d8c2b53	0.06844201
93	0xbd5e7f3b	-0.054320555
94	0xbdfc246a	-0.12311633
95	0xbc8aa2a5	-0.016923258
96	0x3d7d085a	0.061775543
97	0xbc6a823f	-0.01431328
98	0xbd29286b	-0.04129831
99	0x3ccc4118	0.024933383
100	0xbe08ad4d	-0.13347359
101	0xbd3c4f22	-0.045973904
102	0x3d96ea84	0.07368949
103	0xbd26b892	-0.040703364
104	0xbd801a11	-0.06254972
105	0xbbf6694f	-0.007519878
106	0x3dc42b81	0.0957861
107	0x3d92ec30	0.071739554
108	0xbc6f0629	-0.014588871
109	0xbc4734cd	-0.012158585
110	0x3d40486f	0.046944078
111	0x3c473799	0.012159252
112	0xbdd3d9bc	-0.10344264
113	0xbdb187ee	-0.08668505
114	0xbb6e7757	-0.003638705
115	0x3d490d2a	0.04908482
116	0xbcb3abd3	-0.021932518
117	0xbc8bce43	-0.017066127
118	0xbd4964ba	-0.049168326
119	0x3dba121e	0.09085487
120	0xbdb89989	-0.090136595
121	0x3dd7a5bf	0.105296604
122	0xbd8b5be8	-0.06804639
123	0x3dfde35a	0.123968795
124	0xbda8546c	-0.08219227
125	0xbb607ff8	-0.0034255963
126	0x3d0577fa	0.03258512
127	0xbdc3398f	-0.09532463
128	0xbdaa357c	-0.083109826
129	0x3dd32f0f	0.1031171
130	0xbc24d51e	-0.010060577
131	0x3d1fef2b	0.039046448
132	0x3cc26f39	0.023734676
133	0xbdbb6ad7	-0.091512375
134	0x3e0dd4e6	0.13850746
135	0x3b648802	0.0034871106
136	0xbcd667cf	-0.026172547
137	0xbcee6437	-0.02910052
138	0xbd24f898	-0.04027614
139	0xbd8cac1e	-0.06868766
140	0xbd72207b	-0.059113007
141	0xbd7e0fe3	-0.06202687
142	0xbdc0cf4a	-0.09414537
143	0x3d4a9114	0.049454764
144	0xbd53b917	-0.051690187
145	0xbc3ff62c	-0.011716407
146	0x3c3e5dd6	0.011619052
147	0x3cea7a0f	0.028622655
148	0x3d650fc6	0.055923246
149	0x3d2e1512	0.042500563
150	0x3cb03ae9	0.021512466
151	0xbd6f03af	-0.058353122
152	0x3cc4ff67	0.024047567
153	0xbc404c52	-0.011736946
154	0x3c27956d	0.010228497
155	0x3c9f6d30	0.019461244
156	0xbde5c8a3	-0.11219909
157	0xbdf988be	-0.121842846
158	0x3c40acf6	0.011759987
159	0x3d7c2795	0.061561186
160	0x3de1afd7	0.11019867
161	0x3dbe5087	0.09292703
162	0xbd44d40d	-0.04805379
163	0xbb76018c	-0.0037537543
164	0x3d5e9bd2	0.05434782
165	0x3d071be9	0.0329856
166	0xbbeeb760	-0.0072850436
167	0xbc91d4d1	-0.017801674
168	0x3b00f89c	0.0019679433
169	0x3c2cc756	0.010545572
170	0x3b904849	0.0044031483
171	0x3ccd92c6	0.025094401
172	0xbbe8c8b0	-0.007104002
173	0xbc5b7a74	-0.013395894
174	0x3d00db57	0.03145918
175	0x3c07924e	0.008274628
176	0xbdba59bf	-0.09099149
177	0xbc8ef137	-0.017449005
178	0xbd900daf	-0.0703386
179	0xbd28c50f	-0.041203555
180	0x3c3064ec	0.010766249
181	0xbcbcc12a	-0.023041327
182	0xbcf8492c	-0.030308329
183	0x3d4a7735	0.04943009
184	0xbd8f3616	-0.06992738
185	0x3dbba05d	0.09161446
186	0xbc49bbb3	-0.012312817
187	0xbd61d0b1	-0.055130664
188	0x3d820f66	0.06350593
189	0x3d94cc55	0.07265536
190	0xbd4642e3	-0.048403632
191	0x3d875880	0.06608677
192	0x3c8db38a	0.017297525
193	0x3c57a3b8	0.013161592
194	0xba489ed7	-0.00076530635
195	0x3ae82ada	0.0017712966
196	0xbdf6ee3a	-0.12057157
197	0x3dd927d5	0.106033005
198	0xbd04c684	-0.03241588
199	0x3dbdbc07	0.09264379
200	0x3d257bc9	0.040401254
201	0x3cd4125f	0.025887666
202	0x3d1c0d2d	0.038098503
203	0x3dcb71cc	0.099338144
204	0x3d243a81	0.040094856
205	0xbac06a02	-0.001468003
206	0xbda0faea	-0.07860358
207	0xbdd652a4	-0.10464981
208	0xbd0dec35	-0.034649093
209	0xbd0a5640	-0.03377366
210	0xbd29d794	-0.041465357
211	0x3d5ffb80	0.05468321
212	0x3dc5d73b	0.096601926
213	0x3d35fa0d	0.04442792
214	0x3dac10de	0.08401655
215	0xbc867d4b	-0.016417166
216	0xbdf740eb	-0.12072929
217	0x3da12851	0.07869018
218	0x3daa5b15	0.08318154
219	0xbe0384b8	-0.12843597
220	0x3d4db831	0.050224487
221	0xbc99f9bf	-0.018795846
222	0xbcaa6963	-0.020802205
223	0x3bf1bd82	0.0073773274
224	0x3da2f7b3	0.07957401
225	0x3d571c3d	0.052517164
226	0x3cf4d5a9	0.029887037
227	0xbd721683	-0.0591035
228	0x3d1854ad	0.037190128
229	0x3bd9b71a	0.006644142
230	0xbdcb7252	-0.09933914
231	0x3d6566ee	0.056006365
232	0x3dcf0e5a	0.10110159
233	0xbe0bd150	-0.13654065
234	0x3dc6922c	0.09695849
235	0xbe02eed8	-0.12786424
236	0x3c856a0a	0.016285915
237	0x39a97580	0.00032321736
238	0x3be80788	0.007080976
239	0xbc9e4bec	-0.019323312
240	0x3c8be99b	0.017079165
241	0xbc8cbbb7	-0.017179353
242	0x3d17eca3	0.03709091
243	0xbd6bfc8e	-0.0576139
244	0x3d932203	0.071842216
245	0xbdc9bfd2	-0.0985104
246	0x3dde04f5	0.10840789
247	0xbc1b8ac3	-0.009493533
248	0x3c609e58	0.013709627
249	0xbc596c20	-0.013270408
250	0x3d1fa380	0.038974285
251	0x3c1ea2b7	0.009682349
252	0x3d54460a	0.051824607
253	0xbdf5e7b2	-0.12007083
254	0x3c3a180d	0.011358273
255	0xbd68da9f	-0.05684912

lstm.weight_hh_l0 f4 [256, 64]
0	0x3dcbf2ac	0.09958395
1	0x3e0b66e2	0.13613465
2	0x3c8b10cc	0.016975783
3	0xbb4946e0	-0.003071241
4	0x3dbb7eae	0.091550216
5	0x3dbfb1c8	0.09360081
6	0xbe2dcf6f	-0.16973661
7	0xbe18a891	-0.14908053
8	0xbda11429	-0.07865173
9	0x3e16f130	0.14740443
10	0xbde007c9	-0.10938985
11	0x3da1540a	0.07877357
12	0x3cf1af3a	0.0295025
13	0x3d68e739	0.056861136
14	0xbe1c36c2	-0.15255263
15	0xbda4cbd2	-0.08046688
16	0xbd3bcbb1	-0.045848552
17	0xbad26639	-0.0016052193
18	0xbbf47af3	-0.0074609458
19	0xbcdf910f	-0.027290849
20	0xbd1d2217	-0.03836259
21	0xbd109cda	-0.035305835
22	0x3d3dde32	0.04635448
23	0xbd5ebd2d	-0.05437963
24	0xbbd11bac	-0.0063814726
25	0xbdb46aed	-0.08809457
26	0x3d944cef	0.072412364
27	0x3d77f831	0.06053943
28	0xbc146fa0	-0.009059817
29	0x3deb0578	0.114756525
30	0x3db08f41	0.086210735
31	0xbdddad66	-0.10824089
32	0xbdaf0f45	-0.08547834
33	0xbd53d207	-0.05171397
34	0xbdc4365d	-0.095806815
35	0xbe5652b0	-0.2092998
36	0xbde94d9b	-0.11391755
37	0xbcf59d2a	-0.029982168
38	0x3cac1969	0.02100821
39	0x3d97860a	0.07398613
40	0x3dc2b05d	0.09506295
41	0x3d9b7dc6	0.07592349
42	0xbc6a7f9b	-0.01431265
43	0xbdc7e136	-0.097597525
44	0x3db4e573	0.088328265
45	0x3ba01bf3	0.0048861443
46	0xbdb39f1e	-0.087705836
47	0xbdb7bcb6	-0.08971541
48	0xbd99da03	-0.075122856
49	0x3dc9ed07	0.098596625
50	0xbe09dba1	-0.13462688
51	0x3c00ad40	0.007853806
52	0xbe06c979	-0.13162793
53	0x3d276c1d	0.04087459
54	0x3d68635d	0.056735385
55	0x3dd6db4b	0.104910456
56	0x3e1374f0	0.14400077
57	0x3cc5ebe2	0.02416033
58	0xbd953799	-0.07285995
59	0x3e03a2b5	0.12855037
60	0x3d3e9657	0.046530094
61	0xbdb26af9	-0.0871181
62	0xbdd0a295	-0.1018726
63	0x3bd7439a	0.006569338
64	0xbde098ca	-0.10966642
65	0xbdcd1e9c	-0.10015604
66	0xbdfdb135	-0.12387315
67	0x3dfbee14	0.12301269
68	0xbdfee0df	-0.124452345
69	0x3da58d19	0.08083553
70	0xbd71cfca	-0.059036054
71	0xbc93e4e8	-0.018053487
72	0xbdfe038d	-0.12403021
73	0xbd2b7197	-0.041856375
74	0x3df86083	0.12127783
75	0xbd0d8fce	-0.03456097
76	0x3b9255db	0.004465801
77	0x3be215fb	0.006899593
78	0xbd735caa	-0.059414543
79	0x3d37b3ea	0.044849314
80	0x3dec2733	0.11530914
81	0x3c8d71be	0.01726615
82	0x3d940fa5	0.072295465
83	0xbca4a748	-0.020099297
84	0xbd6ae2b7	-0.05734512
85	0xbdcb32c1	-0.0992179
86	0xbe0ef1b0	-0.13959384
87	0x3c8726c6	0.01649798
88	0xbb815769	-0.0039471877
89	0x3c836d31	0.016043277
90	0xbdb2e8f1	-0.08735836
91	0x3d8be587	0.06830888
92	0xbcadedfb	-0.021231642
93	0xbe02f77d	-0.12789722
94	0xbe1a521c	-0.15070385
95	0xbd86b167	-0.065768056
96	0xbc8e4a9c	-0.01736956
97	0xbd931848	-0.07182366
98	0xbde10dd5	-0.109889664
99	0xbdc0f0ae	-0.09420906
100	0xbdeddea4	-0.11614731
101	0xbdaa2f0c	-0.08309755
102	0xbdf70fb8	-0.12063545
103	0x3d0343ca	0.03204707
104	0x3dcf5ea1	0.10125471
105	0x3d2f83f3	0.042850446
106	0xbd866802	-0.06562807
107	0xbdf7f9fa	-0.12108226
108	0xbd6aa321	-0.057284478
109	0xbcacc124	-0.02108819
110	0xbe086396	-0.13319239
111	0x3e31c546	0.1736041
112	0x3d9d5f5f	0.07684206
113	0x3d9497e2	0.07255532
114	0x3d897ca7	0.06713229
115	0x3c854b9f	0.01627141
116	0x3c9e2917	0.019306703
117	0x3ce000b5	0.027344087
118	0x3df1d5c3	0.1180835
119	0xbcfb831a	-0.030702163
120	0xbdf2af35	-0.11849824
121	0xbde3ccba	-0.11123033
122	0xbdb4f33d	-0.088354565
123	0xbd03a211	-0.03213698
124	0xbe070224	-0.1318441
125	0x3dece6d1	0.11567462
126	0x3d89a7ab	0.06721433
127	0xbdf5e744	-0.12007001
128	0x3c10d3af	0.008839532
129	0x3d9b8528	0.07593757
130	0xbb571157	-0.0032816732
131	0x3d94497e	0.0724058
132	0x3d2d7664	0.042349234
133	0xbd361a33	-0.04445858
134	0x3d1a4b3e	0.037669413
135	0x3d31cc19	0.043407533
136	0x3db8ae1a	0.09017582
137	0xbdfa27ec	-0.12214646
138	0x3df1b97c	0.118029565
139	0xbdb74f41	-0.08950663
140	0x3cb6bb34	0.022306062
141	0x3dd33975	0.103136934
142	0x3d33f44f	0.043934163
143	0x3dbd3b68	0.092398465
144	0x3d86d364	0.06583288
145	0xbba67aaf	-0.005080543
146	0xbdbd45c0	-0.092418194
147	0x3ce3ae9d	0.027793223
148	0x3d01bebf	0.03167605
149	0x3dd1dd49	0.10247285
150	0x3c2b735c	0.010464516
151	0x3de313b1	0.1108774
152	0xbda6b416	-0.081398174
153	0xbdbc688c	-0.09199628
154	0xbdedb739	-0.116072126
155	0xbd8d3475	-0.06894771
156	0x3de0d539	0.10978169
157	0xbe045778	-0.12923992
158	0x3d76d8bf	0.0602653
159	0xbd76b710	-0.060233176
160	0x3dc48598	0.095957935
161	0xbd09edbf	-0.033673998
162	0x3bcaafc9	0.006185506
163	0x3da9a2db	0.08283015
164	0x3dacd6a2	0.084393755
165	0xbdd64bc7	-0.10463672
166	0xbdba2954	-0.09089914
167	0xbc8523fa	-0.016252507
168	0x3d6465af	0.055761036
169	0x3db5cb80	0.08876705
170	0x3c804d24	0.015661784
171	0x3d9f9d70	0.07793701
172	0xbacabb26	-0.0015467152
173	0xbbb4585e	-0.0055036983
174	0xbd921767	-0.0713337
175	0x3dbfb225	0.0936015
176	0xbd119fac	-0.035552666
177	0xbd2205b4	-0.03955622
178	0x3d602a04	0.05472757
179	0xbd80925d	-0.062779166
180	0x3d0c2a4e	0.034220032
181	0x3ce82f61	0.028342905
182	0xbd490a3b	-0.049082022
183	0x3d804b4e	0.06264363
184	0x3daa64d6	0.08320014
185	0x3da0abf8	0.078453004
186	0xbde90e6e	-0.11379705
187	0xbdeb2f72	-0.11483659
188	0xbd1cfb04	-0.038325325
189	0x3de3b3a5	0.11118249
190	0x3dff3006	0.124603316
191	0x3db935c6	0.090434596
192	0x3df48923	0.11940219
193	0xbdbd0be7	-0.09230786
194	0x3dfb534d	0.12271748
195	0x3e00db50	0.12583661
196	0x3d634350	0.055484116
197	0xbe024b9a	-0.12724152
198	0x3d89e3da	0.06732912
199	0xbddef39b	-0.10886308
200	0xbcac0524	-0.020998545
201	0x3e3a57e9	0.18197598
202	0xbe05a194	-0.13049918
203	0x3e1b4d1c	0.15166134
204	0x3d44e35a	0.04806838
205	0xbc75a3fc	-0.01499271
206	0xbc1daad6	-0.00962325
207	0x3d525a64	0.051355734
208	0x3c9bc214	0.019013442
209	0xbd967de7	-0.07348233
210	0x3b89cc95	0.0042052963
211	0xbd86504d	-0.06558285
212	0xbd2f3759	-0.042777393
213	0x3d8a2248	0.0674482
214	0x3e285e90	0.16442323
215	0x3e107d4c	0.14110297
216	0x3d480a73	0.04883809
217	0xbdeff1c6	-0.117160365
218	0x3d6c38fc	0.057671532
219	0xbdeb7557	-0.1149699
220	0xbdf70260	-0.12061
221	0xbca904ba	-0.020632137
222	0x3e16f9a6	0.14743671
223	0xbddab0e2	-0.10678269
224	0x3cade279	0.021226155
225	0x3dcd8b6e	0.1003636
226	0xbc9f647d	-0.019457096
227	0xbd9e23cc	-0.077216715
228	0x3c71fb5e	0.014769403
229	0xbdb70e84	-0.089383155
230	0xbddd3d6e	-0.108027324
231	0xbe1f710d	-0.15570469
232	0xbdf39d34	-0.118952185
233	0xbd5254c0	-0.051350355
234	0x3bf160c4	0.0073662717
235	0x3d08ffc9	0.03344706
236	0x3d636086	0.055511974
237	0x3e2ab4b0	0.1667049
238	0x3df5abaf	0.11995637
239	0x3d536709	0.051611934
240	0xbcc0dbeb	-0.023542365
241	0x3d1471e6	0.036241435
242	0x3d281271	0.041033212
243	0x3c0f4c03	0.00874615
244	0x3c231dc3	0.009955826
245	0x3c32bee0	0.010909766
246	0x3d0da86b	0.034584444
247	0x3c155ee1	0.009116859
248	0x3b94f902	0.0045462856
249	0xbce70cc7	-0.028204335
250	0xbca69e70	-0.02033922
251	0xbd66cc6e	-0.056347303
252	0xbd228a70	-0.039682806
253	0xbc8146c8	-0.015780821
254	0xbd9458f4	-0.07243529
255	0xbbf4a078	-0.0074654184

lstm.bias_ih_l0 f4 [256]
0	0x3e588c6d	0.21147318
1	0x3dd1d511	0.10245717
2	0xbdfb8b53	-0.12282433
3	0xbb0d7df1	-0.002158996
4	0xbb55e6c8	-0.0032638777
5	0xbe008c87	-0.12553607
6	0xbe094f48	-0.1340915
7	0xbb9a94d9	-0.004717451
8	0xbd5f0bcd	-0.054454613
9	0x3d97fc89	0.07421214
10	0xbcf3079b	-0.029666713
11	0xbd2aa2c8	-0.041659147
12	0x3dbdc514	0.09266105
13	0xbdbc622b	-0.091984116
14	0xbdfcc8f6	-0.12343018
15	0xbe15c1a8	-0.14624655
16	0x3c2987ee	0.01034735
17	0x3c5da9f0	0.013529286
18	0xbe37117a	-0.1787776
19	0xbe1110a1	-0.141665
20	0xbdd8a59e	-0.10578464
21	0xbe28fab6	-0.16501889
22	0xbe160ed5	-0.14654095
23	0xbe0385e8	-0.1284405
24	0xbc3ed5e4	-0.011647675
25	0xbdca78f5	-0.09886352
26	0xbd2b6757	-0.0418466
27	0x3df58d48	0.11989838
28	0xbcc36d02	-0.02385569
29	0xbb756967	-0.0037446858
30	0x3d9241af	0.071414344
31	0xbe092c11	-0.13395716
32	0xbd946850	-0.072464585
33	0x3caf323d	0.02138626
34	0xbe1c17ce	-0.15243456
35	0x3da330bd	0.079682805
36	0xbd9c6de7	-0.0763815
37	0xbb84b8b4	-0.0040503386
38	0x3db5173b	0.088423215
39	0xbdd66324	-0.10468128
40	0x3db30718	0.087415874
41	0xbe29d490	-0.16584992
42	0x3da768ad	0.08174262
43	0x3d400141	0.046876196
44	0xbda5f208	-0.081028044
45	0xbe3964da	-0.18104878
46	0xbe2f8c35	-0.17143328
47	0xbdd423ef	-0.10358416
48	0x3d00c199	0.03143463
49	0x3d54d9f6	0.051965676
50	0xbb6c8921	-0.0036092477
51	0xbdda778a	-0.106673315
52	0x3d49d3a4	0.0492741
53	0x3cce7475	0.025202015
54	0xbdcfe06d	-0.10150228
55	0xbd086a9e	-0.033304803
56	0x3d17d255	0.037065823
57	0x3dff0c2c	0.124534935
58	0xbe02baa4	-0.1276651
59	0xbdc6bbca	-0.09703787
60	0x39756b5c	0.00023405015
61	0xbd8281c3	-0.06372406
62	0x3b96598b	0.004588311
63	0x3e1d7471	0.1537645
64	0x3c75931e	0.014988689
65	0xbd88e3e0	-0.06684089
66	0xbdcca15a	-0.09991713
67	0xbdd3fbfa	-0.10350795
68	0xbd3173a6	-0.04332318
69	0xbe1535fa	-0.14571372
70	0x3ca07497	0.019586844
71	0xbc9f61ff	-0.019455908
72	0xbcd07c00	-0.025449753
73	0x3e5b3f50	0.2141087
74	0xbd811d24	-0.06304386
75	0x3a765a38	0.0009397599
76	0x3d7aa69e	0.061194055
77	0xbda05512	-0.07828726
78	0xbe1747ce	-0.14773485
79	0x3d9c0de4	0.07619837
80	0xbe319453	-0.17341737
81	0xbde38584	-0.111094505
82	0xbcb1d426	-0.021707606
83	0x3bcea4eb	0.006306281
84	0xbdbaa425	-0.09113339
85	0xbe099cdb	-0.13438742
86	0xbe309298	-0.17243421
87	0xbcb8e721	-0.022571148
88	0xbdb8ca32	-0.09022941
89	0x3dbc562f	0.09196126
90	0xbc686818	-0.014184974
91	0x3d9001ea	0.07031615
92	0xbe27ea7c	-0.16398042
93	0xbd9b5a13	-0.0758554
94	0xbe18d34d	-0.14924355
95	0xbde39da9	-0.11114056
96	0x3d5d65e0	0.054052234
97	0x3da92de4	0.08260706
98	0xbdcc5adb	-0.09978267
99	0x3de701af	0.11279618
100	0xbd2eed44	-0.042706743
101	0xbdc81dbb	-0.09771296
102	0xbdc61a29	-0.096729584
103	0xbdc2d770	-0.09513748
104	0x3db2bbb7	0.0872721
105	0xbdf9dde8	-0.122005284
106	0x3e1d0f7e	0.15337941
107	0xbdb127b7	-0.08650153
108	0xbe0cde1b	-0.13756602
109	0xbd8548a4	-0.06507996
110	0xbe3a2f95	-0.18182214
111	0xbd1670e9	-0.036728773
112	0xbd722c4f	-0.059124287
113	0xbda7d615	-0.0819513
114	0xbb1c81d2	-0.002388109
115	0xbe1b0282	-0.15137675
116	0xbcf2e836	-0.029651742
117	0x3d12a05c	0.035797462
118	0xbb8ba985	-0.0042621517
119	0xbd53c552	-0.05170185
120	0xbe2b25ee	-0.16713688
121	0xbdaebd58	-0.08532208
122	0xbbe49217	-0.006975423
123	0x3dbacd6c	0.09121212
124	0x3d95242a	0.07282288
125	0xbdc64a39	-0.096821256
126	0x3d712041	0.05886865
127	0x3d87467c	0.06605241
128	0x3e2b599d	0.16733404
129	0x3db29e9b	0.08721658
130	0x3d92d647	0.071697764
131	0xbdc2e1b6	-0.09515707
132	0x3e38c674	0.18044454
133	0xbd823529	-0.06357796
134	0xbe017449	-0.12642016
135	0xbdbd2d7c	-0.09237191
136	0xbe04b825	-0.1296087
137	0x3e294460	0.16529989
138	0xbdefefea	-0.11715682
139	0x3db3b755	0.08775202
140	0xbe185ad4	-0.14878398
141	0x3de30746	0.11085372
142	0x3d0820d4	0.033234432
143	0x3e26a51e	0.16273925
144	0x3d047e21	0.03234685
145	0xbca5264d	-0.020159865
146	0x3c3c4197	0.011490247
147	0x3d6e338d	0.05815463
148	0x3e071194	0.131903
149	0xbdad366d	-0.084576465
150	0x3db453cb	0.08805045
151	0x3e113a9a	0.14182511
152	0xbbdbc349	-0.0067066294
153	0xbe31c1dd	-0.17359109
154	0x3d8efd61	0.06981922
155	0xbc339914	-0.01096179
156	0x3d1f6020	0.03891003
157	0x3db3cd15	0.08779351
158	0x3dc1c497	0.09461325
159	0xbddd3f72	-0.10803117
160	0x3c8adb2a	0.016950209
161	0x3dfcc9bb	0.123431645
162	0x3bf5f6b8	0.007506218
163	0xbe2f34cf	-0.17109989
164	0xbe2df561	-0.16988136
165	0x3da86513	0.082224034
166	0xbd890149	-0.06689698
167	0xbdcd04ea	-0.10010703
168	0xbe3ac744	-0.18240076
169	0xbd70e914	-0.05881603
170	0xbe358ac7	-0.1772872
171	0x3e3f1ff1	0.18664528
172	0x3ddfc93b	0.109270535
173	0xbd04259b	-0.032262426
174	0xbd5a8164	-0.053346053
175	0xbe175498	-0.14778364
176	0x3dcf2478	0.10114378
177	0xbdddbc26	-0.10826902
178	0xbc172ed5	-0.009227474
179	0xbd87d73f	-0.06632852
180	0x3dda5323	0.10660388
181	0x3dffad4a	0.12484224
182	0xbc5647ca	-0.013078639
183	0x3dc9e98f	0.09859001
184	0x3d69e8f8	0.057106942
185	0x3e59362f	0.21212076
186	0x3d4c0475	0.049808938
187	0x3e23b31a	0.1598629
188	0x3e0cbf9d	0.1374497
189	0x3cd231d3	0.025658524
190	0xbda4c79b	-0.08045884
191	0x3e6e1436	0.23249897
192	0x3dfbc0bc	0.122926205
193	0xbc7ef243	-0.015560689
194	0xbd13a4f5	-0.036045987
195	0x3e4146a3	0.18874602
196	0x3c175a40	0.009237826
197	0xbd65e1a7	-0.056123402
198	0x3d7428a2	0.059609063
199	0x3dae8471	0.08521355
200	0x3e09d11b	0.13458674
201	0x3eab4ba0	0.33456135
202	0xbce7257f	-0.028216122
203	0x3dbed7ab	0.09318479
204	0x3e39ad9a	0.1813263
205	0xbe0de12a	-0.13855425
206	0x3d0ad908	0.033898383
207	0xbcea97fe	-0.028636929
208	0xbe18b852	-0.14914063
209	0x3ccefd83	0.025267368
210	0xbd8509c8	-0.06496006
211	0xbd463ed7	-0.048399772
212	0x3d52b511	0.05144221
213	0xbe245218	-0.16046941
214	0x3c36d08f	0.011158123
215	0xbe246276	-0.16053185
216	0xbe296c9b	-0.16545336
217	0xbcc7d22d	-0.024392212
218	0x3c7b5d66	0.015342092
219	0xbdce020a	-0.10058983
220	0xbdf649e2	-0.12025811
221	0xbd9d56b5	-0.07682554
222	0xbdbd5313	-0.09244361
223	0xbd851f33	-0.065000914
224	0xbdc09c4d	-0.09404812
225	0x3d9e4469	0.07727892
226	0xbd164bea	-0.03669349
227	0x3e3a6478	0.18202388
228	0x3c8c6ef9	0.01714276
229	0x3da9d815	0.082931675
230	0x3dab5849	0.083664484
231	0xbdb38015	-0.08764664
232	0xbd59e883	-0.053200256
233	0xbd67865c	-0.05652462
234	0x3e0b0110	0.13574624
235	0xbda0b2b3	-0.07846584
236	0x3d87aeec	0.066251606
237	0xbe0a5cf0	-0.13512015
238	0xbcf5a884	-0.029987581
239	0x3de0dac1	0.10979224
240	0xbd94b6c7	-0.072614245
241	0x3dc3f464	0.09568098
242	0xb81a7dde	-3.6833684e-05
243	0xbdf7c2c0	-0.120976925
244	0x3d9d1529	0.076700516
245	0x3d43e7f4	0.04782863
246	0xbe3a1c53	-0.18174867
247	0xbe3aec67	-0.18254243
248	0xbd31a48e	-0.043369822
249	0x3e1050d4	0.14093333
250	0xbce4e972	-0.027943347
251	0xbc9b400d	-0.01895144
252	0xbcfb4e43	-0.030676967
253	0xbc86df06	-0.016463768
254	0xbdf6879a	-0.12037583
255	0x3e7fd6ad	0.24984236

lstm.bias_hh_l0 f4 [256]
0	0x3c02d1aa	0.007984558
1	0xbda252d1	-0.07925952
2	0xbde6260f	-0.11237728
3	0x3db5d3ee	0.08878313
4	0xbb691090	-0.003556285
5	0xba8b6df9	-0.0010637633
6	0x3d706920	0.058694005
7	0x3ccaee73	0.024771905
8	0x3e2324cf	0.1593201
9	0x3e82db31	0.25557855
10	0x3e0e496e	0.13895199
11	0xbd330878	-0.04370925
12	0x3e39a17b	0.18128006
13	0xbdcce44b	-0.10004481
14	0xbe1d09ec	-0.15335816
15	0xbdea7239	-0.114475675
16	0x3d119f7b	0.035552483
17	0x3ca18d05	0.019720564
18	0xbd8ac8bf	-0.067765705
19	0xbdac9688	-0.08427149
20	0xbe0f4733	-0.13992004
21	0x3a3c21e1	0.0007176679
22	0xbe27c44e	-0.16383478
23	0xbd87631d	-0.06610701
24	0xbc48a3ae	-0.0122460555
25	0xbbdfe0b3	-0.006832206
26	0xbe1aca8b	-0.15116327
27	0x3d94c456	0.072640106
28	0x3d2d1acc	0.042261884
29	0xbd96b5d8	-0.07358903
30	0xbcfa7ddf	-0.030577598
31	0xbe051987	-0.12998019
32	0xbd3b89d3	-0.045785736
33	0x3dba9720	0.09110856
34	0xbd98c418	-0.07459277
35	0x3dc2d864	0.095139295
36	0xbcb139f8	-0.021634087
37	0xbe08bb2b	-0.13352649
38	0x3de508b3	0.111833
39	0xbdaec361	-0.08533359
40	0xbdd0b36b	-0.10190471
41	0xbda36974	-0.07979098
42	0x3dada690	0.08479035
43	0x3c788066	0.015167331
44	0xbd99c20a	-0.07507713
45	0xbd6169f2	-0.055032678
46	0xbdcef282	-0.101048484
47	0xbdd5a907	-0.1043263
48	0xbb7c8ad6	-0.00385349
49	0x3d3fa105	0.04678442
50	0xbd81148c	-0.06302747
51	0xbcb37915	-0.021908322
52	0x3d90f35a	0.070776656
53	0x381a6328	3.6808808e-05
54	0xbd8a3297	-0.067479305
55	0x3d7652ad	0.06013744
56	0x3d1d44c8	0.038395673
57	0x3dbef94f	0.093248956
58	0xbd974f5c	-0.073881835
59	0x3c40b8d8	0.01176282
60	0x3ba3c760	0.0049981326
61	0xbdc38b63	-0.0954807
62	0xbd465b2e	-0.0484268
63	0x3d5edef9	0.054411862
64	0x3a6fbb58	0.0009145043
65	0xbe11244a	-0.14174
66	0x3daa1404	0.08304599
67	0xbde30c78	-0.110863626
68	0x3e04ae4c	0.12957114
69	0xbd894034	-0.06701699
70	0x3cfff89d	0.031246478
71	0xbd609761	-0.054831866
72	0x3e13b41c	0.14424175
73	0x3ca4e449	0.020128386
74	0x3da2eaf5	0.07954971
75	0xbe041b72	-0.12901095
76	0xbc4d80f9	-0.0125429565
77	0xbe4b4efd	-0.1985435
78	0xbe08cda8	-0.13359702
79	0xbd95a7dd	-0.07307408
80	0xbcdccf12	-0.026954208
81	0xbd7f48da	-0.062325336
82	0xbe085c80	-0.13316536
83	0xbe091880	-0.13388252
84	0x3cef09de	0.02917951
85	0x3b130546	0.0022433563
86	0xbd506f3f	-0.050887343
87	0x3c24f3dc	0.010067906
88	0xbd6f369a	-0.05840168
89	0x3cca657c	0.024706595
90	0xbdddab66	-0.10823707
91	0xbcc0ec8b	-0.023550292
92	0xbd0b049a	-0.033939935
93	0x3d4b46e9	0.049628172
94	0xbce99d52	-0.028517399
95	0xbe1c4b4d	-0.152631
96	0xbdb8306b	-0.0899361
97	0x3e1873e7	0.14887963
98	0x3d3b81db	0.045778137
99	0x3e0004be	0.12501809
100	0x3c4a67e8	0.012353875
101	0xbdc332bc	-0.09531161
102	0xbbeb0b60	-0.007172987
103	0x3d1b14c5	0.037861604
104	0xbd810510	-0.06299794
105	0xbd414507	-0.04718497
106	0xbd8b3cb5	-0.06798688
107	0xbd3042fb	-0.043032628
108	0x3c712970	0.014719352
109	0xbe395b90	-0.18101335
110	0xbd635152	-0.055497475
111	0x3c984770	0.018588752
112	0xbc70c1d2	-0.014694648
113	0xbe1f4902	-0.15555194
114	0x3d584a7b	0.052805405
115	0xbdb7612d	-0.08954082
116	0xbd766e1e	-0.06016361
117	0xbcfa5066	-0.030555915
118	0xbd9f3adf	-0.07774901
119	0xbe140c59	-0.14457835
120	0xbd3eb1e9	-0.046556387
121	0x3de8f774	0.11375323
122	0xbe2ac373	-0.1667612
123	0x3d7dd540	0.06197095
124	0xbd8b7c99	-0.068108745
125	0x3d08befd	0.033385266
126	0xbdf722ba	-0.120671704
127	0x3e2f76f2	0.17135218
128	0x3e6cab6e	0.2311227
129	0x3de6c25b	0.11267539
130	0x3e2ca187	0.16858493
131	0xbe0523ee	-0.13001987
132	0x3e4556b5	0.19271357
133	0x3c36b4c1	0.0111514935
134	0xbdd5ab12	-0.1043302
135	0xbe5a8bfd	-0.21342464
136	0x3cf25e86	0.029586088
137	0x3de7f086	0.11325173
138	0xbe4b6ccd	-0.19865723
139	0x3e3b4fec	0.18292207
140	0xbe5174c3	-0.20454697
141	0x3dec63a4	0.115424424
142	0xbd162177	-0.03665301
143	0x3ce87dfc	0.028380387
144	0x3d6f9ad3	0.05849726
145	0x3bf06803	0.007336618
146	0x3d0de5c2	0.034642942
147	0xbdffa466	-0.124825284
148	0x3c9a5c16	0.018842738
149	0xbbbadfa4	-0.0057029296
150	0x3dab5cea	0.08367331
151	0xbd3b7d81	-0.045773987
152	0x3e13b24d	0.14423485
153	0xbe115a89	-0.14194693
154	0x3d8dd9bb	0.069262944
155	0xbe1bb5dd	-0.15206094
156	0x3cc16c7a	0.023611296
157	0x3d4cee89	0.050032172
158	0x3d9c809f	0.0764172
159	0x3d456604	0.048192993
160	0xba372219	-0.0006985977
161	0x3e8e8220	0.27833652
162	0xbb82d39a	-0.00399251
163	0xbe84ca21	-0.25935462
164	0xbdce8f86	-0.10085969
165	0xbd9bed0a	-0.07613571
166	0xbe4a4d72	-0.19756106
167	0xbdc3ddf0	-0.095638156
168	0xbe0183da	-0.12647954
169	0xbdde7c8d	-0.108636
170	0xbe59bcd4	-0.21263438
171	0x3e196583	0.1498013
172	0xbd9ba5a5	-0.075999536
173	0xba67313e	-0.00088192883
174	0x3d2a4b08	0.04157546
175	0xbd967b1e	-0.073477015
176	0x3ad00ae2	0.0015872384
177	0xbda208e0	-0.07911849
178	0xbd1a70f7	-0.037705388
179	0x3c392778	0.011300914
180	0xbd07d356	-0.03316053
181	0x3df56d08	0.11983687
182	0x3cbfb732	0.023402784
183	0xbd62d9a8	-0.055383354
184	0x3dd28097	0.10278433
185	0x3e45e90f	0.19327186
186	0xbdd299f2	-0.10283269
187	0xbcd50211	-0.026001962
188	0x3e228ce8	0.15874064
189	0x3c45f7b4	0.012082983
190	0xbc849db6	-0.016188484
191	0x3e7b764d	0.24556847
192	0x3dbb079b	0.0913231
193	0x3dac40f3	0.084108256
194	0xbdb0b423	-0.08628108
195	0x3d38b3a3	0.04509319
196	0xbd80468f	-0.06263458
197	0xbd16155a	-0.036641456
198	0xbda54dfe	-0.080715165
199	0xbc40f43d	-0.011776981
200	0xbc1c8715	-0.00955369
201	0x3e5e2c37	0.21696554
202	0x3d858e82	0.06521322
203	0xbd9ce77d	-0.076613404
204	0xbb2edd3f	-0.0026682166
205	0x3d0ebcf0	0.034848154
206	0xbe1e37d4	-0.15450984
207	0x3d42a094	0.04751642
208	0xbd89704c	-0.06710872
209	0xbddad743	-0.10685589
210	0xbdfd2ff4	-0.12362662
211	0x3c70efcf	0.014705612
212	0xbcc05d77	-0.023482068
213	0x3d0cb257	0.034349766
214	0x3caa3453	0.020776903
215	0xbc87c0e5	-0.016571471
216	0xbda9265c	-0.082592696
217	0x3c733954	0.014845211
218	0x3c5bc3ff	0.013413428
219	0xbdfb96f8	-0.122846544
220	0xbd9c4578	-0.076304376
221	0x3b4b1ef5	0.0030993794
222	0xbd628a9c	-0.05530797
223	0xbd2b4571	-0.04181427
224	0xbe2a92c4	-0.16657549
225	0x3d5a96c4	0.053366438
226	0x3cf4506b	0.029823503
227	0x3e0ff4c4	0.14058214
228	0x3dfeb943	0.124376796
229	0xbbc7c835	-0.0060968646
230	0xbda61215	-0.081089176
231	0xba0362d9	-0.0005011983
232	0xbde2ccb6	-0.11074202
233	0xbdc0c829	-0.094131775
234	0x3a104443	0.0005503336
235	0x3df31a06	0.11870198
236	0xbde8e979	-0.113726564
237	0xbdabc854	-0.08387819
238	0xbe1b2ecb	-0.15154569
239	0x3c8019db	0.015637329
240	0x3d9682ec	0.0734919
241	0x3ce1b026	0.027549814
242	0x3db8ad71	0.09017456
243	0x3c8d1605	0.017222414
244	0x3dafa137	0.08575671
245	0x3cbcce61	0.023047628
246	0xbe39f4c8	-0.18159783
247	0xbd35788c	-0.044304416
248	0xbd97b384	-0.07407287
249	0xbd585ca7	-0.052822735
250	0xbd1b6aba	-0.03794358
251	0x3dace35a	0.08441801
252	0xbe00288d	-0.12515469
253	0xbd9d6a87	-0.07686334
254	0xbd7b8f2b	-0.061415832
255	0x3dcba3ab	0.099433266

lstm.weight_ih_l0_reverse f4 [256, 28]
0	0xbde55eca	-0.1119972
1	0x3d05539e	0.032550447
2	0x3a2699d5	0.000635532
3	0x3d13b6c0	0.036062956
4	0x3c0b624a	0.008507321
5	0x3a2385be	0.00062378857
6	0xbd0f6cb0	-0.03501576
7	0xbcedae5d	-0.029013807
8	0x3dd565bc	0.10419795
9	0xbd2d6469	-0.042332087
10	0xbbf7feca	-0.007568215
11	0x3d8e6ee4	0.069547445
12	0xbd3c0211	-0.04590041
13	0x3d307f57	0.04309019
14	0x3ca7f673	0.020503258
15	0xbd207c07	-0.03918078
16	0x3d998aaf	0.07497155
17	0x3d8af54d	0.06785069
18	0x3c66a77f	0.01407802
19	0x383df18b	4.5286066e-05
20	0x3c1dc21e	0.009628801
21	0x3d0c0193	0.03418119
22	0xbdde105b	-0.10842963
23	0xbca71013	-0.020393407
24	0x3c0122d0	0.007881835
25	0xbd6d4846	-0.057930253
26	0xbcb083a4	-0.021547146
27	0xbbe54162	-0.0069963196
28	0x3c95964d	0.018260146
29	0x3d4b502d	0.04963701
30	0xbcc10ec7	-0.023566617
31	0xbd369a37	-0.044580664
32	0xbc1fd669	-0.009755709
33	0x3d01c226	0.031679295
34	0xbc31594c	-0.010824513
35	0x3c918ab8	0.017766342
36	0xbddb386f	-0.10704123
37	0xbd13b95b	-0.03606544
38	0xbcb1b92d	-0.021694744
39	0x3d80e360	0.06293368
40	0xbd3c8930	-0.04602927
41	0x3ba9d506	0.005182865
42	0xbd1a8a4a	-0.03772954
43	0xbb8bac89	-0.004262511
44	0xbda3e2a5	-0.080022134
45	0x3da1d1b1	0.079013236
46	0x3cfa414e	0.030548718
47	0xbd759d3e	-0.05996441
48	0x3d990d25	0.0747321
49	0x3d474493	0.04864938
50	0x3b9868cf	0.004651166
51	0xbe044ed1	-0.12920691
52	0xb9f42273	-0.00046564973
53	0x3ca9ad54	0.020712532
54	0xbd865a98	-0.06560248
55	0xbcaa186d	-0.0207636
56	0xbdd61796	-0.104537174
57	0xbc9f0544	-0.01941169
58	0xbd78ce83	-0.06074382
59	0x3d0c7f03	0.034300815
60	0x3d19636e	0.03744834
61	0xbb0b0dbd	-0.0021217905
62	0x3d4e2f99	0.05033836
63	0x3db7a248	0.089664996
64	0xbdd82f02	-0.10555841
65	0xbd43314b	-0.04765443
66	0xbc6dcaef	-0.014513715
67	0xbd30dc48	-0.043178827
68	0x3d836f47	0.06417709
69	0x3d64919e	0.055802934
70	0xbd07f450	-0.03319198
71	0x3cb4e9bc	0.02208411
72	0x3d623606	0.055227302
73	0x3dd92d8e	0.10604392
74	0xbccd48bb	-0.025059095
75	0x3c39ef43	0.011348548
76	0x3d0f19f2	0.034936853
77	0x3e06711d	0.13129087
78	0xbd57fe34	-0.05273266
79	0xbdee4242	-0.116337314
80	0xbce326c4	-0.027728446
81	0xbb1bc382	-0.0023767655
82	0xba8a2416	-0.0010539319
83	0xbc885c5d	-0.016645605
84	0x3bf8ec92	0.0075965608
85	0x3cf4b4b4	0.029871322
86	0xbcb504f6	-0.022097092
87	0x3ca6bc4d	0.02035346
88	0xbb871e01	-0.00412345
89	0x3c17904c	0.009250712
90	0x3db6c8ef	0.08925044
91	0x3c18537c	0.009297248
92	0xbd5ac8ff	-0.05341434
93	0xbd35de36	-0.04440137
94	0xbb1c9c91	-0.0023897032
95	0xbcf65419	-0.030069398
96	0x3cdc969a	0.026927281
97	0xbd2ddb2e	-0.042445354
98	0xbd334480	-0.0437665
99	0x3d07a551	0.033116642
100	0xbcb1a7d4	-0.021686472
101	0x3d38d922	0.04512895
102	0x3b971d44	0.004611643
103	0xb91b770d	-0.00014826302
104	0xbcd1aab7	-0.025594098
105	0x3d649505	0.05580618
106	0xbd3ba6e3	-0.045813452
107	0xbc6d735d	-0.014492837
108	0x3d19e557	0.03757223
109	0xbcc2ef9a	-0.023795892
110	0xbcf3a600	-0.02974224
111	0xb9896b0c	-0.00026210432
112	0x3d85f3ba	0.06540628
113	0x3d18a58d	0.037267257
114	0xbdaea63a	-0.08527799
115	0xbd4bae38	-0.049726695
116	0x3cf2f9d7	0.029660149
117	0x3cd4a227	0.025956227
118	0xbca819f1	-0.020520182
119	0xbdd190fb	-0.10232731
120	0xbd30a161	-0.043122653
121	0x3a8602c6	0.0010224215
122	0x3d501a64	0.050806418
123	0x3daf4358	0.08557767
124	0xbdca21e2	-0.09869744
125	0xbc633ac2	-0.013868989
126	0x3bbca6b4	0.0057571772
127	0x3a3a2ea9	0.000710229
128	0x3dabd6f6	0.0839061
129	0x3cdcd98d	0.026959205
130	0x3c9ddd9e	0.019270714
131	0x3d30efa7	0.0431973
132	0x3d9f65d3	0.07783093
133	0xbcff8218	-0.031189963
134	0x3e05c05e	0.13061664
135	0xbda33bf2	-0.07970418
136	0xbd6da9cf	-0.05802327
137	0x3d824c97	0.063622646
138	0xbd849465	-0.064736165
139	0xbc5863b8	-0.013207369
140	0x3d7abdf8	0.061216325
141	0x3df6fbe4	0.12059763
142	0xbc33ab24	-0.010966096
143	0xbd8fab3f	-0.070150845
144	0x3c969fa1	0.018386664
145	0x3d4b6342	0.049655207
146	0xbd40d95e	-0.047082298
147	0x3dea53e6	0.114417836
148	0x3b01ec1e	0.0019824575
149	0xbc7d6ee5	-0.015468334
150	0x3c4fc7e0	0.012681931
151	0xbd30b113	-0.04313762
152	0x3dea7314	0.11447731
153	0xbd0ff199	-0.035142515
154	0xbbf4300f	-0.007452018
155	0xba71bcf7	-0.00092215784
156	0xbca9fc86	-0.020750295
157	0x3d2b6a7e	0.041849606
158	0xbd0bc2ed	-0.034121443
159	0xbc14e1d1	-0.009087042
160	0xbdce6d17	-0.10079401
161	0xbdfc8173	-0.12329378
162	0x3d83fe3a	0.06444974
163	0xbdbb0456	-0.091316864
164	0xbd69a856	-0.057045303
165	0xbd604354	-0.05475171
166	0xbd8e34b5	-0.06943647
167	0x3c867f14	0.016418017
168	0xbccc6b8e	-0.02495363
169	0xbd2e4929	-0.04255024
170	0xbd808eec	-0.0627726
171	0xbcb4c59a	-0.02206688
172	0x3cb057aa	0.021526176
173	0x3c9f8ac0	0.01947534
174	0x3cf82b32	0.030294035
175	0x3d8fe14b	0.07025393
176	0xbcc5bc7b	-0.024137726
177	0x3de6fd0e	0.11278735
178	0xbdceceee	-0.100980625
179	0xbdac66b4	-0.084180266
180	0x3dcc6908	0.099809706
181	0xbc87aed9	-0.016562866
182	0xbd5caad8	-0.053873867
183	0x3d8f96ff	0.07011222
184	0x3dcc11a1	0.099643
185	0x3d78bd13	0.06072719
186	0xbb98a2e9	-0.0046580923
187	0x3d1f90fe	0.038956635
188	0xbdaeb5ae	-0.085307464
189	0x3d4120c1	0.047150377
190	0xbdc43100	-0.095796585
191	0x3db4b2fa	0.088231996
192	0xbd34be47	-0.044126775
193	0x3ceac6fa	0.028659333
194	0xbd358d1b	-0.04432402
195	0xbadea349	-0.0016985919
196	0xbdc83e23	-0.09777477
197	0x3de9dbaa	0.11418851
198	0x3da63055	0.08114687
199	0xbdb61c4e	-0.088921174
200	0x3a0a8b4d	0.00052850397
201	0xbc0bb96e	-0.008528097
202	0xbd9745ad	-0.073863365
203	0x3d87bb94	0.066275746
204	0xbde02e3c	-0.109463185
205	0x3cf31bb8	0.029676303
206	0xbd11123d	-0.035417784
207	0x3da4365f	0.08018183
208	0xbd91a6f2	-0.071119204
209	0xbd310c85	-0.04322483
210	0x3d08edb5	0.03342982
211	0xbcf2cc9d	-0.029638583
212	0x3dc60a78	0.096699655
213	0xbcffc6db	-0.031222751
214	0x3c307b17	0.010771534
215	0xbcb9aa2a	-0.022664148
216	0x3ddcea1a	0.10786839
217	0xbde0d25d	-0.109776236
218	0x3d78acc8	0.060711652
219	0xbdac2027	-0.0840457
220	0x3caf6e91	0.021415027
221	0xbc8bd02b	-0.017067036
222	0x3d2bb5d2	0.041921444
223	0xbb3c1a52	-0.0028702212
224	0x3c1ed46b	0.009694199
225	0x3d1e67df	0.038673278
226	0x3d2928e5	0.041298766
227	0xbdbcdfc8	-0.092223704
228	0xbc4abc62	-0.0123740155
229	0x3bf5d199	0.0075017926
230	0x3dcdfac0	0.100575924
231	0x3d4a98ed	0.049462248
232	0xbc72b955	-0.014814694
233	0x3dc419c5	0.09575228
234	0x3d9df53f	0.077127926
235	0xbc9838af	-0.018581716
236	0x3cbebe8a	0.023284215
237	0xbce1d32a	-0.027566511
238	0xbc856bdb	-0.016286781
239	0xbbec1b9e	-0.0072054407
240	0x3d7297bd	0.05922674
241	0xbd7a037c	-0.06103848
242	0xbd4e4c58	-0.050365776
243	0x3d866406	0.06562047
244	0xbdacc0eb	-0.08435234
245	0xbd1d6ed4	-0.038435772
246	0xbddcb04c	-0.107758135
247	0xbd729f18	-0.059233755
248	0x3ca9ea58	0.020741627
249	0xbd6bcd8b	-0.057569068
250	0xbca62284	-0.02028013
251	0xbc2b35cb	-0.010449837
252	0xbb21c55c	-0.0024684286
253	0x3cc3a35d	0.023881609
254	0xbdabeb93	-0.083945416
255	0xbc74bd2e	-0.014937682

lstm.weight_hh_l0_reverse f4 [256, 64]
0	0xbe010bda	-0.12602177
1	0xbd8e2f48	-0.06942612
2	0xbd5759c7	-0.052575853
3	0x3c306ffa	0.010768885
4	0x3d9a52d0	0.075353265
5	0xbd44460f	-0.047918376
6	0xbca8c9dd	-0.020604068
7	0xbda56746	-0.080763385
8	0x3bc88f5b	0.006120605
9	0x3d008c9b	0.03138409
10	0xbcf9b498	-0.030481622
11	0x3ce5aa5a	0.028035332
12	0x3c2ed324	0.010670457
13	0xbdc3f8e3	-0.09568956
14	0xbd61c82a	-0.055122532
15	0x3dbd3df6	0.09240334
16	0x3d70686f	0.058693346
17	0x3d77add3	0.060468506
18	0x3d82a607	0.063793235
19	0xbd07d4ad	-0.033161808
20	0xbd7eb58f	-0.062184867
21	0x3d79ee7d	0.061018456
22	0xbd8b76b6	-0.06809752
23	0xbd090657	-0.03345331
24	0xbe053bed	-0.13011141
25	0xbccb8b3e	-0.02484667
26	0xbd42c2d4	-0.047549084
27	0xbd3cdb3a	-0.04610751
28	0x3daf5ca2	0.0856259
29	0x3d04ef20	0.03245461
30	0xbdf2d743	-0.11857464
31	0xbdb1dbb9	-0.08684487
32	0xbdbf6e7a	-0.093472436
33	0x3de811cf	0.11331522
34	0xbd13cd6e	-0.036084585
35	0x3dd58684	0.104260474
36	0x3d6b87fa	0.057502724
37	0x3bc11b7b	0.0058931685
38	0x3e0dd9ae	0.1385257
39	0x3d6bf9ea	0.057611383
40	0x3d47a68e	0.048742823
41	0x3d8b068c	0.06788358
42	0x3c8049eb	0.015660247
43	0xbd45dcc7	-0.048306253
44	0x3d902fee	0.07040392
45	0x3df43fd9	0.119262405
46	0x3d14e28f	0.036348876
47	0x3dd5a2b4	0.10431424
48	0x3da5c2ec	0.08093819
49	0xbdd01fea	-0.10162337
50	0x3d626204	0.055269256
51	0x3dc862ab	0.097844444
52	0x3de92e44	0.113857776
53	0x3d214fb8	0.039382666
54	0xbc3276c4	-0.010892574
55	0x3d1da989	0.03849176
56	0x3d727f2d	0.059203316
57	0xbdeb5a56	-0.114918396
58	0x3d99ed79	0.075159974
59	0x3e0f99fc	0.14023584
60	0xbdae12a2	-0.08499648
61	0x3da68628	0.08131057
62	0x3d55d9bf	0.052209612
63	0x3daf3cb6	0.085565016
64	0x3903bc61	0.0001256331
65	0xbdfcddca	-0.123469904
66	0x3cf83bd1	0.03030196
67	0xbd621b1f	-0.055201646
68	0x3c067dd1	0.008208708
69	0xbdd15644	-0.10221532
70	0x3c76ab83	0.01505554
71	0x3d078e58	0.033094734
72	0xbdcd6c5f	-0.10030436
73	0xbde3d526	-0.11124639
74	0x3dbcb11d	0.09213469
75	0x3c0b379e	0.008497147
76	0xbdfa75b0	-0.12229478
77	0x3db28141	0.087160595
78	0xbd78b1ff	-0.060716625
79	0x3db4e5d1	0.088328965
80	0xbb3cf8bd	-0.0028834783
81	0x3d1fec11	0.03904349
82	0xbd890234	-0.06689873
83	0xbc929bc9	-0.01789655
84	0xbb3625c0	-0.0027793497
85	0x3dd1f456	0.102516815
86	0x3cc8bba1	0.024503531
87	0x3d9ddbc8	0.077079356
88	0xbdd6bddf	-0.10485434
89	0x3acb0cbd	0.0015491467
90	0xbd438e29	-0.047742996
91	0x3dad3bb5	0.08458654
92	0x3dafb908	0.08580214
93	0x3da1abeb	0.07894119
94	0xbde4141f	-0.1113665
95	0x3da28123	0.07934787
96	0xbdd8a6d6	-0.105786964
97	0xbd3d1bef	-0.046169218
98	0x3ceb7d74	0.028746344
99	0xbd5767d8	-0.052589267
100	0x3e1769df	0.1478648
101	0x3d16b0b8	0.036789626
102	0x3d51dfbd	0.051238764
103	0xbc808eea	-0.015693147
104	0x3dab4601	0.083629616
105	0x3d583568	0.052785307
106	0x3c3eba21	0.011641056
107	0x3dce23a7	0.10065394
108	0xbdf6b0bc	-0.12045428
109	0x3ce2e848	0.027698651
110	0xbe13b0ff	-0.14422987
111	0x3da7a610	0.08185971
112	0x3a5c1f70	0.00083970185
113	0xbd9e26d3	-0.07722249
114	0x3dd1105c	0.102081984
115	0x3c4d2df2	0.012523161
116	0x3d1ec25c	0.038759574
117	0x3daa1380	0.083045006
118	0xbd859722	-0.06522967
119	0xbdbfa756	-0.09358089
120	0x3d6acd6a	0.057324804
121	0x3dda4b1e	0.10658859
122	0xbd2aa06b	-0.041656893
123	0x3de9b557	0.11411541
124	0xbd0899af	-0.03334969
125	0x3dcce10d	0.100038625
126	0x3cc01307	0.023446573
127	0x3d06335a	0.032763816
128	0xbaea8fd3	-0.0017895646
129	0x3cdcfec9	0.02697696
130	0xbd59690a	-0.05307869
131	0xbc4015b3	-0.0117239235
132	0x3d51237f	0.051059242
133	0x3dee6b05	0.11641506
134	0x3c153f80	0.009109378
135	0xbd12b5be	-0.035817854
136	0xbdf85925	-0.12126378
137	0x3e0983da	0.13429204
138	0x3dcfbf31	0.10143889
139	0x3d90b1bc	0.0706515
140	0xbdb4f43b	-0.08835646
141	0xbcc00e23	-0.02344424
142	0xbce8e561	-0.028429689
143	0xbcf873eb	-0.030328711
144	0x3dc40822	0.09571864
145	0xbcbce3cf	-0.023057846
146	0x3c64ca8c	0.013964307
147	0x3db7130a	0.08939178
148	0xbc183af2	-0.009291397
149	0x3ce69231	0.028145881
150	0x3d5cb68f	0.05388504
151	0x3dee062f	0.11622273
152	0x3dd447c3	0.1036525
153	0xbd065502	-0.032795914
154	0x3de8f446	0.113747165
155	0xbdeaccbb	-0.114648305
156	0x3db3e2d0	0.087834954
157	0xbbaf6813	-0.005352983
158	0xbda68c94	-0.08132282
159	0xbd178b6f	-0.03699821
160	0x3dd56ecc	0.104215235
161	0xbcff55d8	-0.031168863
162	0x3d7945eb	0.060857695
163	0xbd9504fc	-0.07276341
164	0xbcb028af	-0.021503774
165	0xbc4ab169	-0.012371399
166	0x3d9fea3b	0.07808348
167	0x3de312dd	0.11087582
168	0x3d4051b7	0.04695293
169	0xbcc55bfb	-0.024091711
170	0xbdcbfe7c	-0.099606484
171	0x3e01c04a	0.12671009
172	0x3d63bcd2	0.055599995
173	0xbdebde4f	-0.115170114
174	0xbd99b3f9	-0.0750503
175	0x3d086930	0.03330344
176	0x3d59bc87	0.05315831
177	0x3c4a54d5	0.012349327
178	0xbd0e6eb2	-0.034773536
179	0xbde1d3a8	-0.11026698
180	0x3d9e0619	0.07716007
181	0xbc94ebc6	-0.018178832
182	0x3cad68bd	0.021168107
183	0xbc1e27ae	-0.009653015
184	0xbd8a0d4b	-0.06740817
185	0xbd7c0260	-0.061525702
186	0xbd122b44	-0.035685793
187	0xbb6ac724	-0.0035824263
188	0x3b372354	0.0027944641
189	0x3c6c47ae	0.014421387
190	0x3c9d76b8	0.019221649
191	0xbd798c1a	-0.060924627
192	0x3da77b58	0.08177823
193	0x3df51636	0.11967127
194	0x3c47fca0	0.012206227
195	0xbccedb5b	-0.025251081
196	0x3afa624e	0.0019102783
197	0x3d5d583f	0.054039236
198	0x3dc2e32e	0.09515987
199	0x3c9b60aa	0.018966991
200	0x3c9c8799	0.019107627
201	0x3c0e7cc3	0.008696738
202	0x3cd52d02	0.026022438
203	0x3d7f90ce	0.062393956
204	0xbd85bb00	-0.06529808
205	0xbdb06113	-0.086122654
206	0x3df91ca1	0.12163664
207	0xbe0c9854	-0.13729984
208	0xbcfedfd8	-0.031112596
209	0xbd6cd51e	-0.057820432
210	0x3e032eb6	0.12810788
211	0x3d68895c	0.05677162
212	0xbdc0b28a	-0.094090536
213	0xba0044fd	-0.00048930926
214	0xbd19565d	-0.037435878
215	0xbde26b90	-0.11055672
216	0xbdcb70b9	-0.099336095
217	0xbc179fb3	-0.009254384
218	0xbd84b6ef	-0.06480204
219	0x3db1f3d0	0.08689082
220	0xbc287389	-0.010281452
221	0xbd5cd9c8	-0.05391863
222	0xbb921035	-0.0044574984
223	0x3dc92850	0.09822142
224	0xbd518a51	-0.0511573
225	0xbdf50fe6	-0.11965923
226	0xbdcab6fa	-0.09898181
227	0xbd07343e	-0.033008806
228	0x3dec912a	0.11551125
229	0x3d9495c5	0.07255129
230	0xbd75bf2b	-0.059996765
231	0xbca49881	-0.02009225
232	0x3d616c7a	0.055035092
233	0x3cb56be2	0.02214617
234	0x3dcd6beb	0.10030349
235	0x3db58a26	0.0886424
236	0x3d8b721a	0.068088725
237	0xbd93891a	-0.072038844
238	0xbd938048	-0.07202202
239	0xbc043da4	-0.008071337
240	0xbd8a93fb	-0.06766506
241	0xbd944261	-0.07239223
242	0x3c855316	0.01627497
243	0xbd924d94	-0.07143703
244	0xbd8964fd	-0.06708715
245	0xba653ee6	-0.00087450293
246	0x3c9b6ed6	0.01897375
247	0x3cddb783	0.027065044
248	0xbd397688	-0.045279056
249	0x3d9aef30	0.07565153
250	0xbdb77105	-0.08957104
251	0x3d945763	0.0724323
252	0xbdf17702	-0.11790277
253	0x3d8d1456	0.068886444
254	0xbdcc8a34	-0.09987298
255	0xbd147755	-0.036246616

lstm.bias_ih_l0_reverse f4 [256]
0	0x3d2241c7	0.03961351
1	0xbe12eab8	-0.1434735
2	0xbdf63313	-0.120214604
3	0x3dab23b9	0.08356423
4	0xbe3a6d40	-0.18205738
5	0xbc191097	-0.009342334
6	0xbdd4c03c	-0.10388228
7	0x3d40dbaa	0.047084488
8	0xbde213cd	-0.11038933
9	0xbe4b0693	-0.19826727
10	0xbddba5fd	-0.10725019
11	0x3cfc21f2	0.030777905
12	0xbd21a4ba	-0.039463736
13	0xbe2e67da	-0.17031804
14	0xbe066e11	-0.13127925
15	0xbdc96e1c	-0.09835455
16	0xbe0e1c36	-0.13877949
17	0xbe3ccccb	-0.18437497
18	0xbdd84caf	-0.10561501
19	0xbdd8e7e8	-0.105911076
20	0xbe185d17	-0.14879261
21	0xbe195f02	-0.14977649
22	0xbdf76086	-0.12078957
23	0xbda84477	-0.08216184
24	0xbe37f4ca	-0.17964473
25	0xbdccea9d	-0.100056864
26	0xbde0ba27	-0.10973006
27	0xbdd29bc5	-0.10283617
28	0x3d12357d	0.03569554
29	0xbdcb390d	-0.09922991
30	0xbc0db32d	-0.008648676
31	0xbdca5245	-0.09878973
32	0x3d8c51f4	0.06851569
33	0xbd8031d5	-0.06259505
34	0xbe22bc18	-0.15892065
35	0xbc254a75	-0.010088553
36	0xbd06b7ea	-0.032890238
37	0xbe1adfe7	-0.15124474
38	0x3d3560b7	0.044281688
39	0xbd604d2c	-0.054761097
40	0xbdb4a666	-0.088208005
41	0xbd4ab81d	-0.04949199
42	0x3bdbf20d	0.0067122043
43	0xbd2cf398	-0.042224497
44	0xbe0fcdb6	-0.14043316
45	0x3cbd22a5	0.023087809
46	0x3d863f70	0.065550685
47	0xbe339dd8	-0.17540681
48	0x3d374368	0.044742018
49	0xbdd3417a	-0.10315223
50	0x3d16ce2f	0.036817726
51	0x3d16f5ff	0.036855694
52	0xbe0a359a	-0.1349701
53	0xbd0c330b	-0.034228366
54	0x3d650ba3	0.0559193
55	0xbe0d0b5b	-0.13773863
56	0xbdfce022	-0.123474374
57	0x3d0d15e7	0.034444716
58	0x3cbe8b7f	0.023259876
59	0x3d984214	0.074344784
60	0xbe1aa01b	-0.15100138
61	0xbe02f137	-0.12787329
62	0xbd3e0954	-0.046395615
63	0xbe2cfa24	-0.16892296
64	0xbb8f2b2f	-0.0043691616
65	0xbd20211c	-0.039094076
66	0xbe071caf	-0.13194536
67	0xbe1344db	-0.14381735
68	0x3d8ba8b2	0.068192855
69	0xbda41922	-0.08012606
70	0x3d7a2a45	0.061075468
71	0xbda42caf	-0.08016335
72	0xbda609f9	-0.08107371
73	0xbe203895	-0.15646584
74	0xbddd4904	-0.10804942
75	0xbd05507f	-0.03254747
76	0x3d2ef2b5	0.042711932
77	0xbdec67f6	-0.115432665
78	0xbde7ff40	-0.11327982
79	0x3cf3d45c	0.029764347
80	0x3cece20f	0.028916387
81	0x3da2b3c2	0.07944442
82	0x3b80bfe7	0.0039291265
83	0xbcb889b4	-0.0225266
84	0x3cd08629	0.025454598
85	0xbe13ba93	-0.14426641
86	0xbd86a39f	-0.06574177
87	0xbe1bbc80	-0.15208626
88	0xbdb6435e	-0.08899568
89	0xbd92fd23	-0.07177188
90	0xbd7ede86	-0.062223934
91	0xbd6dbfd9	-0.05804429
92	0xbd9e2560	-0.077219725
93	0xbd9aa9a8	-0.075518906
94	0xbdfd718d	-0.12375174
95	0x3d5aa0f2	0.053376146
96	0xbe013f63	-0.12621836
97	0xbd2a0396	-0.041507326
98	0xbc4d7a93	-0.012541431
99	0x3c29d12c	0.010364812
100	0x3da7a2f7	0.0818538
101	0x3d394e37	0.045240607
102	0xbd08238f	-0.033237036
103	0xbdf3daa0	-0.11906934
104	0x3d88e7e2	0.06684853
105	0xbced1dfa	-0.028944958
106	0xbcc8fd38	-0.024534807
107	0xbd3b864e	-0.04578238
108	0x3d33a500	0.043858528
109	0xbe0794cc	-0.13240355
110	0xbd3f5eb8	-0.04672119
111	0xbc51ca01	-0.012804509
112	0x3ccab629	0.024745064
113	0xbdc4e80b	-0.09614571
114	0x3d2d2964	0.0422758
115	0x3db0c95e	0.08632158
116	0x3d9ed9ca	0.07756384
117	0xbe0d1a1b	-0.1377949
118	0xbdca4d84	-0.09878066
119	0xbc8f6035	-0.01750193
120	0xbb894168	-0.0041887052
121	0x3c3479f1	0.011015401
122	0xbe15f33a	-0.14643565
123	0xbd3ece3b	-0.046583395
124	0xbd4a2608	-0.049352676
125	0xbdf97ff8	-0.12182611
126	0xbe127cf8	-0.14305484
127	0xbcc7cf04	-0.024390705
128	0xbdbc52f9	-0.09195513
129	0xbda8b4ec	-0.08237633
130	0xbe24cf74	-0.16094762
131	0x3e477b62	0.1948066
132	0xbd632962	-0.055459388
133	0xbda52fa4	-0.08065727
134	0x3daba427	0.08380919
135	0x3cd88864	0.026432224
136	0x3dee3843	0.11631825
137	0xbd820413	-0.06348433
138	0x3cd2b957	0.025723143
139	0x3e8b6422	0.27224833
140	0x3d072a72	0.032999463
141	0xbe106ea9	-0.14104713
142	0x3d14207d	0.036163796
143	0xbc97067f	-0.018435715
144	0xbdb166cb	-0.08662184
145	0xbcf641f3	-0.030060744
146	0x3db301f6	0.087406084
147	0x3db1cff9	0.08682246
148	0xbcb025be	-0.021502372
149	0xbd8b65fc	-0.06806561
150	0xbb98ee20	-0.0046670586
151	0x3d2a81ac	0.04162757
152	0x3df4c107	0.119508795
153	0xbe1b35b9	-0.15157212
154	0xbd284971	-0.041085664
155	0xbe0e0bb7	-0.13871656
156	0x3df572d4	0.11984792
157	0xbdc38e4a	-0.09548624
158	0x3d9d70fd	0.076875664
159	0xbe55646c	-0.20839089
160	0xbe43a8f9	-0.19107427
161	0x3daa830f	0.08325779
162	0xbdb0f084	-0.08639625
163	0xbd0b8989	-0.03406671
164	0xbc6d1713	-0.014470833
165	0x3c69304f	0.014232709
166	0xbd606ace	-0.054789357
167	0xbdd107a1	-0.10206533
168	0x3d633f96	0.055480562
169	0xbd8f8ae4	-0.07008913
170	0xbe1e8bf8	-0.15483081
171	0xbdb26dbf	-0.08712339
172	0x3e27a55f	0.16371678
173	0x3e155ed0	0.1458695
174	0x3dad556b	0.08463558
175	0xbe144314	-0.14478713
176	0xbd0ff3ef	-0.035144743
177	0x3db12a5c	0.086506575
178	0xbd329d3d	-0.043606985
179	0xbd7b2139	-0.06131098
180	0x3c84e3d4	0.016221918
181	0xbe0ce1ed	-0.13758059
182	0xbde9d3da	-0.114173606
183	0xbc46b033	-0.01212697
184	0xbe043dba	-0.12914172
185	0x3db8ac3d	0.09017227
186	0xbda80743	-0.0820451
187	0xbdf59bcb	-0.11992606
188	0x3cbbafe0	0.022911012
189	0xbe34ca01	-0.17655183
190	0xbe1c1448	-0.15242112
191	0x3bced5ca	0.0063121067
192	0xbc6357f8	-0.013875954
193	0x3b95a0ec	0.0045663025
194	0x3c6cd8fc	0.01445603
195	0x3ce78902	0.028263573
196	0x3c6da3aa	0.014504353
197	0xbdbd2a45	-0.09236578
198	0xbca9d829	-0.020732956
199	0xbe475a05	-0.19467933
200	0xbe2a161f	-0.16610001
201	0xbe24d05a	-0.16095105
202	0x3d049923	0.032372605
203	0xbd985d75	-0.074397005
204	0xbe0c286f	-0.13687299
205	0xbbfb558f	-0.0076701115
206	0xb90102e4	-0.00012303476
207	0xbc6a996a	-0.014318803
208	0xbdf90f25	-0.12161092
209	0x3b9f1709	0.004855041
210	0xbcf51603	-0.029917723
211	0xbd8f095e	-0.069842085
212	0xbdb64341	-0.088995464
213	0x3d60153d	0.054707754
214	0xbc349d97	-0.0110239005
215	0xbe4f9879	-0.20273007
216	0xbe5ac72a	-0.21365038
217	0xbe0aec0b	-0.13566606
218	0x3cca4624	0.024691649
219	0xbe2420aa	-0.16028085
220	0x3d96720c	0.073459715
221	0xbdbe0186	-0.09277634
222	0xbde032a2	-0.109471574
223	0x3d3b7517	0.045765962
224	0xbba48e14	-0.00502182
225	0xbc0f9c59	-0.0087653035
226	0xbdecdd7b	-0.115656815
227	0xbd8cc4d9	-0.06873483
228	0xbe13772b	-0.14400928
229	0xbe1b45c4	-0.15163332
230	0x3ca13dda	0.019682813
231	0xbde88e78	-0.11355299
232	0xbe0ee476	-0.13954338
233	0xbe1703a5	-0.14747484
234	0xbde06e46	-0.10958533
235	0x3dc51285	0.09622673
236	0xbdb4db8c	-0.08830938
237	0x3c361869	0.011114218
238	0xbdbce184	-0.09222701
239	0xbe2161af	-0.1575992
240	0xbdd30d5e	-0.10305284
241	0xbe1aa951	-0.15103652
242	0xbc8c16e5	-0.01710076
243	0xbd4b513c	-0.049638018
244	0x3cd8d2c1	0.026467683
245	0x3d615afc	0.05501841
246	0x3dff3a2d	0.12462268
247	0xbd0a25dc	-0.03372751
248	0xbd8ff1f4	-0.07028571
249	0x3cd62c3f	0.026144145
250	0x3c78e59b	0.015191461
251	0x3d1d15ec	0.038350984
252	0xbe2745e4	-0.16335255
253	0x3c0043d7	0.007828674
254	0xbc5aeabb	-0.013361628
255	0xbe387cac	-0.18016309
