models/seq_encoder.pth (torch, 591158 bytes, 16 tensors)

lstm.weight_ih_l0 f4 [256, 26]
0.10909989 -0.07378394 -0.09394527 0.095738836 -0.028766897 0.03994575 0.10187286 -0.00400658
-0.047965843 0.109511435 -0.008795267 -0.117902435 0.0066077267 0.05052869 -0.09553863 0.03812245
-0.03642558 0.08642029 -0.05455642 0.027745377 0.025648257 0.027571816 -0.010618253 0.09866331
-0.00901032 0.0042752028 -0.08356104 -0.06504402 0.0036443104 0.026877621 0.004491509 -0.012087865
0.12279344 -0.017422346 -0.08984794 0.11075696 -0.08657032 0.07588472 0.078788705 -0.0055863084
-0.0074460134 0.0047810804 -0.04653513 -0.10858242 -0.04681283 -0.002998434 0.044810325 0.0516752
-0.090345345 0.07663853 -0.0050654695 -0.0107425805 0.037018012 -0.055316422 -0.0456315 -0.06340417
-0.02847552 0.020757377 -0.04851775 0.1333898 -0.0083136 0.010672169 -0.08811268 0.12063964
-0.024530577 -0.05883565 0.0096122315 -0.0630061 0.03476652 -0.058361094 0.010373795 0.020948833
0.05786018 -0.076368116 -0.07580166 0.08463288 -0.00039166404 -0.018790152 0.09862126 -0.047965348
-0.077227324 -0.029628899 -0.011705582 0.030964682 0.060376283 0.016989117 -0.016819999 0.071176626
0.11889616 -0.09822875 -0.12952518 0.040550053 -0.10019764 -0.0032253575 0.048274618 -0.035197385
0.027083218 0.013195533 -0.052514076 -0.05671998 -0.12484106 0.026943002 -0.025725462 0.0076972186
0.007345545 -0.01317755 0.06741424 -0.102668196 -0.0031104248 -0.05519088 -0.1130165 -0.10864845
-0.03786424 -0.044349514 0.06304273 -0.043593604 0.101548694 -0.030059643 0.10868952 -0.04409319
0.0671167 0.0065848823 -0.021998547 0.03659497 -0.07012398 0.09577583 -0.04080679 0.096342534
0.053696103 -0.034873124 -0.037568163 -0.0344308 0.08573141 -0.059487946 -0.0073191957 0.029777138
0.0890482 0.02169415 0.026486106 0.018879507 -0.09712032 0.11187747 -0.016672151 -0.059396304
-0.01633662 0.03542826 -0.018133385 0.10778304 0.0059079197 0.0011853408 -0.06940127 0.013965335
-0.029255146 -0.087171175 0.0072495034 0.019061932 0.068755515 0.085924275 0.0057198047 0.048355773
-0.07059319 -0.029070456 0.046707235 -0.05523426 -0.05689054 -0.08153021 0.082556605 -0.03461695
0.06989359 0.036898434 0.04711898 0.07035337 0.103111394 -0.021769697 -0.08413242 0.010269258
0.041455436 -0.09247883 0.08091622 -0.097724766 0.012520968 -0.00500863 0.04888133 -0.021209184
-0.028658869 0.028518278 0.048932865 0.0048829387 0.070833765 -0.15381336 0.058996297 -0.024955304
0.03857631 0.06806049 -0.019752579 0.036623314 0.03523045 -0.07965544 -0.023329774 0.07237408
0.015433124 0.083981216 -0.08950902 -0.012661672 0.08643112 0.05362075 -0.010518274 -0.035849206
-0.085643984 0.021241976 0.047550563 0.039790586 0.032676674 -0.040168665 -0.014382957 -0.08362984
-0.09228245 0.04752102 -0.059862453 0.063361794 -0.08077913 -0.0020691191 0.036352754 0.012814134
0.0119980015 0.060098678 0.038232308 0.003550145 -0.097859055 0.10456813 -0.015620761 -0.019939328
0.04229814 0.005838667 -0.09692182 0.11820259 -0.017311934 -0.038820874 -0.018998664 0.042482622
0.040402204 0.04372539 -0.0894462 -0.07742851 0.09293252 -0.0806822 -0.046934456 0.045426596
-0.017721275 0.041218042 0.05480104 0.032059982 -0.020289898 -0.0153984325 0.11136907 -0.07425299
00000000: c36f df3d 091c 97bd 6166 c0bd b912 c43d
00000010: 8ea8 ebbc 289e 233d b8a2 d03d a149 83bb
00000020: d577 44bd 8847 e03d 061a 10bc d576 f1bd
00000030: a185 d83b 2cf7 4e3d c2a9 c3bd 4926 1c3d
00000040: fd32 15bd 1ffd b03d 8d76 5fbd 464a e33c
00000050: 4b1c d23c 4ade e13c 2ef8 2dbc fd0f ca3d
00000060: 05a0 13bc 0017 8c3b 0d22 abbd cd35 85bd
00000070: 62d5 6e3b 752e dc3c 822d 933b 2e0c 46bc
00000080: 217b fb3d 4fb9 8ebc 3202 b8bd 8cd4 e23d
00000090: c84b b1bd 7369 9b3d f95b a13d 5a0d b7bb
000000a0: b0fd f3bb 9caa 9c3b 9f9b 3ebd 7660 debd
000000b0: cfbe 3fbd 6081 44bb 088b 373d 60a9 533d
000000c0: fb06 b9bd a9f4 9c3d 3dfc a5bb a601 30bc
000000d0: 33a0 173d 7993 62bd 19e8 3abd 0cda 81bd
000000e0: 7e45 e9bc 600b aa3c 8cba 46bd 5697 083e
000000f0: c435 08bc 52da 2e3c 6c74 b4bd ea11 f73d
00000100: 59f4 c8bc a7fd 70bd 9f7c 1d3c 5809 81bd
00000110: 5767 0e3d 0b0c 6fbd daf6 293c e39c ab3c
00000120: ccfe 6c3d e366 9cbd e73d 9bbd 0154 ad3d
00000130: 4258 cdb9 ceed 99bc f1f9 c93d 5077 44bd
00000140: 5c29 9ebd 4eb8 f2bc c5c8 3fbc a5a9 fd3c
00000150: 1f4d 773d c32c 8b3c 18ca 89bc 0dc5 913d
00000160: d47f f33d 282c c9bd 40a2 04be d017 263d
00000170: 6c34 cdbd 8560 53bb 9bbb 453d 222b 10bd
00000180: a0dd dd3c 1432 583c 0019 57bd 3653 68bd
00000190: abac ffbd 92b7 dc3c 34be d2bc f338 fc3b
000001a0: e6b2 f03b a7e6 57bc 7a10 8a3d b443 d2bd
000001b0: 45d8 4bbb d50f 62bd 3275 e7bd 1483 debd
000001c0: 8917 1bbd d6a7 35bd 8c1c 813d 358f 32bd
000001d0: c3f8 cf3d a43f f6bc 9c98 de3d 109b 34bd
000001e0: 7b74 893d ffc5 d73b 4c36 b4bc 9be4 153d
000001f0: 299d 8fbd 1e26 c43d 0525 27bd 3c4f c53d
00000200: 72f0 5b3d 1fd7 0ebd 13e1 19bd 4f07 0dbd
00000210: f393 af3d a2a9 73bd ddd5 efbb 2fef f33c
00000220: e75e b63d eeb7 b13c 64f9 d83c 32a9 9a3c
00000230: 05e7 c6bd 0420 e53d 0994 88bc 8a49 73bd
00000240: 60d4 85bc 391d 113d 778c 94bc 5bbd dc3d
00000250: 3997 c13b 705d 9b3a 4122 8ebd dcce 643c
00000260: 7da8 efbc cd86 b2bd 3e8d ed3b c527 9c3c
00000270: b1cf 8c3d 11f9 af3d 336d bb3b b410 463d
00000280: 2a93 90bd 2a25 eebc 1650 3f3d 523d 62bd
00000290: 0e06 69bd 50f9 a6bd 7013 a93d 81ca 0dbd
000002a0: 5f24 8f3d d022 173d d5ff 403d 6d15 903d
000002b0: 112c d33d 5d56 b2bc 9e4d acbd 6440 283c
000002c0: 2dcd 293d 8a65 bdbd 67b7 a53d ec23 c8bd
000002d0: bf24 4d3c 6f1f a4bb ca37 483d e2be adbc
000002e0: 01c6 eabc 2a9f e93c d46d 483d 0f01 a03b
000002f0: 4b11 913d 4081 1dbe 1aa6 713d 116f ccbc
00000300: 3102 1e3d 4c63 8b3d 29d0 a1bc 5402 163d
00000310: ce4d 103d 6422 a3bd 151e bfbc dd38 943d
00000320: 37db 7c3c 58fe ab3d 8150 b7bd e772 4fbc
00000330: cd02 b13d 6ea1 5b3d d754 2cbc 9ed6 12bd
00000340: 1d66 afbd a703 ae3c 61c4 423d 74fb 223d
00000350: fad7 053d e687 24bd 7ea6 6bbc 1f46 abbd
00000360: 95fe bcbd 67a5 423d 5532 75bd d4c3 813d
00000370: 876f a5bd 0f9a 07bb a0e6 143d 60f2 513c
00000380: 4493 443c 082a 763d 7b99 1c3d 8da9 683b
00000390: 546a c8bd d127 d63d 38ee 7fbc cd57 a3bc
000003a0: d040 2d3d 4a52 bf3b f27e c6bd 3314 f23d
000003b0: c2d1 8dbc a302 1fbd 16a3 9bbc 4202 2e3d
000003c0: c87c 253d 6519 333d 922f b7bd d792 9ebd
000003d0: 6853 be3d b63c a5bd 583e 40bd 3d11 3a3d
000003e0: 352c 91bc 40d4 283d 0e77 603d 5451 033d
000003f0: 0037 a6bc b549 7cbc 7815 e43d f411 98bd

lstm.weight_hh_l0 f4 [256, 64]
0.029436473 -0.07991632 -0.08749835 0.11656833 0.0007089324 0.13411789 0.05996085 -0.036908377
0.10921519 -0.0184057 0.08034813 0.08243107 -0.1307454 0.1272127 0.1323919 -0.11209222
-0.060525235 0.049224433 -0.044313572 0.13618337 0.0051969667 -0.04513497 -0.10231198 0.07262381
0.10100045 -0.014335838 -0.10377155 0.13181828 -0.045474477 -0.04513035 0.09997211 -0.08308437
0.08801846 -0.061360028 -0.15711206 -0.08362444 -0.09821021 -0.054940566 0.069406256 -0.04186259
0.039142307 0.12383434 -0.036521435 0.080315664 -0.03598757 0.035304178 -0.15509771 0.060678154
-0.11930274 0.0071846717 0.14598775 -0.060755264 -0.089783266 0.06739865 0.0072961817 0.051864754
0.074371204 -0.022534726 -0.021920951 0.04772277 -0.10516903 -0.007929733 -0.09284404 0.024161214
0.041781124 0.0017972603 0.004706378 0.12205559 -0.12793247 -0.021437827 0.017019872 -0.040368725
0.051209733 -0.11204566 0.041508734 0.054384608 0.08328186 0.067179576 -0.10608893 -0.006200766
-0.10550022 0.106262445 0.09769287 -0.05536061 0.060605362 0.012410412 -0.0046983412 0.07449762
-0.11864817 -0.021831268 -0.0043469123 0.04993229 -0.12705433 -0.058392797 -0.0014446303 -0.067131594
-0.06223903 -0.093828484 -0.092830166 0.09239998 -0.11396251 0.07283875 0.025527345 -0.109730564
-0.04032472 -0.039534498 0.06378571 0.08921777 -0.01516104 0.046872914 -0.054996718 -0.060912825
0.0547472 0.050100148 -0.061036304 -0.048818108 0.038603533 0.043297283 -0.08299156 0.09199717
-0.069695905 0.08526566 0.057086296 -0.060718033 -0.052770548 0.0027039936 -0.12995793 0.057472758
0.020709017 -0.07157676 -0.023407629 -0.013729478 0.02008951 -0.12170173 -0.06572688 0.004942212
-0.013114023 0.14495715 0.0049247756 0.09530604 0.05888798 0.043206535 0.036123868 0.0059625763
0.0224503 0.03888021 -0.022676367 -0.002700772 -0.03694939 -0.1279176 -0.04257281 0.037194297
0.0852748 -0.12620455 -0.11444711 -0.14004222 0.1319259 -0.09275457 -0.15726449 0.103073984
-0.07260707 0.12683341 0.1101352 -0.0314693 0.042353574 -0.028540788 0.032887552 0.06656928
0.058413226 -0.16985695 -0.038489025 0.049761463 0.056004595 0.01634012 -0.082483105 0.07112391
-0.04468183 0.07866571 -0.06752632 -0.035821278 -0.0029993998 0.114604786 -0.023333473 -0.08188129
-0.011615646 -0.03170162 0.06719451 0.0014937166 -0.11388728 0.059985556 -0.09067081 0.08368787
0.08474938 -0.075538814 0.008227185 -0.060579475 -0.026930338 0.07374854 0.067440085 0.005294928
0.10648423 -0.04449017 -0.026565608 -0.13626575 0.07885935 0.112169474 -0.029037317 -0.038254477
-0.007820305 0.023409186 0.0041402387 0.017192334 -0.012658242 -0.019585596 -0.032354888 0.04550587
0.12381034 0.08119297 -0.0058397604 0.05146434 0.11493848 -0.03739313 -0.067605846 -0.08828264
-0.02453676 -0.05289203 -0.19061038 -0.080479205 -0.09395153 0.14371818 -0.040270887 -0.06641252
-0.005874666 0.02006453 0.07949082 0.096746296 -0.11619147 -0.015622858 -0.033232678 0.08115119
0.026260797 -0.034453508 0.1985067 -0.06219089 0.01219465 -0.000525261 0.1396477 -0.060416017
-0.05997417 -0.09749645 0.11583897 -0.04222836 0.021415913 0.07087328 -0.09894695 0.03583828
00000000: c224 f13c 2bab a3bd 5632 b3bd 60bb ee3d
00000010: a6d7 393a 3356 093e 8299 753d 3d2d 17bd
00000020: 37ac df3d 8dc7 96bc 8f8d a43d 9fd1 a83d
00000030: 1fe2 05be 0c44 023e be91 073e 9b90 e5bd
00000040: 4fe9 77bd 8f9f 493d 2682 35bd a773 0b3e
00000050: 514b aa3b 72df 38bd f288 d1bd cbbb 943d
00000060: 53d9 ce3d dde0 6abc 2e86 d4bd 5ffb 063e
00000070: 7243 3abd 9ada 38bd 2dbe cc3d 2328 aabd
00000080: 0643 b43d a754 7bbd fce1 20be 4a43 abbd
00000090: 6f22 c9bd 5c09 61bd de24 8e3d 1b78 2bbd
000000a0: af53 203d dc9c fd3d 8097 15bd 8a7c a43d
000000b0: b467 13bd 1d9b 103d efd1 1ebe a889 783d
000000c0: ff54 f4bd 656d eb3b d07d 153e 83da 78bd
000000d0: 4ae0 b7bd 4e08 8a3d cf14 ef3b 2370 543d
000000e0: ee4f 983d bf9a b8bc 9193 b3bc f478 433d
000000f0: dc62 d7bd b6eb 01bc 0425 bebd bded c53c
00000100: af22 2b3d 0c92 eb3a f637 9a3b 48f8 f93d
00000110: bb00 03be 629e afbc 426d 8b3c ad59 25bd
00000120: 4cc1 513d 3278 e5bd 1005 2a3d 65c2 5e3d
00000130: ae8f aa3d 7295 893d 2745 d9bd cc2f cbbb
00000140: 8010 d8bd 20a0 d93d 3313 c83d cfc1 62bd
00000150: 543d 783d 0a55 4b3c 8bf4 99bb 3592 983d
00000160: d0fd f2bd 7dd7 b2bc 8b70 8ebb cd85 4c3d
00000170: 881a 02be 492d 6fbd c059 bdba 4a7c 89bd
00000180: 5aee 7ebd 2629 c0bd be1d bebd 333c bd3d
00000190: 2d65 e9bd 7c2c 953d b91e d13c 6bba e0bd
000001a0: 892b 25bd edee 21bd 15a2 823d ceb7 b63d
000001b0: 0366 78bc d0fd 3f3d 3d44 61bd ba7f 79bd
000001c0: 9a3e 603d d035 4d3d 3401 7abd 7ff5 47bd
000001d0: bd1e 1e3d 7e58 313d 7bf7 a9bd 0369 bc3d
000001e0: babc 8ebd c39f ae3d 52d3 693d 79b3 78bd
000001f0: ee25 58bd 7c35 313b b113 05be 8e68 6b3d
00000200: f5a5 a93c d696 92bd 5bc1 bfbc 9bf1 60bc
00000210: c292 a43c c23e f9bd d19b 86bd 47f2 a13b
00000220: 33dc 56bc a66f 143e 0360 a13b d02f c33d
00000230: 8634 713d 56f9 303d 9ff6 133d b761 c33b
00000240: b1e9 b73c db40 1f3d cac3 b9bc 6fff 30bb
00000250: 3e58 17bd d5fc 02be d460 2ebd 0c59 183d
00000260: 8ea4 ae3d c43b 01be 3f63 eabd 3a67 0fbe
00000270: 9517 073e 1cf6 bdbd f109 21be 7418 d33d
00000280: 04b3 94bd 9ee0 013e 908e e13d f4e5 00bd
00000290: f17a 2d3d 5fce e9bc 19b5 063d 7a55 883d
000002a0: b542 6f3d fbee 2dbe aba6 1dbd add2 4b3d
000002b0: 1365 653d b7db 853c e7ec a8bd 6aa9 913d
000002c0: 4b04 37bd 7d1b a13d 3d4b 8abd 55b9 12bd
000002d0: 9491 44bb eab5 ea3d d725 bfbc 61b1 a7bd
000002e0: 8d4f 3ebc 8fd9 01bd 469d 893d d0c8 c33a
000002f0: bc3d e9bd 6ab3 753d 9eb1 b9bd 8c64 ab3d
00000300: 1591 ad3d 18b4 9abd 51cb 063c 2f22 78bd
00000310: 039d dcbc 7909 973d 071e 8a3d 1381 ad3b
00000320: 6714 da3d 533b 36bd 1ea0 d9bc 4089 0bbe
00000330: 0381 a13d 1cb9 e53d abdf edbc bab0 1cbd
00000340: bd20 00bc 9fc4 bf3c d7aa 873b f0d6 8c3c
00000350: 8464 4fbc f971 a0bc 8f86 04bd 5d64 3a3d
00000360: 4790 fd3d 8048 a63d 765b bfbb 46cc 523d
00000370: de64 eb3d 8a29 19bd ef74 8abd 87cd b4bd
00000380: 5101 c9bc 50a5 58bd 5e2f 43be 48d2 a4bd
00000390: a969 c0bd dc2a 133e 16f3 24bd 4a03 88bd
000003a0: 4580 c0bb 5f5e a43c 15cc a23d ec22 c63d
000003b0: cbf5 edbd 04f7 7fbc fd1e 08bd 9832 a63d
000003c0: e220 d73c 1f1f 0dbd 5745 4b3e e0bb 7ebd
000003d0: 12cc 473c abb1 09ba cfff 0e3e c976 77bd
000003e0: 7aa7 75bd 38ac c7bd fb3c ed3d a5f7 2cbd
000003f0: 6d70 af3c 0326 913d b3a4 cabd 29cb 123d

lstm.bias_ih_l0 f4 [256]
-0.15625626 0.03076011 0.19326459 -0.15369982 0.08976885 0.017896144 0.13977821 -0.113527045
0.044797707 0.029744038 0.046462487 -0.07662178 0.044916928 0.045491323 0.047170527 0.022789022
-0.01690281 -0.0769641 0.05402896 -0.111083746 0.061979737 -0.08729629 0.04086991 0.09147961
0.07055007 0.024565974 -0.03494679 -0.0047443886 -0.0012191427 0.051775128 -0.15057848 -0.017383968
-0.022520652 -0.0002945984 0.08001133 -0.033779964 -0.05505592 0.0051763807 0.13372545 0.07051586
-0.11913742 -0.088964656 0.055690072 -0.07883811 -0.032306172 -0.13179295 -0.072825424 0.06977581
-0.07169396 -0.0409966 0.0154069895 0.1317041 0.039419457 0.08076436 0.019706346 -0.077745445
0.088237494 -0.012264557 0.109057024 0.0015544206 -0.03272155 0.11812397 -0.088447936 0.01682247
0.054702196 0.06804886 0.15117517 -0.13548252 0.0500714 -0.050068066 0.11447522 0.09386754
-0.06673457 0.18372409 0.063249744 0.06449677 -0.06355588 -0.0042008166 -0.09352761 -0.09446318
-0.07899486 0.021053279 0.07303877 -0.1401548 0.009662824 -0.012912427 -0.00037541764 0.070057206
0.0459067 -0.122909784 -0.13166678 0.045768663 -0.08303488 -0.084216624 0.010158971 -0.009120332
-0.0062274616 -0.0507227 0.044453494 0.024872148 -0.036413923 -0.04927432 0.1257445 -0.11779302
0.0741992 0.019014917 -0.0018057759 -0.11562383 -0.17989647 -0.13174124 -0.015072403 -0.05817809
-0.0075062085 -0.05538792 0.03869783 -0.046071425 -0.15289918 0.07476448 -0.18880314 -0.023380017
0.058651015 0.021150947 0.010710385 0.03637587 -0.07784916 -0.014984275 -0.030932397 0.0801208
-0.06614193 0.14499187 0.15132482 -0.023179008 0.056907866 -0.017267294 -0.14818858 -0.10297408
0.08200415 0.014188336 -0.121204875 -0.00039081837 -0.040277172 -0.14360763 -0.0936873 0.107881114
-0.09993385 0.16329505 -0.0869485 0.06200452 -0.05545795 -0.11997979 0.060971443 -0.18832898
-0.18821438 -0.086012475 -0.014618155 -0.16475175 0.07540454 0.026139142 0.10751843 0.069786124
0.11973349 0.13292953 0.20495446 0.030231057 0.10540891 -0.15083589 0.17707592 0.07759513
0.08983368 -0.18124832 -0.03344861 -0.028467407 -0.049103435 -0.023928236 0.13760439 0.14486578
-0.03396087 -0.061828718 0.007068116 -0.008732124 0.066457585 0.19926223 -0.076998934 -0.034319367
0.17213711 0.058141842 -0.17739724 0.20328134 -0.076523885 -0.23986876 0.084239505 -0.18030931
-0.010895891 -0.12725092 0.21127024 -0.109001935 0.065975666 0.080085576 -0.03655897 0.063683785
-0.10115208 0.112780444 0.08862752 0.07014142 -0.03536309 0.06400891 -0.06269732 0.11080428
-0.108869456 -0.09424675 0.050247643 -0.14244159 0.0889178 -0.047858953 -0.08167487 0.25435168
0.0823414 -0.026224038 -0.021751354 0.06098627 0.05077012 -0.1499004 -0.10113657 -0.12077638
-0.08440731 0.0526832 0.09758575 0.019026084 0.027685205 -0.016772699 0.007080339 -0.027523817
0.09473166 0.06634381 -0.1249962 -0.07970298 -0.16311796 -0.13536552 -0.062579036 -0.08643797
0.05337211 -0.0236297 0.15737082 -0.087497726 -0.0007626579 -0.018433977 -0.07674135 -0.13585089
0.10620491 -0.0053368383 0.07210986 -0.047361005 0.0026196458 0.09635719 -0.13294055 0.046456747
00000000: a401 20be a0fc fb3c 27e7 453e 7c63 1dbe
00000010: bbd8 b73d ef9a 923c 0522 0f3e de80 e8bd
00000020: cd7d 373d c5a9 f33c 734f 3e3d e1eb 9cbd
00000030: d0fa 373d 1c55 3a3d e235 413d 0bb0 ba3c
00000040: c377 8abc 5b9f 9dbd 794d 5d3d e07f e3bd
00000050: 77de 7d3d 66c8 b2bd 3567 273d a959 bb3d
00000060: 8e7c 903d 953e c93c 5e24 0fbd d176 9bbb
00000070: a4cb 9fba 2812 543d 3f31 1abe d368 8ebc
00000080: 3b7d b8bc 5474 9ab9 fbdc a33d dc5c 0abd
00000090: 5182 61bd a19e a93b 53ef 083e 9f6a 903d
000000a0: 52fe f3bd 1a33 b6bd 461b 643d e075 a1bd
000000b0: 7a53 04bd bbf4 06be 7f25 95bd 9fe6 8e3d
000000c0: 48d4 92bd 0dec 27bd 996d 7c3c 71dd 063e
000000d0: 4c76 213d c967 a53d 346f a13c 0139 9fbd
000000e0: dcb5 b43d 48f1 48bc 4a59 df3d b3bd cb3a
000000f0: 0807 06bd fbea f13d 3124 b5bd 47cf 893c
00000100: 690f 603d 335d 8b3d aacd 1a3e eebb 0abe
00000110: ab17 4d3d 2c14 4dbd fc71 ea3d a03d c03d
00000120: 22ac 88bd 2b22 3c3e 1589 813d e216 843d
00000130: 9629 82bd 01a7 89bb 678b bfbd e975 c1bd
00000140: 0fc8 a1bd ed77 ac3c 5a95 953d bd84 0fbe
00000150: d250 1e3c a58e 53bc b4d3 c4b9 277a 8f3d
00000160: aa08 3c3d 20b8 fbbd a8d3 06be ec77 3b3d
00000170: 310e aabd c479 acbd d071 263c 726d 15bc
00000180: bc0f ccbb 9bc2 4fbd de14 363d adc0 cb3c
00000190: c426 15bd dfd3 49bd 2bc3 003e 783d f1bd
000001a0: c0f5 973d 2cc5 9b3c c9af ecba 30cc ecbd
000001b0: c836 38be 2de7 06be 3df2 76bc 264c 6ebd
000001c0: a4f6 f5bb 72de 62bd 9e81 1e3d 64b5 3cbd
000001d0: 9a91 1cbe 1f1e 993d 9c55 41be 7387 bfbc
000001e0: 0c3c 703d c044 ad3c 9c7a 2f3c ddfe 143d
000001f0: 616f 9fbd 9b80 75bc f065 fdbc 6016 a43d
00000200: 6c75 87bd c078 143e e5f4 1a3e e7e1 bdbc
00000210: 3918 693d 2474 8dbc bfbe 17be 13e4 d2bd
00000220: cbf1 a73d 3276 683c 433a f8bd c1e6 ccb9
00000230: adf9 24bd e10d 13be 21df bfbd c6f0 dc3d
00000240: 1eaa ccbd d136 273e 0e12 b2bd 74f8 7d3d
00000250: e027 63bd f7b7 f5bd 31bd 793d 50d9 40be
00000260: 45bb 40be 4f27 b0bd fc80 6fbc afb4 28be
00000270: b26d 9a3d c121 d63c 9f32 dc3d 07ec 8e3d
00000280: d536 f53d ae1e 083e 95df 513e 1fa7 f73c
00000290: a0e0 d73d b974 1abe 6453 353e 32ea 9e3d
000002a0: b8fa b73d 2999 39be 6901 09bd 7b34 e9bc
000002b0: af20 49bd 2605 c4bc 2ae8 0c3e b257 143e
000002c0: 8e1a 0bbd 1c40 7dbd a89b e73b 2f11 0fbc
000002d0: ea1a 883d 660b 4c3e 9eb1 9dbd 7792 0cbd
000002e0: b644 303e 2426 6e3d 9fa7 35be fc28 503e
000002f0: 8eb8 9cbd 28a0 75be c385 ac3d 01a3 38be
00000300: ae84 32bc 114e 02be 3a57 583e 683c dfbd
00000310: 401e 873d e803 a43d dcbe 15bd a56c 823d
00000320: d228 cfbd 6ff9 e63d 5882 b53d 4ea6 8f3d
00000330: e3d8 10bd 1a17 833d 7467 80bd 5bed e23d
00000340: f3f6 debd 7104 c1bd 79d0 4d3d 35dc 11be
00000350: 891a b63d c007 44bd 2745 a7bd 623a 823e
00000360: 9ca2 a83d cbd3 d6bc e52f b2bc bdcc 793d
00000370: 54f4 4f3d 7e7f 19be b120 cfbd 9b59 f7bd
00000380: bddd acbd 57ca 573d 0adb c73d 97dc 9b3c
00000390: 15cc e23c e666 89bc 3002 e83b a179 e1bc
000003a0: ac02 c23d 43df 873d 02fe ffbd 513b a3bd
000003b0: 6508 27be 429d 0abe 7029 80bd 6406 b1bd
000003c0: b79c 5a3d 1393 c1bc d125 213e 0232 b3bd
000003d0: 1bed 47ba da02 97bc 922a 9dbd 7f1c 0bbe
000003e0: f681 d93d a5e0 aebb 56ae 933d 9dfd 41bd
000003f0: 5dae 2b3b eb56 c53d 9121 08be 6e49 3e3d

lstm.bias_hh_l0 f4 [256]
-0.035785668 -0.11187526 0.1539465 -0.01940179 0.07956285 0.11487374 -0.04957027 0.013792248
-0.017556395 0.08843806 0.007869701 -0.13342254 -0.03508753 -0.007525963 -0.12237291 0.0009070234
-0.017086642 -0.088481374 0.14336485 -0.136826 0.043861564 -0.11463915 -0.009614508 -0.006333391
-0.13141446 0.10865953 -0.054120444 -0.0064973603 -0.16036114 -0.07666202 -0.08307833 -0.13937417
-0.022215104 0.023763325 0.1863749 0.057225212 0.07609231 0.03717848 0.11850843 -0.00013963318
-0.048167527 0.03165359 -0.0043678707 0.040776398 -0.061230414 -0.03720389 -0.09194762 0.01827055
0.0703437 -0.14552803 0.1953076 0.007749972 -0.1267 -0.036332924 -0.117826805 -0.08385488
0.06749274 0.115659945 0.12906955 0.09737566 0.032446682 -0.045507383 -0.03593328 0.12784882
-0.01966546 -0.062866986 0.0015917652 -0.03825967 -0.12603325 0.03050232 0.053670477 0.021504126
-0.009271988 0.05425028 -0.12652354 0.060651176 -0.06856722 -0.009390075 -0.010121494 -0.13843742
-0.102385454 0.044944517 -0.016867498 0.060926106 -0.08320547 -0.06704972 -0.036178052 0.20639469
0.0070587094 0.030443005 0.010306767 0.0514609 -0.013769031 -0.012087506 0.06266838 -0.070568204
0.00074033445 0.14846577 0.123182446 -0.09609038 -0.10967371 0.062465254 0.09838247 -0.08992919
0.0229111 0.0928129 0.05353169 0.048427965 -0.016672816 -0.015919574 -0.045235194 -0.124410085
0.02250845 -0.087600656 0.12141166 0.024855133 0.0036910865 0.1818192 -0.13109182 -0.11219715
0.05332467 -0.1271187 0.03129325 0.0970915 -0.11748202 -0.017753875 -0.100268446 -0.08901034
-0.08382605 0.080703005 0.09390122 0.033856355 0.110601015 -0.19306166 -0.09264537 -0.19285735
-0.07023401 0.14001505 -0.14683837 -0.086293675 0.011796448 -0.09474824 -0.17118585 0.0884376
0.008335991 0.025417442 -0.14354229 -0.10776723 -0.15923828 0.078081645 0.063088514 -0.15335749
-0.14937325 -0.12491491 0.029198948 -0.04943855 -0.073650554 0.005375785 0.04782688 0.047227953
-0.097116254 0.077308565 0.20961751 0.11603752 0.077083305 -0.011071734 0.186349 0.14565529
0.1390231 -0.022970302 0.078620024 0.06735267 0.04432707 0.044993795 0.18294293 0.1423629
0.05462157 -0.09397456 -0.16147767 -0.10810185 -0.0951339 0.12778214 0.09936638 0.021275004
0.054453697 0.10913097 -0.19693838 0.08418467 -0.045823824 -0.18971238 0.004447444 0.05848726
-0.031170832 -0.10485915 0.20128524 -0.08745644 0.092644244 0.0109822545 0.046906486 0.039884936
-0.039894436 0.13663697 0.002100344 -0.07453813 0.012571337 -0.044339154 0.099191785 0.06029699
-0.04874941 -0.052934974 0.14741276 0.08205095 0.19634286 -0.12610303 -0.14813319 0.04219974
0.05595542 -0.101415195 -0.023144538 -0.07940839 0.03703794 -0.08395483 -0.08266703 -0.05256254
0.01480817 0.106854126 0.199927 -0.11867475 0.05732481 -0.03361187 -0.06220751 -0.05582844
0.043082852 0.053113986 -0.044917803 0.037056003 -0.17053913 0.034871995 0.02748801 0.08557722
-0.14170638 -0.021027563 0.17322269 0.08138469 -0.14945456 0.20432073 -0.062623255 -0.031870056
-0.011807058 0.08742175 0.013719192 -0.04239447 -0.013077416 0.08134834 -0.07143057 0.043746956
00000000: fe93 12bd db1e e5bd 27a4 1d3e 81f0 9ebc
00000010: d9f1 a23d ec42 eb3d 320a 4bbd e2f8 613c
00000020: 6ed2 8fbc 031f b53d ebef 003c eb9f 08be
00000030: f1b7 0fbd 5a9c f6bb a69e fabd 4fc5 6d3a
00000040: 49f9 8bbc b935 b5bd 3cce 123e 1d1c 0cbe
00000050: 2fa8 333d eec7 eabd 2b86 1dbc 5688 cfbb
00000060: 8391 06be e388 de3d 66ad 5dbd cfe7 d4bb
00000070: b635 24be fa00 9dbd f924 aabd 1ab8 0ebe
00000080: 73fc b5bc 4eab c23c 10d9 3e3e fc64 6a3d
00000090: 49d6 9b3d 7648 183d 8cb4 f23d 7f6a 12b9
000000a0: 504b 45bd 32a7 013d 5b20 8fbb 2705 273d
000000b0: becc 7abd 1b63 18bd 094f bcbd 1fac 953c
000000c0: 5c10 903d 4d05 15be b7fe 473e 7af3 fd3b
000000d0: a5bd 01be d5d1 14bd 2e4f f1bd 1bbc abbd
000000e0: a239 8a3d 1fdf ec3d cf2a 043e e46c c73d
000000f0: d0e6 043d f365 3abd c62e 13bd cdea 023e
00000100: 7519 a1bc 68c0 80bd c7a2 d03a 2cb6 1cbd
00000110: dc0e 01be 00e0 f93c 93d5 5b3d 6c29 b03c
00000120: 89e9 17bc 8b35 5e3d 638f 01be 5e6d 783d
00000130: f86c 8cbd d4d8 19bc 9fd4 25bc 8ac2 0dbe
00000140: 77af d1bd be17 383d b52d 8abc a78d 793d
00000150: a167 aabd 5d51 89bd 702f 14bd 2159 533e
00000160: bf4c e73b 9c63 f93c b7dd 283c aac8 523d
00000170: 8097 61bc ad0a 46bc 4858 803d 1086 90bd
00000180: 0113 423a 6907 183e 1447 fc3d 08cb c4bd
00000190: 9c9c e0bd 91db 7f3d c07c c93d cc2c b8bd
000001a0: 0fb0 bb3c b114 be3d 0c44 5b3d 675c 463d
000001b0: 6e95 88bc c469 82bc 8a48 39bd b7ca febd
000001c0: a463 b83c f967 b3bd ada6 f83d fe9c cb3c
000001d0: 28e6 713b d02e 3a3e ef3c 06be 9fc7 e5bd
000001e0: f86a 5a3d 682b 02be 5a2d 003d e9d7 c63d
000001f0: 6a9a f0bd 9370 91bc 8b59 cdbd 0e4b b6bd
00000200: feac abbd 9e47 a53d 484f c03d f6ac 0a3d
00000210: c982 e23d f5b1 45be dbbc bdbd 667c 45be
00000220: d9d6 8fbd 1b60 0f3e cc5c 16be bdba b0bd
00000230: e445 413c 5e0b c2bd 584b 2fbe c61e b53d
00000240: ae93 083c 3d38 d03c c0fc 12be 11b5 dcbd
00000250: 5c0f 23be 45e9 9f3d 8d34 813d bf09 1dbe
00000260: 4df5 18be 63d3 ffbd a232 ef3c 1480 4abd
00000270: 1ad6 96bd 5a27 b03b 1ee6 433d 1972 413d
00000280: e3e4 c6bd f453 9e3d f9a5 563e 14a5 ed3d
00000290: dadd 9d3d 3866 35bc 46d2 3e3e a926 153e
000002a0: 125c 0e3e 372c bcbc 8903 a13d 32f0 893d
000002b0: 4d90 353d 6a4b 383d 6455 3b3e 94c7 113e
000002c0: deba 5f3d bc75 c0bd 675a 25be 8164 ddbd
000002d0: 90d5 c2bd 52d9 023e 9a80 cb3d eb48 ae3c
000002e0: d70a 5f3d 0f80 df3d 37aa 49be 0369 ac3d
000002f0: c3b1 3bbd f643 42be ddbb 913b 5690 6f3d
00000300: f959 ffbc 65c0 d6bd b81d 4e3e 5d1c b3bd
00000310: 44bc bd3d eaee 333c 0421 403d 635e 233d
00000320: 5968 23bd 90ea 0b3e eda5 093b 72a7 98bd
00000330: 02f8 4d3c f99c 35bd 1025 cb3d faf9 763d
00000340: 76ad 47bd 58d2 58bd 5ff3 163e 540a a83d
00000350: 1a0e 493e 2721 01be 3ab0 17be a2d9 2c3d
00000360: 8331 653d c5b2 cfbd 9d99 bdbc dea0 a2bd
00000370: 18b5 173d 83f0 abbd 554d a9bd d14b 57bd
00000380: f79d 723c 56d6 da3d aab9 4c3e bf0b f3bd
00000390: 6ccd 6a3d 9aac 09bd 4dcd 7ebd 5dac 64bd
000003a0: a577 303d 0d8e 593d bbfb 37bd 09c8 173d
000003b0: cfa1 2ebe f0d5 0e3d 892e e13c 1c43 af3d
000003c0: 7a1b 11be ff41 acbc 4a61 313e 04ad a63d
000003d0: 9e0a 19be 7439 513e 9f40 80bd 2d8a 02bd
000003e0: 6472 41bc 2d0a b33d 76c6 603c d3a5 2dbd
000003f0: a942 56bc f599 a63d 314a 92bd 0230 333d

lstm.weight_ih_l0_reverse f4 [256, 26]
-0.025084252 -0.07992171 -0.028239 -0.04705975 -0.005290142 0.036129028 0.048683487 0.095796265
-0.04088073 -0.105514236 -0.009442906 -0.052628543 0.0876946 0.026696483 0.0027813795 -0.025099676
-0.027153056 0.12232227 -0.03916494 0.03422325 0.011264357 -0.085737616 -0.103334315 0.12902534
-0.007722766 0.03948176 0.07365391 -0.114146024 0.06328688 0.07091911 -0.013765233 -0.026835257
0.05801156 -0.03098575 0.07222855 0.017025841 0.038329612 -0.1314139 -0.03593663 0.05412722
-0.025333783 0.041281104 -0.1080266 0.07239666 -0.039702136 -0.004189777 0.03103059 0.048473813
-0.076326214 -0.024376642 -0.022850486 -0.010288822 -0.10365644 -0.02493929 0.06496704 -0.060162105
-0.010361411 -0.013705834 0.028089736 0.12369495 -0.09898689 -0.08484029 -0.03449494 0.051216222
-0.08280162 -0.0004598818 0.011723708 0.01081703 -0.033172596 0.10910677 -0.045187417 0.021365626
0.08874365 0.03088668 0.052148234 -0.048785023 7.1549686e-05 -0.0044607758 -0.08816363 -0.067891404
-0.058184918 -0.07423445 -0.01264398 -0.042362053 -0.041206144 -0.04935134 -0.070372835 0.14188425
0.09571334 0.11795197 -0.066595085 0.06675461 -0.016627818 -0.0345616 0.040475 -0.037566923
-0.04893712 -0.013061676 0.03165957 0.09374875 -0.08798558 0.12744853 0.013716588 0.017095404
-0.11043603 -0.021586377 -0.06431144 0.07412669 -0.00040052348 0.018739887 0.09666265 -0.0575776
0.09054714 -0.025775235 0.03494382 0.026457872 0.088410735 -0.048553374 0.028090708 0.0052170516
0.03791684 -0.051344752 -0.0073396214 0.005141377 -0.09304053 -0.0022243068 0.09667561 -0.109039485
-0.04824632 0.0058938973 0.10158882 -0.068786286 -0.07986425 0.09890675 -0.009880142 -0.0005678913
-0.03553993 -0.023981279 -0.08597121 -0.04004426 -0.06946442 0.072776325 0.07124226 -0.038427863
0.018562352 -0.019151831 0.06988657 -0.0057436563 -0.024786107 -0.034439567 -0.043068156 0.041356925
0.021042058 0.09616816 -0.030637452 -0.048536975 0.082881905 -0.057065833 -0.09252617 0.113749094
-0.022187341 -0.03717887 -0.011069943 0.052959844 -0.03830452 0.04492123 -0.098918326 -0.110015914
-0.08404953 0.007876865 -0.012480725 -0.039323818 -0.0821393 0.044696048 0.0005579133 -0.02014885
0.117131695 0.05510818 0.09507561 0.0694583 -0.084748454 0.0004263756 -0.010006364 0.068484746
-0.062013064 -0.14092466 -0.0117648 -0.012155212 -0.00067935965 -0.0008566619 0.037196603 -0.03253332
-0.020616734 0.06962148 0.0072607915 0.045573894 0.06671863 -0.039029744 -0.058794294 0.048988502
0.02768399 0.0047322544 -0.025764901 -0.0010055108 0.06198142 0.08815966 -0.015659202 0.0016518947
0.079314895 -0.065826446 -0.07891112 0.08953212 0.02035865 -0.016106972 -0.032447226 0.10950507
-0.0762403 -0.055442296 -0.024358498 0.106792815 -0.05501996 0.04990196 -0.003742809 0.0187592
-0.037076402 -0.08343462 -0.05011092 -0.05159891 0.0075099096 0.10297075 -0.059695292 -0.01394771
0.04638208 0.010958699 0.037486557 -0.063099325 0.05240689 0.110038646 -0.035343572 0.0029645506
-0.09882733 -0.01193603 -0.0028041322 -0.08157725 0.017064162 0.052406363 0.00038395662 -0.050746903
0.06805405 -0.06627375 -0.088327974 -0.09776099 0.0049736444 0.022087464 0.01310606 0.08155059
00000000: 7d7d cdbc fead a3bd 7a55 e7bc b9c1 40bd
00000010: ed58 adbb 08fc 133d 5668 473d d530 c43d
00000020: 8d72 27bd d917 d8bd 6bb6 1abc 0791 57bd
00000030: 3a99 b33d 95b2 da3c ce47 363b d69d cdbc
00000040: 1670 debc 1984 fa3d 6b6b 20bd ae2d 0c3d
00000050: 238e 383c 3497 afbd f1a0 d3bd 381f 043e
00000060: 420f fdbb a0b7 213d dcd7 963d 64c5 e9bd
00000070: 8d9c 813d 0a3e 913d 9287 61bc 9dd5 dbbc
00000080: 889d 6d3d d4d5 fdbc 90ec 933d c779 8b3c
00000090: 83ff 1c3d 5e91 06be 4a32 13bd 81b4 5d3d
000000a0: cb88 cfbc 6016 293d 0d3d ddbd b344 943d
000000b0: b59e 22bd 664a 89bb dd33 fe3c 7a8c 463d
000000c0: eb50 9cbd 86b1 c7bc f130 bbbc 7392 28bc
000000d0: d449 d4bd 7b4d ccbc 710d 853d 8a6c 76bd
000000e0: e8c2 29bc 6f8e 60bc 721c e63c c753 fd3d
000000f0: a3b9 cabd bfc0 adbd 914a 0dbd 1ac8 513d
00000100: e593 a9bd 4a1c f1b9 cc14 403c ea39 313c
00000110: fddf 07bd 5f73 df3d 7116 39bd f706 af3c
00000120: 3bbf b53d 1006 fd3c 6399 553d ced2 47bd
00000130: f20c 9638 b32b 92bb 228f b4bd a60a 8bbd
00000140: 4f53 6ebd 3b08 98bd b228 4fbc d583 2dbd
00000150: c6c7 28bd a124 4abd a21f 90bd 1b4a 113e
00000160: 5b05 c43d cd90 f13d 0163 88bd a4b6 883d
00000170: 1037 88bc 7790 0dbd 1dc9 253d c6df 19bd
00000180: 4a72 48bd a400 56bc 77ad 013d 58ff bf3d
00000190: c931 b4bd de81 023e 8abb 603c a90b 8c3c
000001a0: 492c e2bd ead5 b0bc b7b5 83bd bccf 973d
000001b0: 5afd d1b9 6484 993c 11f7 c53d 7dd6 6bbd
000001c0: c770 b93d 9626 d3bc 4021 0f3d 2ebe d83c
000001d0: b010 b53d e7df 46bd 7c1e e63c cdf3 aa3b
000001e0: b04e 1b3d e04e 52bd 3581 f0bb ff78 a83b
000001f0: 098c bebd adc5 11bb ddfd c53d 1850 dfbd
00000200: ef9d 45bd 9821 c13b cd0d d03d d3df 8cbd
00000210: de8f a3bd 9f8f ca3d 52e0 21bc 8ade 14ba
00000220: 5192 11bd 6374 c4bc ac11 b0bd 7305 24bd
00000230: 5d43 8ebd c10b 953d 76e7 913d 8966 1dbd
00000240: 1310 983c 4de4 9cbc b120 8f3d 4835 bcbb
00000250: 3c0c cbbc 8110 0dbd 3c68 30bd e165 293d
00000260: 6560 ac3c d0f3 c43d 65fb fabc b5ce 46bd
00000270: fdbd a93d ddbd 69bd 5c7e bdbd 49f5 e83d
00000280: 3ac2 b5bc df48 18bd b55e 35bc 6cec 583d
00000290: 33e5 1cbd 53ff 373d b195 cabd 0650 e1bd
000002a0: 2922 acbd f70d 013c f47b 4cbc 0312 21bd
000002b0: a638 a8bd 3413 373d ee40 123a 330f a5bc
000002c0: bee2 ef3d 1db9 613d 00b7 c23d 2740 8e3d
000002d0: 9990 adbd 2a8b df39 bcf1 23bc bb41 8c3d
000002e0: 6901 7ebd 8e4e 10be 26c1 40bc a826 47bc
000002f0: 0e17 32ba 9b91 60ba 775b 183d a941 05bd
00000300: 6de4 a8bc b595 8e3d efeb ed3b b1ab 3a3d
00000310: c7a3 883d a7dd 1fbd 49d2 70bd 2ba8 483d
00000320: 89c9 e23c 0711 9b3b ea10 d3bc 58cb 83ba
00000330: 3be0 7d3d 0d8d b43d ba47 80bc 6384 d83a
00000340: d96f a23d 04d0 86bd 279c a1bd 9e5c b73d
00000350: 2fc7 a63c c5f2 83bc 62e7 04bd 3244 e03d
00000360: e023 9cbd 7617 63bd 798b c7bc 31b6 da3d
00000370: 9c5c 61bd ff65 4c3d ea49 75bb e5ac 993c
00000380: 6ddd 17bd c5df aabd 1c41 4dbd 6159 53bd
00000390: b015 f63b 54e2 d23d 0d83 74bd f084 64bc
000003a0: 23fb 3d3d 1d8c 333c 818b 193d 383a 81bd
000003b0: 9ba8 563d f15b e13d 6cc4 10bd e848 423b
000003c0: fc65 cabd 578f 43bc 88c5 37bb f911 a7bd
000003d0: 24ca 8b3c 0ea8 563d c94d c939 fcdb 4fbd
000003e0: ec5f 8b3d 88ba 87bd 4ce5 b4bd ea36 c8bd
000003f0: f4f9 a23b c5f0 b43c cdba 563c ff03 a73d

lstm.weight_hh_l0_reverse f4 [256, 64]
0.11973703 0.043940492 -0.09667222 -0.022846283 0.05714096 -0.13538207 0.101399556 0.012165893
0.017061824 -0.021323003 0.108315386 0.054028187 0.042285092 0.1459943 0.116339885 0.0069830846
0.0148428865 -0.026193574 -0.10962328 -0.014948828 0.003083731 -0.12473861 0.0030030424 0.017664501
0.033047557 -0.11556225 0.036939748 -0.08172815 -0.07344879 0.094570965 0.032356225 0.10866222
0.034963377 0.049045056 -0.034311365 0.040042356 0.13714145 0.10531873 -0.09590606 -0.031107979
0.05854396 -0.122790106 0.0012273195 0.120515645 -0.046719722 -0.09925107 0.078659415 0.035553582
-0.01598863 0.08871796 -0.029830253 -0.03984434 -0.018681543 -0.106094 0.06135716 0.12131055
-0.06273064 0.10981009 -0.05018625 0.068510056 0.00011733693 0.0076557295 0.030292625 -0.090377316
0.09775809 -0.040643457 0.071367405 0.03875398 0.06538063 0.12947008 0.08145793 0.025019033
-0.01585188 0.01968683 -0.12970856 -0.06647501 0.051681977 -0.05437841 0.034957103 -0.0728834
-0.038151734 0.092514135 -0.08242052 0.0053189658 -0.06406835 -0.04272097 -0.080767624 -0.10385869
0.002570115 0.09040884 -0.08799408 -0.048615936 0.10839203 0.06173076 -0.0024177658 -0.01353836
-0.0020869079 0.048698634 -0.12444617 -0.015216124 -0.06442708 0.012048979 0.1278654 0.032077495
-0.013888886 -0.06527811 -0.0687842 0.06279137 0.1099435 0.059417497 0.08982462 0.030181251
0.12686376 0.085669406 0.14547564 0.023370381 0.11399508 0.035257783 -0.12053808 -0.10538509
0.052985724 0.0742945 -0.016161146 0.07112732 0.043827705 0.0010887161 -0.11525523 0.029797819
0.046473566 0.007415641 0.08571706 -0.1056549 -0.02367066 -0.09106905 0.07602428 -0.08095416
-0.08776591 -0.009035565 -0.007768095 0.052010737 -0.0066638603 0.08541244 0.03158091 0.06923118
-0.116023384 0.106576696 -0.07774543 0.052038115 -0.068991594 0.13423856 -0.01675393 0.035405155
-0.07438048 -0.021674626 0.004148385 0.03180151 0.003884602 -0.08785806 -0.04473414 -0.092381984
0.050808113 0.05411516 0.10615868 -0.0154369455 -0.108460866 0.07769389 -0.032250248 0.023238664
0.016316876 0.10707051 -0.103360556 -0.07850965 -0.015166946 0.072052434 -0.13480707 -0.013961235
0.032027017 -0.07761929 0.061368078 0.10614753 -0.06777387 0.0732383 -0.02730431 0.0011441505
0.06277253 0.05272114 0.09122685 -0.096159734 -0.13541509 -0.0841697 0.049749486 -0.040873025
-0.03884188 -0.025454955 0.05813739 0.084679924 0.024007536 -0.05805934 0.021594673 -0.020589424
-0.11018351 -0.056476057 -0.011933284 -0.0948616 -0.10980273 0.066366926 0.058375563 -0.0039426037
-0.024117032 -0.056935936 0.059450388 0.03278994 -0.08527589 0.014202316 -0.12909913 0.08445816
-0.09962019 -0.077158086 0.08116155 -0.05465565 0.10629392 0.07590888 0.024402348 0.01841035
-0.11254175 0.03132661 -0.06816743 -0.10802728 -0.005951028 -0.034384914 -0.035010837 -0.123447075
0.075271696 -0.09385639 -0.035674527 0.11908039 -0.09987986 -0.066660464 -0.0027895262 -0.07739565
-0.012192135 0.07118041 0.063247696 -0.10652469 -0.11827462 0.004962903 0.0841511 -0.033955626
0.1197195 -0.029185731 -0.13223971 -0.02509773 -0.10441509 -0.11207395 -0.08449336 0.015006171
00000000: b038 f53d f2fa 333d 16fc c5bd 2128 bbbc
00000010: a40c 6a3d 99a1 0abe 92aa cf3d 7453 473c
00000020: 3dc5 8b3c 94ad aebc 75d4 dd3d a94c 5d3d
00000030: 2233 2d3d 887f 153e 9b43 ee3d 5cd2 e43b
00000040: 942f 733c e893 d6bc 2c82 e0bd eeeb 74bc
00000050: 6c18 4a3b f576 ffbd b1ce 443b 25b5 903c
00000060: e05c 073d e7ab ecbd 224e 173d 1761 a7bd
00000070: 526c 96bd 6cae c13d f687 043d 4c8a de3d
00000080: c235 0f3d 78e3 483d 138a 0cbd 7403 243d
00000090: cf6e 0c3e 59b1 d73d 656a c4bd 29d6 febc
000000a0: cbcb 6f3d 6179 fbbd 02de a03a e8d0 f63d
000000b0: 2e5d 3fbd 2544 cbbd 3018 a13d a2a0 113d
000000c0: 96fa 82bc c3b1 b53d 935e f4bc d233 23bd
000000d0: 090a 99bc d047 d9bd a551 7b3d aa71 f83d
000000e0: ec78 80bd 1de4 e03d 1990 4dbd 004f 8c3d
000000f0: c912 f638 eadc fa3b 3d28 f83c be17 b9bd
00000100: 6535 c83d c179 26bd 1329 923d 7ebc 1e3d
00000110: 48e6 853d ce93 043e 6ad3 a63d b7f4 cc3c
00000120: cddb 81bc 4646 a13c 52d2 04be 0d24 88bd
00000130: 7bb0 533d e5bb 5ebd 2e2f 0f3d e443 95bd
00000140: fe44 1cbd 0d78 bd3d 17cc a8bd b84a ae3b
00000150: 4436 83bd 2ffc 2ebd 7f69 a5bd ddb3 d4bd
00000160: 606f 283b 4528 b93d 3d36 b4bd 8121 47bd
00000170: a4fc dd3d 65d9 7c3d 6173 1ebb ffcf 5dbc
00000180: 81c4 08bb 3878 473d a2dd febd 0d4d 79bc
00000190: 58f2 83bd 1569 453c 26ef 023e b163 033d
000001a0: 368e 63bc 88b0 85bd bbde 8cbd c398 803d
000001b0: 0f2a e13d c35f 733d f8f5 b73d ac3e f73c
000001c0: 93e8 013e 7173 af3d 91f7 143e 3e73 bf3c
000001d0: 4176 e93d 776a 103d abdc f6bd 23d4 d7bd
000001e0: 8f07 593d b727 983d 6164 84bc 33ab 913d
000001f0: ae84 333d 40b3 8e3a ef0a ecbd 8e1a f43c
00000200: 115b 3e3d e8fe f23b 6d8c af3d 9961 d8bd
00000210: f9e8 c1bc 6982 babd 9eb2 9b3d 4bcb a5bd
00000220: 9dbe b3bd e809 14bc 818b febb 3609 553d
00000230: 835c dabb b8ec ae3d fc5a 013d 14c9 8d3d
00000240: ab9d edbd e244 da3d ff38 9fbd eb25 553d
00000250: 774b 8dbd d575 093e 8a3f 89bc ff04 113d
00000260: cb54 98bd fc8e b1bc 2def 873b 4d42 023d
00000270: cf94 7e3b edee b3bd 253b 37bd c432 bdbd
00000280: 2b1c 503d dca7 5d3d b969 d93d 3eeb 7cbc
00000290: bb20 debd f91d 9f3d d618 04bd 035f be3c
000002a0: f8aa 853c c947 db3d b3ae d3bd abc9 a0bd
000002b0: c87e 78bc 3a90 933d dd0a 0abe aabd 64bc
000002c0: c32e 033d ddf6 9ebd 185d 7b3d e063 d93d
000002d0: 07cd 8abd f6fd 953d 4aad dfbc 52f7 953a
000002e0: e28e 803d 1ff2 573d 25d5 ba3d 65ef c4bd
000002f0: 41aa 0abe 2a61 acbd 1ec6 4b3d 796a 27bd
00000300: aa18 1fbd e986 d0bc 7921 6e3d ab6c ad3d
00000310: 74ab c43c a1cf 6dbd 50e7 b03c 27ab a8bc
00000320: e4a7 e1bd 7053 67bd d283 43bc cc46 c2bd
00000330: 41e0 e0bd 62eb 873d 371b 6f3d f530 81bb
00000340: 1591 c5bc a835 69bd 4082 733d be4e 063d
00000350: 20a5 aebd d5b0 683c 9032 04be 66f8 ac3d
00000360: ac05 ccbd 0f05 9ebd 0738 a63d 9ade 5fbd
00000370: a0b0 d93d 1d76 9b3d 6fe7 c73c 4dd1 963c
00000380: 4a7c e6bd 5550 003d 5e9b 8bbd 683d ddbd
00000390: d700 c3bb 32d7 0cbd 8667 0fbd d2d1 fcbd
000003a0: 0c28 9a3d c737 c0bd 741f 12bd 6be0 f33d
000003b0: d08d ccbd 4885 88bd 7cd0 36bb 9c81 9ebd
000003c0: 85c1 47bc 09c7 913d 0288 813d 9e29 dabd
000003d0: f739 f2bd d99f a23b 6957 ac3d 0e15 0bbd
000003e0: 7f2f f53d ea16 efbc d969 07be c199 cdbc
000003f0: 94d7 d5bd 0787 e5bd db0a adbd 71dc 753c

lstm.bias_ih_l0_reverse f4 [256]
-0.10443875 0.03722126 0.05507459 -0.065323696 0.110257335 0.021028826 -0.03718299 -0.04564063
0.031722683 -0.11738691 0.07526445 0.054715935 0.033668485 -0.0064996723 -0.028694969 -0.14065282
0.005368373 -0.1449895 -0.16468452 0.05786817 -0.21270545 -0.10347855 -0.10374042 -0.124564976
-0.05858167 -0.15857522 0.11394634 -0.0106631275 0.026047012 0.04654362 0.05294142 -0.001236684
-0.1187714 0.064095855 0.03287914 -0.015324168 -0.054237895 -0.015277123 0.07232726 -0.01900967
0.04909013 0.032938175 0.08079304 0.05630746 0.0035826478 -0.1432095 0.05196247 0.050444294
-0.003641029 -0.008913058 0.0894351 -0.08598268 0.023893785 -0.096593715 -0.10776259 -0.10623165
-0.1373078 -0.16371457 0.010942723 -0.1355015 -0.011587415 -0.13041885 -0.05609144 -0.15950094
0.047822624 0.015556124 -0.08292119 -0.05040268 0.0031540967 -0.04109073 0.089935996 -0.071566164
0.06590104 0.026983485 0.015816778 -0.087733455 5.202255e-05 -0.0012976124 -0.010284586 -0.036104202
-0.12262799 0.039435226 -0.13214839 0.07317457 -0.0173379 -0.13137549 -0.015967108 -0.08506435
0.009608974 -0.053565837 0.034954093 0.07359921 -0.09738693 -0.019471338 -0.013548137 0.04291999
-0.06763947 -0.033061158 -0.08789063 0.06472182 -0.044641104 0.018862734 -0.124524675 -0.12433777
-0.059731197 0.08039477 -0.017528156 -0.12571947 0.04048656 -0.0062406524 0.03315911 0.06937349
-0.05106768 0.025283052 0.051734596 -0.0067303553 -0.089831896 -0.15496504 0.0053325524 -0.122945465
0.036997482 -0.08742035 -0.1463877 0.006526823 -0.009281918 0.06329678 0.06776739 -0.13158137
0.02781583 -0.14171371 0.13146682 0.07769236 0.036654953 -0.05956688 0.110126995 -0.020035204
-0.06036758 -0.13237402 0.04610554 -0.008476398 0.048635405 -0.20691985 -0.15338576 -0.04484448
0.14990383 0.01374369 -0.052095838 -0.215884 0.000104047846 -0.05913526 -0.13736403 -0.02974637
0.08718834 0.11190812 0.23340195 0.077055134 -0.048048086 -0.013132609 0.123519026 -0.07588186
0.05615753 0.015327828 0.059814304 0.023637729 -0.088717245 -0.019560417 -0.11757692 -0.17919901
-0.04313149 0.012619953 -0.09356429 -0.047547836 -0.07416629 -0.06677182 0.108512 -0.07187954
-0.055851333 0.048765954 -0.15121394 -0.103534326 0.10585865 -0.043399494 0.0013302136 0.18648402
-0.043613184 0.07178669 0.081064805 -0.14060576 0.13476469 0.05872636 -0.053008676 0.038453754
-0.003390155 -0.13180377 0.016291324 -0.0913953 -0.040367793 0.06564316 -0.08995004 0.04288032
-0.20919883 0.09328029 0.024213325 -0.058884416 -0.12534894 -0.11627311 -0.043969832 -0.05845063
0.009864295 -0.081798196 -0.040236644 0.020731486 -0.10815311 -0.12639858 -0.049197134 -0.040421665
0.030919233 -0.046796624 0.0073350207 -0.053413216 -0.1561603 -0.045562014 -0.14891784 0.008263667
0.031544823 -0.10420095 -0.06822604 -0.17456567 0.054139823 -0.041701812 -0.12728971 -0.0014611287
-0.07438192 -0.12171273 0.00910455 -0.0339092 -0.11092812 -0.039955392 -0.13210323 -0.12932102
-0.05516642 -0.05759329 -0.075754575 0.02603471 -0.0840666 0.031209687 -0.043427486 0.06757114
-0.118492804 0.019853309 -0.17499293 -0.115905635 0.04605539 0.072640486 0.008594841 0.008086155
00000000: fce3 d5bd 5275 183d e595 613d 6ec8 85bd
00000010: 99ce e13d a544 ac3c 314d 18bd abf1 3abd
00000020: a5ef 013d 8c68 f0bd 3f24 9a3d d11d 603d
00000030: f7e7 093d 34fb d4bb b611 ebbc 4b07 10be
00000040: 2de9 af3b 2178 14be 0fa3 28be 2d07 6d3d
00000050: 75cf 59be 90ec d3bd db75 d4bd ec1b ffbd
00000060: 55f3 6fbd 8b61 22be b35c e93d 66b4 2ebc
00000070: 8b60 d53c 86a4 3e3d 1ad9 583d 3b18 a2ba
00000080: 6b3e f3bd b044 833d 47ac 063d 3812 7bbc
00000090: 8e28 5ebd e64c 7abc 5120 943d 2bba 9bbc
000000a0: bb12 493d 2eea 063d d276 a53d a7a2 663d
000000b0: dbca 6a3b 83a5 12be 99d6 543d ad9e 4e3d
000000c0: 549e 6ebb 1308 12bc c029 b73d b017 b0bd
000000d0: e6bc c33c edd2 c5bd a2b2 dcbd fb8f d9bd
000000e0: 6a9a 0cbe cba4 27be 1b49 333c e8c0 0abe
000000f0: 24d9 3dbc 858c 05be 23c0 65bd 3754 23be
00000100: a8e1 433d 1ddf 7e3c 96d2 a9bd 0a73 4ebd
00000110: f6b4 4e3b c14e 28bd 5d30 b83d 4891 92bd
00000120: 20f7 863d 780c dd3c 3092 813c 99ad b3bd
00000130: ca32 5a38 a614 aaba ae80 28bc 00e2 13bd
00000140: 6224 fbbd d586 213d e851 07be 8ddc 953d
00000150: 3608 8ebc 4c87 06be 74cd 82bc 3836 aebd
00000160: f56e 1d3c da67 5bbd 062c 0f3d 2fbb 963d
00000170: cc72 c7bd 5b82 9fbc 01f9 5dbc dfcc 2f3d
00000180: 9086 8abd 236b 07bd 0100 b4bd e08c 843d
00000190: 97d9 36bd 0586 9a3c cb06 ffbd cda4 febd
000001a0: b3a8 74bd 03a6 a43d 3597 8fbc 9bbc 00be
000001b0: 3cd5 253d 637e ccbb d9d1 073d b013 8e3d
000001c0: 582c 51bd 671e cf3c a8e7 533d 508a dcbb
000001d0: c9f9 b7bd 28af 1ebe b1bc ae3b d5ca fbbd
000001e0: ac8a 173d 7109 b3bd a8e6 15be f6de d53b
000001f0: 3013 18bc bea1 813d a1c9 8a3d 44bd 06be
00000200: 06de e33c 661d 11be 3d9f 063e 2c1d 9f3d
00000210: 8123 163d 67fc 73bd 438a e13d de20 a4bc
00000220: ff43 77bd 0e8d 07be 2ad9 3c3d 97e0 0abc
00000230: eb35 473d cce2 53be 2811 1dbe d8ae 37bd
00000240: 6480 193e 372d 613c 7262 55bd b210 5dbe
00000250: 4334 da38 d037 72bd 28a9 0cbe a9ae f3bc
00000260: cd8f b23d 1630 e53d ec00 6f3e 15cf 9d3d
00000270: 12ce 44bd 282a 57bc 8bf7 fc3d f367 9bbd
00000280: 7005 663d 9221 7b3c d8ff 743d e9a3 c13c
00000290: 63b1 b5bd 2b3d a0bc 2bcc f0bd f27f 37be
000002a0: a5aa 30bd ebc3 4e3c a29e bfbd 85c1 42bd
000002b0: 7fe4 97bd aabf 88bd 8a3b de3d 9535 93bd
000002c0: 5ec4 64bd cfbe 473d d4d7 1abe ce09 d4bd
000002d0: 6bcc d83d abc3 31bd 905a ae3a abf5 3e3e
000002e0: bda3 32bd e604 933d 4e05 a63d f5fa 0fbe
000002f0: c1ff 093e 0d8b 703d a01f 59bd af81 1d3d
00000300: 5d2d 5ebb 91f7 06be 6275 853c 762d bbbd
00000310: b358 25bd ec6f 863d ba37 b8bd 46a3 2f3d
00000320: 3838 56be bd09 bf3d 065b c63c c930 71bd
00000330: 795b 00be 9920 eebd b619 34bd ee69 6fbd
00000340: da9d 213c d085 a7bd 2ecf 24bd 14d5 a93c
00000350: 617f ddbd a16e 01be ef82 49bd 3091 25bd
00000360: 554a fd3c d1ad 3fbd 9d5a f03b d1c7 5abd
00000370: 7ce8 1fbe 3c9f 3abd eb7d 18be 5564 073c
00000380: 2535 013d 4f67 d5bd 18ba 8bbd 58c1 32be
00000390: b8c1 5d3d 85cf 2abd 3c58 02be 5883 bfba
000003a0: 8c55 98bd 8644 f9bd 402b 153c 60e4 0abd
000003b0: 482e e3bd 44a8 23bd 1246 07be bb6c 04be
000003c0: 2ff6 61bd f1e6 6bbd 3725 9bbd bf46 d53c
000003d0: 1c2b acbd 75ab ff3c 05e1 31bd bd62 8a3d
000003e0: 5bac f2bd 68a3 a23c 5931 33be ef5f edbd
000003f0: 94a4 3c3d 89c4 943d 60d1 0c3c cb7b 043c
